training_nn/model/order2_dynammiclr/Phi_net.pth (torch, 7063 bytes, 7 tensors)

fc1.weight f4 [30, 15]
-4.5234313 3.353553 -0.048173793 -2.9510362 0.039792746 -0.18775544 -1.1847097 0.21684694
0.2313198 0.1590114 0.06321376 -0.46053877 0.375377 0.14647944 -0.2341309 -4.25833
5.4534554 -0.1846551 -6.0411596 -0.42978823 0.10962278 -1.0650073 -0.20557036 -0.10609858
-0.20186582 0.053903945 -0.49236718 0.32717168 0.05319384 -0.40129232 -2.0193374 23.544498
-8.564463 -45.96362 -6.9961963 7.2215633 -5.438871 8.318606 -7.390136 -26.939941
-0.6303229 -19.16485 -4.008308 -0.93413776 -1.9863749 -4.6279407 24.037863 -0.42223114
-24.563522 -1.8901231 2.9271164 -5.4416795 2.2916598 -2.179077 -5.1877923 0.5938478
-3.550884 -0.13078351 0.17214176 -0.854524 -1.5426018 -26.543428 8.1535635 22.891506
6.0268025 -8.104489 -28.98399 -10.64675 9.2257595 27.40794 -3.4769058 12.342693
4.02452 1.1741756 3.8019037 -4.3202085 23.308329 -0.5496003 -27.528994 -1.9468461
3.1491857 -2.51648 2.587269 -2.238033 -5.357329 0.15729257 -3.4186165 -0.025309473
0.46976426 -0.57154596 -2.372234 22.763899 -6.930278 -44.130157 -5.5573874 6.8220963
-6.2094474 7.831788 -7.0424333 -25.541441 1.2545018 -13.003086 -2.6315355 0.4449982
0.12861466 -4.287148 -1.0136557 0.056591984 2.7607112 0.4670129 -0.4563382 -2.543277
-0.051825866 0.39846584 0.22811386 0.24432583 -0.08090378 0.36258203 0.14450522 -0.27093312
-4.225776 8.921438 0.19022007 -10.138851 -0.047155436 0.3981325 -0.85344213 -0.06502033
-0.030059619 -0.40826628 0.44288287 -0.36249915 0.02383274 0.060247123 -0.55249685 -2.202001
26.13574 -4.8261423 -43.59532 -5.431187 5.9319763 -0.5475446 6.0066595 -5.1094027
-16.01597 -2.8578296 -15.076664 -3.1144493 -1.0194075 -3.6126866 -4.075988 28.928808
-3.4705677 -35.76254 -3.8688862 5.1608276 -4.1273875 5.5654707 -5.1879845 -15.755843
-0.24810539 -7.2596555 -1.1481993 0.7714199 -0.23468858 -4.662759 25.131107 -0.9459071
-25.577423 -2.4585025 3.6019435 -4.9319916 2.4703157 -2.4292772 -6.054862 0.48698902
-4.0211287 -0.5273292 0.3432216 -0.8346744 -4.3121605 9.539967 0.13530245 -12.030677
-0.6484496 0.79729754 -0.6138096 0.016736493 -0.13562496 -0.51641065 0.40493083 -1.0595784
0.4146895 -0.17718007 -0.5643011 -1.1754282 21.583868 -15.171328 -50.08604 -11.016159
8.951256 -6.5796256 10.439951 -9.760671 -39.86051 -0.3438066 -30.119965 -7.1472282
-3.485965 -1.902631 -2.0356276 21.113817 -8.862857 -43.870457 -6.698502 7.3800035
-9.091307 8.009034 -8.037204 -32.417217 2.9223301 -13.723491 -2.8916335 -0.4752568
1.6977917 -4.691469 32.890556 -1.412866 -21.464363 -1.8980533 2.4880185 -9.372943
2.3600194 -2.2717192 -7.368414 2.4087574 -3.3658004 -1.641975 0.77934873 -0.7041812
-4.259748 9.605666 0.31500357 -11.525092 -0.45540926 0.8116326 -1.1181312 -0.06979989
-0.22118142 -0.6547857 0.433191 -0.7810074 0.38936806 0.027534686 -0.27625117 -4.5517163
00000000: f3bf 90c0 9da0 5640 e251 45bd c7dd 3cc0
00000010: b8fd 223d f642 40be 91a4 97bf 200d 5e3e
00000020: 19df 6c3e e2d3 223e 3776 813d bdcb ebbe
00000030: 6a31 c03e b5fe 153e 03c0 6fbe 3d44 88c0
00000040: b582 ae40 3a16 3dbe 2e51 c1c0 340d dcbe
00000050: e881 e03d 2952 88bf 0981 52be 364a d9bd
00000060: eab5 4ebe 62ca 5c3d 8d17 fcbe 0c83 a73e
00000070: c9e1 593d 3076 cdbe d33c 01c0 225b bc41
00000080: 0a08 09c1 bfda 37c2 d7e0 dfc0 0c17 e740
00000090: 3b0b aec0 0319 0541 fe7b ecc0 0085 d7c1
000000a0: d75c 21bf 9d51 99c1 0f44 80c0 a723 6fbf
000000b0: 8841 febf 1718 94c0 8b4d c041 ae2e d8be
000000c0: 1882 c4c1 8eef f1bf e055 3b40 3d22 aec0
000000d0: 8eaa 1240 ff75 0bc0 6502 a6c0 6906 183f
000000e0: af41 63c0 1dec 05be ee45 303e 16c2 5abf
000000f0: fa73 c5bf f158 d4c1 ff74 0241 ce21 b741
00000100: 91db c040 fdab 01c1 36df e7c1 1759 2ac1
00000110: b69c 1341 7643 db41 a085 5ec0 ac7b 4541
00000120: dec8 8040 634b 963f 6452 7340 263f 8ac0
00000130: 7577 ba41 9bb2 0cbf 613b dcc1 4132 f9bf
00000140: 428c 4940 020e 21c0 d195 2540 ef3b 0fc0
00000150: 3d6f abc0 4e11 213e 9dca 5ac0 d055 cfbc
00000160: f184 f03e d650 12bf afd2 17c0 771c b641
00000170: d6c4 ddc0 4885 30c2 1ed6 b1c0 9d4e da40
00000180: cbb3 c6c0 029e fa40 9d5b e1c0 df54 ccc1
00000190: 8493 a03f a40c 50c1 146b 28c0 ced6 e33e
000001a0: 90b3 033e 5130 89c0 78bf 81bf ffcc 673d
000001b0: 7eaf 3040 511c ef3e 29a5 e9be 0dc5 22c0
000001c0: 5c47 54bd b703 cc3e ae96 693e 8d30 7a3e
000001d0: e2b0 a5bd 5aa4 b93e 2df9 133e bfb7 8abe
000001e0: 8f39 87c0 36be 0e41 0dc9 423e bc38 22c1
000001f0: 0f26 41bd 06d8 cb3e 2f7b 5abf 6129 85bd
00000200: 973f f6bc 4708 d1be 8bc1 e23e 7d99 b9be
00000210: e13c c33c b0c5 763d 6f70 0dbf 96ed 0cc0
00000220: ff15 d141 c26f 9ac0 9c61 2ec2 49cc adc0
00000230: c0d2 bd40 e22b 0cbf 8e36 c040 3a80 a3c0
00000240: b520 80c1 aee6 36c0 043a 71c1 2353 47c0
00000250: f27b 82bf 4236 67c0 7e6e 82c0 336e e741
00000260: c81d 5ec0 d70c 0fc2 d59b 77c0 8025 a540
00000270: 8f13 84c0 5618 b240 f803 a6c0 ef17 7cc1
00000280: 570f 7ebe 194f e8c0 32f8 92bf c67b 453f
00000290: 3452 70be 5235 95c0 820c c941 f826 72bf
000002a0: 909e ccc1 1b58 1dc0 3e86 6640 e0d2 9dc0
000002b0: a719 1e40 4779 1bc0 6ec1 c1c0 a056 f93e
000002c0: 16ad 80c0 0cff 06bf beba af3e 39ad 55bf
000002d0: 38fd 89c0 b4a3 1841 ba8c 0a3e a77d 40c1
000002e0: cb00 26bf b11b 4c3f a022 1dbf f81a 893c
000002f0: 45e1 0abe 7d33 04bf 1853 cf3e 44a0 87bf
00000300: 2f52 d43e b16e 35be 0976 10bf 6e74 96bf
00000310: c3ab ac41 c2bd 72c1 1b58 48c2 3042 30c1
00000320: 5838 0f41 4b8c d2c0 0a0a 2741 b52b 1cc1
00000330: 2a71 1fc2 6b07 b0be b0f5 f0c1 18b6 e4c0
00000340: 0d1a 5fc0 6a89 f3bf b947 02c0 19e9 a841
00000350: 43ce 0dc1 597b 2fc2 215a d6c0 fd28 ec40
00000360: fe75 11c1 0125 0041 6398 00c1 3bab 01c2
00000370: 7507 3b40 6b93 5bc1 8610 39c0 dc54 f3be
00000380: 3d51 d93f 8420 96c0 ee8f 0342 cbd8 b4bf
00000390: 04b7 abc1 69f3 f2bf b23b 1f40 93f7 15c1
000003a0: 8f0a 1740 d963 11c0 0cca ebc0 1529 1a40
000003b0: 4669 57c0 3d2c d2bf 6683 473f 3845 34bf
000003c0: db4f 88c0 cfb0 1941 2648 a13e c766 38c1
000003d0: 672b e9be 27c7 4f3f ec1e 8fbf 3ff3 8ebd
000003e0: 627d 62be 09a0 27bf 36cb dd3e 1af0 47bf
000003f0: 405b c73e 6c90 e13c cb70 8dbe a9a7 91c0

fc1.bias f4 [30]
-4.431846 -4.6764083 -2.1343126 -4.3975315 -1.401927 -4.3548665 -2.4753966 -4.4612827
-4.597918 -2.4625049 -3.6952612 -4.364807 -4.450406 -1.4532106 -1.9431129 -4.919877
-4.507018 -4.276556 -4.391742 -4.243938 -4.4839935 -0.83050597 -0.59888583 -2.141408
-4.3516736 -3.081083 -0.86041844 -4.185051 -2.302188 -1.3439444
00000000: afd1 8dc0 23a5 95c0 9498 08c0 94b8 8cc0
00000010: 5872 b3bf 115b 8bc0 e66c 1ec0 d4c2 8ec0
00000020: 2522 93c0 ae99 1dc0 297f 6cc0 80ac 8bc0
00000030: ba69 8ec0 ce02 babf ecb7 f8bf a26f 9dc0
00000040: 7e39 90c0 8cd9 88c0 2789 8cc0 57ce 87c0
00000050: e07c 8fc0 0a9c 54bf 9550 19bf d40c 09c0
00000060: e940 8bc0 7730 45c0 6244 5cbf f0eb 85c0
00000070: 0c57 13c0 5f06 acbf

fc2.weight f4 [15, 30]
-0.13298894 -0.28275317 -1.6401632 -0.7807947 -2.6222665 -0.96967673 -1.3627918 -0.5160225
-0.2773221 -1.2485008 -1.3469709 -0.8301622 -0.538932 -1.6128182 -1.9200057 -1.0390062
-0.22874402 -0.4281565 -0.38528836 -0.5916551 -0.50496644 -3.4167552 -3.0598586 -1.14224
-0.7488012 -1.1671255 -3.9752638 -0.12158349 -1.713557 -1.5341495 -0.2736546 -0.40904564
-1.6330519 -1.0461695 -4.0955615 -1.225559 -1.7764411 -0.36333677 -0.2241686 -1.3369352
-1.5220956 -1.3269576 -0.53450674 -2.2781372 -1.9893396 -1.5958526 -0.64660025 -0.6133583
-0.50586605 -0.53740907 -0.41220874 -8.266549 0.09514 -1.474665 -0.7775354 -1.3229934
-7.773529 -0.2889286 -1.7156196 -2.1347675 -0.34091702 -0.33609998 -1.9992787 -1.198668
-4.0338674 -1.21569 -2.0766416 -0.42154846 -0.3780979 -1.4492881 -1.7928557 -1.1051806
-0.49443954 -2.2876253 -2.5036557 -1.3803015 -0.43419674 -0.35186484 -0.5096701 -0.70949316
-0.6355405 -7.848913 -0.66274107 -1.4726624 -0.69553256 -1.3242117 -7.269616 -0.03764593
-1.8246406 -2.2176075 -0.28065786 -0.05297546 3.928894 1.137812 -4.6176014 1.5766927
2.7100239 -0.5105911 0.04679342 4.699058 2.1503654 1.1195297 0.19730473 4.817939
1.9303687 -0.41817468 0.2641713 0.12408539 0.100471914 0.54833096 0.29115352 -3.852623
-9.185066 4.7712455 0.5889248 3.279597 -4.8053713 0.15910394 2.9986267 4.899003
0.47560415 0.51505893 5.178281 2.55038 2.5885322 2.6011071 5.4422007 0.82740766
0.5468599 2.8555427 4.676239 2.8629165 0.6298664 6.263949 6.949347 4.5995555
0.6134739 0.6546371 0.9661228 1.2041391 0.95100623 6.358516 -3.9552238 3.7199013
1.139101 3.8596466 5.6501555 0.36133042 5.523986 5.8182425 -0.39178428 -0.19889109
-2.0467827 -1.457113 -4.1512117 -1.3769635 -1.681791 -0.36085448 -0.32305565 -1.4574244
-1.6984155 -1.4594483 -0.4709736 -2.4613822 -2.0880628 -1.5326463 -0.3989945 -0.58705294
-0.44739193 -0.9103368 -0.69619113 -8.283974 0.49766868 -1.7004389 -1.0665305 -1.3813099
-7.730349 -0.18793517 -1.9332285 -2.368132 -0.24045464 -0.16025242 -4.075745 -2.0780995
-4.0185714 -2.3219967 -3.7543128 -0.7488794 -0.65284586 -2.9378896 -3.0526586 -2.2820542
-0.76234657 -4.9897194 -4.7100005 -2.8204668 -0.60215974 -0.5429377 -1.014213 -1.4724905
-1.020383 -7.677293 1.4259942 -3.3162348 -1.3106403 -3.0699596 -6.9977674 -0.61194015
-3.9058242 -4.441668 -0.13182853 -0.32046345 -1.8922552 -1.1441731 -3.2833333 -0.9193674
-2.0860715 -0.6149541 -0.39987957 -1.4557652 -1.6458915 -1.0119431 -0.29834947 -2.60706
-2.35695 -1.2971387 -0.5802547 -0.42564076 -0.448384 -0.84415555 -0.58146393 -5.5415096
-1.747869 -1.7912649 -0.6930176 -1.6721873 -5.852797 -0.27350473 -2.15771 -2.2182343
0.04698076 0.052446358 -1.3000771 -0.751702 -2.569098 -0.7482132 -1.487312 -0.1510121
-0.19009571 -0.95155376 -1.1089735 -0.85607374 -0.31305733 -1.645128 -1.8985952 -0.9676795
00000000: 412e 08be 06c5 90be def0 d1bf 29e2 47bf
00000010: 37d3 27c0 bc3c 78bf f66f aebf 0d1a 04bf
00000020: 2afd 8dbe e0ce 9fbf 8b69 acbf 8385 54bf
00000030: 73f7 09bf d470 cebf bfc2 f5bf 28fe 84bf
00000040: df3b 6abe 5437 dbbe 8444 c5be b576 17bf
00000050: 7b45 01bf 1eac 5ac0 b9d4 43c0 ec34 92bf
00000060: 6fb1 3fbf 5e64 95bf b96a 7ec0 c400 f9bd
00000070: d655 dbbf 035f c4bf 751c 8cbe 6e6e d1be
00000080: d807 d1bf e2e8 85bf d70e 83c0 1edf 9cbf
00000090: 6c62 e3bf 4707 babe 748c 65be b120 abbf
000000a0: 07d4 c2bf bfd9 a9bf 6fd5 08bf 00cd 11c0
000000b0: aea2 febf e644 ccbf 9887 25bf 0d05 1dbf
000000c0: 7080 01bf a493 09bf 060d d3be c943 04c1
000000d0: c3d8 c23d d3c1 bcbf 8f0c 47bf d957 a9bf
000000e0: c0c0 f8c0 73ee 93be 6c99 dbbf 08a0 08c0
000000f0: ad8c aebe 4c15 acbe 5de8 ffbf f46d 99bf
00000100: 7115 81c0 bb9b 9bbf b2e7 04c0 33d5 d7be
00000110: 0c96 c1be 4682 b9bf 4c7c e5bf 8f76 8dbf
00000120: 2e27 fdbe 7468 12c0 e53b 20c0 b8ad b0bf
00000130: 094f debe a127 b4be bd79 02bf 58a1 35bf
00000140: c8b2 22bf 4c2a fbc0 66a9 29bf 3480 bcbf
00000150: 6c0e 32bf c57f a9bf b2a0 e8c0 9e32 1abd
00000160: d38d e9bf 48ed 0dc0 63b2 8fbe ccfc 58bd
00000170: 0073 7b40 d3a3 913f 64c3 93c0 11d1 c93f
00000180: 0871 2d40 19b6 02bf 75aa 3f3d af5e 9640
00000190: 969f 0940 c04c 8f3f 400a 4a3e 8e2c 9a40
000001a0: 5216 f73f fe1a d6be 7641 873e 7b20 fe3d
000001b0: 38c4 cd3d 6b5f 0c3f 1312 953e 6091 76c0
000001c0: 08f6 12c1 0bae 9840 c7c3 163f ebe4 5140
000001d0: 9ac5 99c0 25ec 223e 80e9 3f40 a2c4 9c40
000001e0: 6382 f33e e7da 033f 7ab4 a540 6d39 2340
000001f0: 83aa 2540 8a78 2640 8226 ae40 fdd0 533f
00000200: 03ff 0b3f 36c1 3640 c0a3 9540 063a 3740
00000210: ed3e 213f 4572 c840 0d61 de40 8f2f 9340
00000220: a00c 1d3f 4c96 273f d353 773f 3b21 9a3f
00000230: 2575 733f f778 cb40 6322 7dc0 dd12 6e40
00000240: 10ce 913f 7304 7740 13ce b440 4d00 b93e
00000250: 7ec4 b040 0b2f ba40 f397 c8be 1baa 4bbe
00000260: 7dfe 02c0 ae82 babf bad6 84c0 5740 b0bf
00000270: ed44 d7bf ebc1 b8be 8d67 a5be e28c babf
00000280: ae65 d9bf 34cf babf 7423 f1be 4987 1dc0
00000290: d2a2 05c0 c12d c4bf 0249 ccbe 1a49 16bf
000002a0: 8e10 e5be d50b 69bf 9539 32bf 288b 04c1
000002b0: 6ece fe3e fba7 d9bf 1284 88bf c3ce b0bf
000002c0: 055f f7c0 1472 40be 0874 f7bf 7a8f 17c0
000002d0: be39 76be 3619 24be 816c 82c0 95ff 04c0
000002e0: 2398 80c0 989b 14c0 a946 70c0 8fb6 3fbf
000002f0: e820 27bf 6206 3cc0 c25e 43c0 2d0d 12c0
00000300: 2529 43bf c8ab 9fc0 53b8 96c0 8782 34c0
00000310: 2427 1abf f7fd 0abf bbd1 81bf 927a bcbf
00000320: e99b 82bf 62ac f5c0 fa86 b63f 313d 54c0
00000330: 10c3 a7bf 387a 44c0 b6ed dfc0 1ca8 1cbf
00000340: 06f9 79c0 2522 8ec0 0ffe 06be c913 a4be
00000350: 6b35 f2bf 4474 92bf 2222 52c0 a95b 6bbf
00000360: 3282 05c0 a26d 1dbf 04bd ccbe 8456 babf
00000370: 93ac d2bf 5a87 81bf 43c1 98be 12da 26c0
00000380: 45d8 16c0 a408 a6bf 928b 14bf 96ed d9be
00000390: 9692 e5be 941a 58bf d2da 14bf 0c54 b1c0
000003a0: 2cba dfbf 2b48 e5bf 9a69 31bf 3c0a d6bf
000003b0: 1d4a bbc0 d008 8cbe ec17 0ac0 8df7 0dc0
000003c0: e66e 403d fed1 563d ed68 a6bf 8b6f 40bf
000003d0: 1a6c 24c0 e68a 3fbf 3d60 bebf eaa2 1abe
000003e0: 73a8 42be 0799 73bf d8f2 8dbf a627 5bbf
000003f0: 0d49 a0be 8e93 d2bf 2b05 f3bf d8b9 77bf

fc2.bias f4 [15]
-5.5509596 -3.7363777 -4.4349985 -3.6809382 1.3447405 -3.2401233 -2.972037 -5.5698047
-5.153509 -2.0124393 1.0354297 -1.4166584 -3.5239937 -3.5633314 0.53247714
00000000: 76a1 b1c0 d020 6fc0 82eb 8dc0 7e94 6bc0
00000010: 7520 ac3f 2e5e 4fc0 db35 3ec0 d73b b2c0
00000020: 8ce9 a4c0 cecb 00c0 f688 843f 1055 b5bf
00000030: 1d89 61c0 9f0d 64c0 6c50 083f

fc3.weight f4 [7, 15]
-0.25285637 -0.26353365 -0.3459923 -2.4786515 -2.6896389 -0.47119692 -0.9073599 -0.38377658
-0.4446249 -0.28594044 -2.7019265 -2.079761 -2.043181 -2.5247035 -4.1707335 0.13905725
-0.13308926 -0.40595064 -2.6623807 -2.8450396 -0.2255983 -0.95584375 -0.21504912 -0.5095559
-0.35185942 -2.8797894 -1.9110819 -1.7310091 -2.7998948 -3.7493992 -0.17979953 -0.79018664
-0.62079257 -2.163942 -2.7002342 -0.5216491 -1.6030575 -0.6348786 -1.0185949 -1.0273858
-2.702096 -2.4653494 -2.0242686 -2.412303 -4.241561 -0.66859615 1.6612288 1.1705238
-5.59656 -1.4376996 1.9066978 2.0332873 0.27939484 -1.0528243 2.6254582 -1.2712147
-0.93341935 -3.4953713 -5.4989185 -1.1216999 0.033248156 -0.15691715 -0.70961046 -2.5438454
-2.2333336 -0.3576587 -1.1530876 -0.40212685 -0.58454424 -0.83438295 -2.3818345 -2.4340465
-2.004635 -2.3655088 -4.6117964 -0.19195564 -0.73360646 -0.80796045 -2.3057845 -2.3000846
-0.75553435 -1.3125601 -0.41448513 -0.72351927 -0.9598885 -2.1462631 -2.747869 -1.9391551
-2.2877254 -4.720617 -0.20802025 -0.32421723 -0.480593 -2.617062 -2.8422315 -0.4478075
-0.9760877 -0.26073745 -0.6391206 -0.58201957 -2.6736796 -1.8584772 -1.9121115 -2.872428
-4.0659585
00000000: 6476 81be e2ed 86be e725 b1be 3aa2 1ec0
00000010: 0b23 2cc0 b940 f1be bd48 68bf 5d7e c4be
00000020: e0a5 e3be c966 92be 5dec 2cc0 ce1a 05c0
00000030: 7ac3 02c0 be94 21c0 a676 85c0 0665 0e3e
00000040: 8d48 08be c3d8 cfbe 7264 2ac0 2115 36c0
00000050: 3e03 67be 2db2 74bf d635 5cbe 4172 02bf
00000060: eb26 b4be 784e 38c0 559e f4bf b591 ddbf
00000070: 7a31 33c0 28f6 6fc0 5e1d 38be ac49 4abf
00000080: 43ec 1ebf 077e 0ac0 a3d0 2cc0 cc8a 05bf
00000090: fd30 cdbf 6787 22bf 5161 82bf 6181 83bf
000000a0: 24ef 2cc0 49c8 1dc0 9e8d 01c0 2c63 1ac0
000000b0: deba 87c0 1e29 2bbf 25a3 d43f b9d3 953f
000000c0: 0517 b3c0 8a06 b8bf ac0e f43f 6121 0240
000000d0: d70c 8f3e f2c2 86bf 8207 2840 2ab7 a2bf
000000e0: 92f4 6ebf 2ab4 5fc0 24f7 afc0 dd93 8fbf
000000f0: 382f 083d e4ae 20be 08a9 35bf 5dce 22c0
00000100: f0ee 0ec0 0b1f b7be 6098 93bf 92e3 cdbe
00000110: b1a4 15bf 1f9a 55bf fa6f 18c0 6bc7 1bc0
00000120: f14b 00c0 7f64 17c0 d693 93c0 0590 44be
00000130: a2cd 3bbf 7fd6 4ebf f991 13c0 9634 13c0
00000140: b36a 41bf f801 a8bf 6537 d4be 8f38 39bf
00000150: 41bb 75bf 605c 09c0 16dd 2fc0 3c36 f8bf
00000160: 186a 12c0 4b0f 97c0 4303 55be cdff a5be
00000170: 4910 f6be f27d 27c0 1fe7 35c0 0647 e5be
00000180: e2e0 79bf 617f 85be 689d 23bf 3cff 14bf
00000190: 911d 2bc0 95e2 edbf 12c0 f4bf dcd5 37c0
000001a0: 551c 82c0

fc3.bias f4 [7]
-2.465843 -2.7248824 -2.2999182 -1.3282856 -2.3448527 -2.2057998 -2.508643
00000000: 5fd0 1dc0 7964 2ec0 dc31 13c0 4305 aabf
00000010: 1112 16c0 d32b 0dc0 9b8d 20c0

output.weight f4 [1, 7]
-2.7887166 -2.580198 -2.8886507 -2.5479357 -3.0494258 -3.1857831 -2.698125
00000000: 557a 32c0 f721 25c0 a7df 38c0 6111 23c0
00000010: cb29 43c0 dfe3 4bc0 14ae 2cc0
