training_nn/model/order3_dynamiclr/net.pth (torch, 4759 bytes, 7 tensors)

fc1.weight f4 [16, 4]
0	0xbf871f70	-1.0556469
1	0x4112bffe	9.171873
2	0xc27d26db	-63.287945
3	0xc0da4270	-6.82061
4	0xbf02f9af	-0.51162237
5	0x4060721b	3.5069644
6	0xc267e20d	-57.970753
7	0xc00dd9ce	-2.2164187
8	0xbfb2c663	-1.3966793
9	0x4110da5a	9.0533085
10	0xc2549e2d	-53.15447
11	0xc0d1ea34	-6.5598392
12	0xbf1714c5	-0.59016067
13	0x4038bcd5	2.8865254
14	0xc249d6b4	-50.45967
15	0xc01a49b4	-2.4107485
16	0xbebc5254	-0.3678156
17	0xc0361a32	-2.8453488
18	0x42799447	62.394802
19	0x403b5b9e	2.9274669
20	0x3fe2e187	1.7725075
21	0xc10adf29	-8.679482
22	0xc20827e8	-34.03897
23	0x40ee60bf	7.44931
24	0xbf12d852	-0.5736133
25	0x400eaa67	2.2291505
26	0x424d1f8a	51.2808
27	0xbf6c3719	-0.9227157
28	0xbf17cf90	-0.5930109
29	0xbe83142a	-0.2560132
30	0x4268a27d	58.15868
31	0x3fcd5ef0	1.6044598
32	0x3eb6e959	0.35724905
33	0xbf9981e3	-1.1992763
34	0xc2408a9a	-48.135353
35	0x3ec66ac4	0.3875333
36	0xc004ff75	-2.0780919
37	0x408186e5	4.0477166
38	0x42556d54	53.356766
39	0xc05dfcf9	-3.4685652
40	0x3f00a4ac	0.5025127
41	0xbf999b18	-1.2000456
42	0xc22f22f8	-43.78415
43	0x3e451ef7	0.19250093
44	0xbf690b15	-0.91032535
45	0x41058614	8.345234
46	0xc237d428	-45.957184
47	0xc0e08572	-7.0162897
48	0x410e9494	8.911274
49	0x402ec5e5	2.7308285
50	0x42341f1e	45.030388
51	0xbef35da4	-0.4753238
52	0x3fa1da64	1.2644773
53	0xc08ed326	-4.463275
54	0xc1f2f793	-30.370886
55	0x409300ae	4.593833
56	0xbe4eecfd	-0.20207591
57	0x4084859a	4.141309
58	0xc225a4c1	-41.410892
59	0xc05ffc55	-3.4997761
60	0x3f72e0e3	0.948744
61	0xc21bf082	-38.98487
62	0x4018b2db	2.3859165
63	0x422f8885	43.88332

fc1.bias f4 [16]
0	0xbfb7c3ae	-1.4356592
1	0xbfc954c6	-1.5728996
2	0xc02404bc	-2.562789
3	0xc025247d	-2.580352
4	0xbf227369	-0.6345735
5	0xc0a28c02	-5.079591
6	0xbfb3ce27	-1.4047288
7	0xbf740279	-0.9531627
8	0xc033594e	-2.8023257
9	0xbf9bebf1	-1.2181379
10	0xc0777c56	-3.8669639
11	0xc082f6b2	-4.092614
12	0xc041a7bc	-3.0258627
13	0xc0ced5c2	-6.4635935
14	0xc096c120	-4.711075
15	0x3f0da62c	0.55331683

fc2.weight f4 [16, 16]
0	0x408224ae	4.0669775
1	0x4047a96e	3.1197162
2	0x4047f1ea	3.1241403
3	0x40194047	2.3945482
4	0xc0a5a166	-5.175952
5	0x3fba7e88	1.4569864
6	0xc054a091	-3.3223002
7	0xc08291a1	-4.080277
8	0x401b7f19	2.4296324
9	0xc047c661	-3.121483
10	0x3fd9b452	1.7008154
11	0x401c88a7	2.4458406
12	0xbfdb79ff	-1.7146605
13	0x3f514c30	0.8175688
14	0x3fddd48c	1.7330489
15	0xc08c47e1	-4.3837743
16	0x4075770c	3.835391
17	0x4096e1b3	4.715051
18	0x40495e50	3.1463814
19	0x40868509	4.2037396
20	0xbfc965b6	-1.5734165
21	0x409e2bb6	4.942836
22	0xc00685ec	-2.101924
23	0xbfe61650	-1.7975559
24	0x40974bda	4.728009
25	0xc02420c4	-2.5644999
26	0x4080327f	4.006164
27	0x4003d037	2.0595834
28	0xbfddfa60	-1.7342033
29	0x40528064	3.2890863
30	0x40296506	2.646791
31	0x40c4c109	6.148564
32	0x3eb6481f	0.356019
33	0xbe5f139d	-0.21784826
34	0xbf364ea2	-0.71213734
35	0xbf088090	-0.5332117
36	0xc081a73e	-4.0516653
37	0xbf179ccc	-0.5922363
38	0xc048a4d1	-3.1350596
39	0xc0730c74	-3.797635
40	0xbec6b4ec	-0.38809907
41	0xc055c6b6	-3.3402534
42	0xbf3ca6b3	-0.7369186
43	0xbf309558	-0.6897788
44	0xc0314858	-2.7700405
45	0xbf489af3	-0.78361434
46	0xbf842d54	-1.0326333
47	0xc032c958	-2.793539
48	0x409c236e	4.879325
49	0x40ad6593	5.418649
50	0x4053376d	3.300258
51	0x408b136d	4.3461213
52	0x3e86ef8e	0.2635464
53	0x4083c8cc	4.1182613
54	0x3e660b3c	0.22465223
55	0x3ea53396	0.3226592
56	0x409cd6ad	4.9012055
57	0xbf2f9dee	-0.68600357
58	0x40691e98	3.6424923
59	0x402a903a	2.665053
60	0x3f37349a	0.7156464
61	0x402635eb	2.597041
62	0x402108bb	2.5161579
63	0x40ddb0e6	6.927844
64	0x40782e66	3.877832
65	0x4048ed83	3.1394966
66	0x40341d59	2.8142912
67	0x40202c58	2.5027065
68	0xc0acbcb2	-5.398034
69	0x3fc31293	1.5240043
70	0xc083ae49	-4.115025
71	0xc09bc16f	-4.8673625
72	0x4021b223	2.5264976
73	0xc072dbde	-3.7946696
74	0x3fffe6ff	1.999237
75	0x3fe89dd6	1.8173168
76	0xc0144e5d	-2.317283
77	0x3f8e7d13	1.113192
78	0x3fac7163	1.3472103
79	0xc06cc805	-3.6997082
80	0xbe8868d0	-0.26642466
81	0xbf177c67	-0.591742
82	0xbf2cca75	-0.67496425
83	0xbf6a1eb1	-0.9145308
84	0xc063f52c	-3.561839
85	0xbf47012d	-0.7773617
86	0xc04fb929	-3.2456763
87	0xc06dc053	-3.7148635
88	0xbf4f6447	-0.81012386
89	0xc0669822	-3.6030354
90	0xbf98c998	-1.1936522
91	0xbf73b39e	-0.9519595
92	0xc0402229	-3.002085
93	0xbf9d2798	-1.2277708
94	0xbf54771f	-0.82994264
95	0xc0159519	-2.3372252
96	0x406e39c9	3.722277
97	0x404192cc	3.0245848
98	0x4017768b	2.3666103
99	0x4006338f	2.096897
100	0xc0575cee	-3.365047
101	0x3eb4caea	0.3531106
102	0xc0003c8d	-2.0036957
103	0xc0281695	-2.6263783
104	0x3fc336cd	1.5251099
105	0xc01cc925	-2.449777
106	0x3f9a2abc	1.2044291
107	0x3fcd17b1	1.6022855
108	0xc008b524	-2.136056
109	0x3e9d9c32	0.3078323
110	0x3f9a7926	1.2068222
111	0xbedb961b	-0.4288796
112	0xbf1fae7f	-0.62375635
113	0x3db87c1a	0.090080455
114	0xbf8a3fbc	-1.08007
115	0xbf6bcf14	-0.9211285
116	0xc0975d2e	-4.7301245
117	0x3f1b7b0e	0.6073464
118	0xc09a5cc0	-4.823822
119	0xc0a2c4f4	-5.086542
120	0xbdcdd505	-0.10050396
121	0xc0aaa8a2	-5.333085
122	0xbf0b7944	-0.5448191
123	0xbfbc4c7d	-1.4710842
124	0xc06d54fd	-3.7083123
125	0xbef8fe3a	-0.4863146
126	0xbf7d6ba1	-0.98992354
127	0x3ed26f8a	0.41100723
128	0xbeb88206	-0.360367
129	0xbf042f00	-0.51634216
130	0xbf5ee397	-0.87066025
131	0xbf9ec016	-1.240237
132	0xc06d9b88	-3.7126179
133	0xbf51d8bc	-0.81971335
134	0xc046c22f	-3.105602
135	0xc071ac0c	-3.776126
136	0xbf83832c	-1.0274405
137	0xc0549b04	-3.3219614
138	0xbfaa7196	-1.3315914
139	0xbf61aa95	-0.8815091
140	0xc0331430	-2.7981071
141	0xbf610c07	-0.8790898
142	0xbf85b3ee	-1.0445535
143	0xc0135aae	-2.3024096
144	0xbf6346be	-0.8877982
145	0xbf827a49	-1.0193568
146	0xbf9da0a1	-1.2314645
147	0xbfbe5b0a	-1.4871533
148	0xc05ec477	-3.4807413
149	0xbf844499	-1.0333434
150	0xc04ef9b3	-3.2339904
151	0xc062a41e	-3.541267
152	0xbf7fc48f	-0.999093
153	0xc04ec375	-3.2306798
154	0xbf599dfb	-0.85006684
155	0xbf90a965	-1.1301695
156	0xc033b08d	-2.8076508
157	0xbf433472	-0.762519
158	0xbf88a3be	-1.067497
159	0xbfdd7530	-1.7301388
160	0x40593ad4	3.3942156
161	0x4079a880	3.9009094
162	0x4016e71d	2.357856
163	0x403a673b	2.9125507
164	0xc03abb12	-2.9176679
165	0x403ac8f8	2.9185162
166	0xc02b780b	-2.6792018
167	0xc03f9ca3	-2.9939353
168	0x405c2198	3.4395504
169	0xc0723158	-3.7842617
170	0x4032435c	2.7853613
171	0x3ff67d31	1.9256955
172	0xc0127da8	-2.2889194
173	0x3ff60cfe	1.9222715
174	0x3fed1cc6	1.8524406
175	0x4073f8ae	3.8120532
176	0xbe9006f9	-0.2813032
177	0xbf513f34	-0.81737065
178	0xbf939a56	-1.1531475
179	0xbf9d4b08	-1.2288523
180	0xc0802b5c	-4.005293
181	0xbf7ce2a9	-0.98783356
182	0xc04d6d72	-3.209805
183	0xc053a0f8	-3.3066998
184	0xbf664e84	-0.89963555
185	0xc0657f72	-3.5859036
186	0xbf788a72	-0.9708625
187	0xbf6417a7	-0.8909859
188	0xc0340691	-2.8129008
189	0xbf512049	-0.8168989
190	0xbf93cf67	-1.1547669
191	0xc00c1845	-2.1889813
192	0x408d1490	4.40876
193	0x4056548f	3.348911
194	0x403ebbb9	2.9802077
195	0x4033d252	2.809712
196	0xc0a00877	-5.0010333
197	0x3fb15d03	1.385651
198	0xc0580692	-3.375401
199	0xc0897cb6	-4.2964735
200	0x4009fd31	2.1560786
201	0xc035773b	-2.8354023
202	0x3fe58e2e	1.7934015
203	0x40167895	2.3511097
204	0xbfbf4b8c	-1.494493
205	0x3f908d9d	1.1293217
206	0x40022fbe	2.034164
207	0xc08ec83d	-4.461943
208	0x3fd4d3a4	1.6627088
209	0x400af37d	2.1711113
210	0x3ed760d5	0.42066064
211	0x3f9899d4	1.1921945
212	0xc0b7ca86	-5.743472
213	0x40071255	2.110494
214	0xc0c1accd	-6.052344
215	0xc0b13b4a	-5.5384874
216	0x400af445	2.171159
217	0xc0d15011	-6.5410237
218	0x3f8838d1	1.0642339
219	0xbe96628d	-0.29372063
220	0xc088b918	-4.2725945
221	0x3f1a9746	0.60387075
222	0xbd279b66	-0.040919684
223	0x3ffb92fb	1.965423
224	0x408a2727	4.3172793
225	0x404ac67b	3.1683643
226	0x404c3832	3.19093
227	0x40101e18	2.2518368
228	0xc0aa2aae	-5.31771
229	0x3fadd4af	1.3580531
230	0xc05707e5	-3.3598568
231	0xc086cb48	-4.2123146
232	0x3ff715fa	1.9303582
233	0xc0463cd4	-3.0974627
234	0x3fe9b6a1	1.8258859
235	0x40039b73	2.0563629
236	0xbfef6b32	-1.8704588
237	0x3f91cdd4	1.1390939
238	0x3fd379b0	1.6521511
239	0xc0894ac7	-4.290378
240	0xbf93ddcd	-1.1552063
241	0xbf8723c8	-1.0557795
242	0xbfae40fe	-1.3613584
243	0xbfb20e46	-1.3910606
244	0xc059df9a	-3.4042726
245	0xbfa60dd2	-1.2972968
246	0xc03cccf4	-2.9500093
247	0xc05b1cfb	-3.4236438
248	0xbfcbe0d9	-1.5927993
249	0xc045dbca	-3.0915399
250	0xbf9246b0	-1.1427822
251	0xbfba474c	-1.4553008
252	0xc028fedf	-2.640556
253	0xbf8242ed	-1.0176674
254	0xbf9e526a	-1.2368901
255	0xbff430af	-1.9077357

fc2.bias f4 [16]
0	0xbf7619c9	-0.96133095
1	0x3f99c1b3	1.2012237
2	0xc01c5236	-2.4425178
3	0x40344dd0	2.8172493
4	0xbf85dd25	-1.0458113
5	0xc023662e	-2.5531116
6	0x3e26e240	0.16297245
7	0xc0384786	-2.8793654
8	0xc0241eef	-2.564388
9	0xc038b9f8	-2.8863506
10	0xbde0b759	-0.10972471
11	0xc02118cf	-2.5171392
12	0xbf7d4825	-0.9893821
13	0xc0038740	-2.05513
14	0xbf6c8728	-0.9239373
15	0xc03a29b0	-2.9087944

fc3.weight f4 [8, 16]
0	0xc0016a19	-2.0221007
1	0xc065bd29	-3.5896704
2	0xbf42ba63	-0.76065654
3	0xc07da8b1	-3.963421
4	0xc0008c9a	-2.0085816
5	0xbe8ec3b8	-0.27883697
6	0xc0652cbe	-3.5808558
7	0xc0108b3c	-2.2584982
8	0xbf19c576	-0.60066926
9	0xbeee38e3	-0.46527776
10	0xc067cbd6	-3.6218162
11	0xbee579fb	-0.44819626
12	0xbffa362b	-1.9547781
13	0xc03a3689	-2.9095786
14	0xbffa3380	-1.9546967
15	0xbee16f9d	-0.44030467
16	0xc0815a98	-4.042309
17	0xbf869deb	-1.0516943
18	0xbffc8ea3	-1.9731029
19	0xbfa56940	-1.2922745
20	0xc05fd3b2	-3.4972959
21	0xbfef24c5	-1.8683096
22	0xbfb489c4	-1.4104543
23	0xbfd48ac8	-1.6604853
24	0xbfed2412	-1.8526633
25	0xbfddb5b0	-1.7321072
26	0xbf27a612	-0.6548778
27	0xbfed5a20	-1.8543129
28	0xc085db47	-4.1830173
29	0xc018160f	-2.3763463
30	0xc083abc4	-4.1147175
31	0xbfd7a51f	-1.6847266
32	0xbffa9320	-1.9576149
33	0xc05933cf	-3.3937871
34	0xbf0b1bfc	-0.54339576
35	0xc080a887	-4.020572
36	0xc004019f	-2.062599
37	0xbeccf196	-0.40028065
38	0xc062769f	-3.53849
39	0xc0174fb8	-2.3642406
40	0xbe9495a6	-0.29020423
41	0xbe656451	-0.22401549
42	0xc06f8f2b	-3.7431133
43	0xbe09e3f4	-0.13465863
44	0xbff24733	-1.8927978
45	0xc035325d	-2.831199
46	0xc00a8cfc	-2.164855
47	0xbe39cdcb	-0.1814491
48	0xbfff4cb3	-1.9945282
49	0xc079bed7	-3.902273
50	0xbef13165	-0.47107998
51	0xc07d6c75	-3.9597447
52	0xbfc902b3	-1.5703949
53	0xbf3552a9	-0.70829254
54	0xbfaf375a	-1.3688767
55	0xc0280740	-2.6254425
56	0xbf14f7bd	-0.5819052
57	0xbf382901	-0.71937567
58	0xc06c5992	-3.692967
59	0xbf2e23f7	-0.6802363
60	0xc002661c	-2.0374823
61	0xc0394adf	-2.8951948
62	0xc0119678	-2.274809
63	0x3de35487	0.11100107
64	0xbfabe92e	-1.3430536
65	0xc073ac6e	-3.8073993
66	0xbf439905	-0.76405364
67	0xc07c95bc	-3.946639
68	0xbf915b9a	-1.135608
69	0xbf3f02bc	-0.7461355
70	0xbf99a108	-1.2002268
71	0xc031a2a8	-2.7755527
72	0xbf454a80	-0.770668
73	0xbf454f1a	-0.77073824
74	0xc051a431	-3.2756464
75	0xbebd10f1	-0.36926988
76	0xbfe5f282	-1.7964633
77	0xc03ba8b1	-2.932171
78	0xbfdf7ea4	-1.7460523
79	0xbebc1016	-0.36731023
80	0xbfee4dd6	-1.8617504
81	0xc0635f39	-3.552687
82	0xbf4960c6	-0.7866329
83	0xc08118c7	-4.0342746
84	0xbfae8ee7	-1.363736
85	0xbf14fd2c	-0.5819881
86	0xbfdcf599	-1.726245
87	0xc02e9c74	-2.7282991
88	0xbecad54f	-0.39615867
89	0xbf3206fd	-0.69541913
90	0xc05b6c03	-3.4284675
91	0xbf1c5896	-0.6107267
92	0xbfef65a2	-1.8702891
93	0xc02ecfbe	-2.7314296
94	0xbfe31d0f	-1.7743243
95	0xbeef5dc4	-0.46751225
96	0xc003f450	-2.0617867
97	0xc0682eed	-3.6278641
98	0xbf27f80e	-0.65612876
99	0xc07ef9c5	-3.9839947
100	0xbfde53a6	-1.7369277
101	0xbf1af6b6	-0.605327
102	0xc01c525f	-2.4425275
103	0xc020f970	-2.5152245
104	0xbefbf2de	-0.4920873
105	0xbeef620d	-0.46754494
106	0xc06d457d	-3.7073662
107	0xbe642b42	-0.22282127
108	0xbff5dc80	-1.9207916
109	0xc01983ab	-2.3986614
110	0xbfc38512	-1.5274985
111	0xbec7c40e	-0.39016765
112	0xc0058980	-2.0865173
113	0xc064df04	-3.5761118
114	0xbf4bacd4	-0.7956059
115	0xc07d648e	-3.9592624
116	0xbffde697	-1.9835995
117	0xbf256b87	-0.646172
118	0xc03eb9d6	-2.9800925
119	0xc00a7232	-2.16322
120	0xbef144b5	-0.47122732
121	0xbf26b89f	-0.6512546
122	0xc06d1a14	-3.7047167
123	0xbe7c157b	-0.24617569
124	0xc0088e9c	-2.1337042
125	0xc025082d	-2.578624
126	0xc00f17db	-2.235831
127	0xbe771cb7	-0.24132048

fc3.bias f4 [8]
0	0xc06bcb2f	-3.6842763
1	0xbf8463f3	-1.0343002
2	0xc07084fc	-3.7581167
3	0xc05e832d	-3.4767563
4	0xc06af6e3	-3.6713188
5	0xc0713fc5	-3.7695172
6	0xc06a6f78	-3.6630535
7	0xc06cbfd3	-3.699208

output.weight f4 [1, 8]
0	0xbfcf9ff1	-1.6220685
1	0xc00b858c	-2.180026
2	0xbfd0dd13	-1.6317466
3	0xbfd6f2ee	-1.6792886
4	0xbfd9751f	-1.6988868
5	0xbfda582c	-1.7058158
6	0xbfd9d6f6	-1.7018726
7	0xbfced10d	-1.6157547
