training_nn/model/order3_dynamiclr/Theta_net_ep1.pth (torch, 25366 bytes, 7 tensors)

fc1.weight f4 [70, 35]
000000 3d b2 a3 c0 71 66 1a 40 97 1b 50 bd ef 3e 95 bd
       -5.1155076 2.4125025 -0.05080756 -0.07287394
000010 c9 bd cc bf ff 84 3d bd 3f 85 3e 3d 8b d5 2f be
       -1.5995418 -0.046269413 0.046513792 -0.17171304
000020 35 5d 09 be 25 25 81 3d 77 7e 66 41 f2 22 54 be
       -0.13414462 0.06305913 14.405875 -0.20716456
000030 2b 19 16 3e 14 9f a7 3d d1 b6 c3 3d 70 61 b0 3d
       0.14658038 0.081846386 0.09556354 0.08612335
000040 ab 27 68 bd 09 3e a3 3b a3 7b 22 bd f9 8c 82 3d
       -0.056678455 0.0049817604 -0.03966869 0.06374545
000050 97 f1 8c 3f 0d 35 ed bd 2b 87 a6 bd ba 60 09 3e
       1.1011227 -0.11582384 -0.0813125 0.13415805
000060 50 68 91 bd 4a 66 a9 3d 8c c0 b3 bf 81 74 14 3e
       -0.07099974 0.08271463 -1.4043136 0.14497568
000070 94 9d ee bd e0 c5 f9 bd af d7 14 bf db e8 8a bd
       -0.116511494 -0.12195945 -0.5814161 -0.06782695
000080 66 89 28 bd b2 28 20 3e 2f d5 88 3f ee e5 a3 c0
       -0.04114666 0.15640524 1.0690058 -5.1218176
000090 4b 73 b9 40 0c 69 a8 be 8c 34 e8 bd b2 40 7a c0
       5.795324 -0.32892644 -0.113381475 -3.9101987
0000a0 f7 fe f0 3d ae ea 3a 3c 64 2c fe 3c 66 15 94 3b
       0.11767381 0.011408491 0.031027026 0.0045191525
0000b0 49 0e 8c 3c 56 24 8f 41 94 0b 65 bf bc ca 9f bd
       0.017096655 17.892742 -0.8947079 -0.078023404
0000c0 fd 06 22 3f c7 e2 97 3c d4 2b 9b 3d 6d 64 e3 3e
       0.63291913 0.018540753 0.07576719 0.44412556
0000d0 5b ea aa bd 8b 1f d1 bd 16 64 21 bb c8 ca bd 3f
       -0.08345481 -0.102110945 -0.0024626306 1.4827509
0000e0 be f0 5b be fb fa 1b 3d 74 3f 0d 3e 3d 1d eb bd
       -0.21478555 0.03808115 0.13793737 -0.11480186
0000f0 a4 82 b4 3b 50 5f 16 c0 87 41 02 bd 7e 82 18 be
       0.0055087376 -2.3495674 -0.031800773 -0.14893529
000100 7b 95 ce bd 08 a1 37 bf 95 53 30 3e 61 de b4 be
       -0.10087105 -0.7173009 0.17219384 -0.35325912
000110 78 7f 45 3f fe bd 19 40 72 51 58 c0 ae 24 59 c1
       0.77147627 2.4022212 -3.379971 -13.571455
000120 60 36 4f bd f4 1c 3f 3e 0c a5 6a 41 8e bc 27 40
       -0.050588965 0.18663388 14.665295 2.6208835
000130 75 5b ef bd 38 54 9c c0 2a 63 0b be f9 fb c4 3d
       -0.11687366 -4.8852806 -0.13612047 0.096183725
000140 4a 23 53 42 c3 56 7c c1 7a 05 4b 3e 6c 79 60 41
       52.784462 -15.771182 0.19826308 14.029644
000150 42 32 30 3e 3b 25 ce bd 40 8e bc 40 4b 04 e1 3d
       0.17206672 -0.10065695 5.8923645 0.10987147
000160 2f 19 b1 bd c7 32 ee 3d 32 cc a6 3d 0d 3b 64 bd
       -0.086473815 0.11630779 0.08144416 -0.055720378
000170 15 ff 19 3e 2c 4b f7 bf 3b da 41 3d 47 13 e2 3e
       0.15038712 -1.9319816 0.04732726 0.44155332
000180 7b dc 30 c1 4b ea 7e 3e 35 4b 8e be f0 c7 c5 bd
       -11.053828 0.24894063 -0.27791753 -0.09657276
000190 cf 7a 43 40 65 84 a5 3e 8c 7d 06 40 2d 25 d1 40
       3.0543706 0.32327572 2.1014128 6.535788
0001a0 cb 87 01 41 a3 1d 9d c0 1d 7d 86 40 0f 06 a3 be
       8.095653 -4.909868 4.2027726 -0.3184056
0001b0 4a fb 1f bd 14 4b e5 bf 40 d2 1b 3f 40 b9 e7 bd
       -0.039058007 -1.7913537 0.6086769 -0.113146305
0001c0 74 a6 bc be 2a e9 e3 3d 12 62 15 be b9 c6 ba 41
       -0.36845744 0.11128457 -0.14588192 23.347033
0001d0 82 18 48 c0 8c 48 f9 3d 63 2a 08 40 9c b5 ba bc
       -3.1264958 0.1217204 2.127587 -0.022791676
0001e0 4d ed ff 3d 26 27 d4 3f 26 46 e9 3d 3a f3 47 3d
       0.124964334 1.6574447 0.11390333 0.048815943
0001f0 8f f4 6b bd 9f 70 a7 3f 57 40 9f bd c9 21 ce bd
       -0.057606276 1.3081244 -0.07775944 -0.10065038
000200 83 1a 9d 3d 56 a7 01 be b9 73 54 3e 5d e0 8f c0
       0.07671072 -0.1266149 0.2074727 -4.496138
000210 42 27 ae 3d 39 f7 d1 bc b2 28 06 3e 54 2b ac 3e
       0.085035816 -0.02563058 0.13101462 0.33626807
000220 81 a9 41 3e 20 9c ac be a8 3b c0 3f 49 2d 75 40
       0.18912317 -0.33712864 1.5018206 3.830889
000230 87 79 a5 c0 a8 d6 4c 3f e3 4a 14 be 58 0e 1e 3c
       -5.171085 0.8001504 -0.14481692 0.0096469745
000240 8d d8 c1 3e 30 42 ed 3c 69 9b 58 bd 6f c8 13 be
       0.37860528 0.028962225 -0.052882586 -0.14431928
000250 38 a3 27 bd f4 3d 59 3d d0 19 99 3f 12 12 57 3e
       -0.040927142 0.0530376 1.1961002 0.21002987
000260 84 3d 11 be 46 18 75 bd a9 36 c3 bd db 74 f1 bd
       -0.14183623 -0.059837602 -0.0953191 -0.117898665
000270 a0 89 a1 be e3 c9 99 bd f6 34 a2 ba 47 19 23 be
       -0.31550312 -0.0750921 -0.0012375403 -0.15927611
000280 bd 55 bc 3f b8 3a cb 3d 62 9b d3 3d f1 0a 34 bd
       1.4713665 0.09923309 0.10332371 -0.043955747
000290 18 43 36 bd 11 44 f9 3d ac fd 9d 3e 01 32 88 bd
       -0.04449758 0.12171186 0.308576 -0.066501625
0002a0 8b 9b bb 3d ba 57 ce bd 6e 20 2e c0 38 1e a5 3d
       0.09160527 -0.10075326 -2.7207294 0.080624044
0002b0 20 41 93 3e b0 ed 17 be bd 21 93 3e eb 5d e5 bf
       0.28760624 -0.14836764 0.28736678 -1.7919286
0002c0 c9 1a 90 c1 b8 35 cb 3f eb dd 74 3e 86 b7 90 41
       -18.013079 1.5875769 0.2391278 18.089611
0002d0 e0 08 6c 40 d7 3f ac 3d 35 a8 86 c0 29 01 43 3d
       3.6880417 0.08410614 -4.208033 0.04760853
0002e0 10 c3 a2 3d 3e 88 81 42 96 62 da c1 1f bf f1 3d
       0.079473615 64.7661 -27.298138 0.118040316
0002f0 12 7b c8 41 4a fd 16 3e a0 87 53 be 85 f5 0f 41
       25.060093 0.1474506 -0.20657206 8.997441
000300 ef 7f 0d 3c e2 8f 33 3e 4d 95 db 3d 1c 66 d3 3c
       0.008636459 0.17535356 0.10721836 0.025805525
000310 46 b9 59 c0 1a ea d2 bd 0a b4 ad c0 69 bd d3 bd
       -3.4019332 -0.102985576 -5.4282274 -0.103388615
000320 29 ba 4b 3f 6f ed 65 c1 82 74 c3 3e db eb 53 bf
       0.7958093 -14.370467 0.38174826 -0.8278176
000330 c0 55 cb bd 90 23 83 40 1b 7c f8 3f 52 3a 23 41
       -0.09928465 4.098091 1.9412874 10.201738
000340 d8 63 28 41 b8 f3 10 41 6d 1d 1d c0 3e a1 8c c1
       10.524376 9.059502 -2.454921 -17.578732
000350 4a ef 3c 3f b6 9f dc 3d cc f5 89 41 9a 8e 50 40
       0.73802626 0.1077265 17.245018 3.2587037
000360 a5 df 1c be e6 69 9e c0 a7 61 78 bd 2a c3 22 bc
       -0.15319689 -4.950427 -0.060640004 -0.009934226
000370 72 cb 74 42 9f dd a1 c1 31 76 3f 3e f4 03 94 41
       61.198677 -20.233213 0.1869743 18.50193
000380 27 ce e8 3d f6 bc 6f bd 66 ba e0 40 4b 47 6d be
       0.113674454 -0.058529817 7.0227537 -0.23171727
000390 ad ff 18 bd de 50 0e bd 59 cb 1a 3e 9b 34 c4 bf
       -0.037353206 -0.03474509 0.15116633 -1.5328554
0003a0 41 5d 1d 3e cf d1 76 c0 83 56 89 3d 53 ed 2f 3f
       0.15367605 -3.8565557 0.06705954 0.68721503
0003b0 12 1b 48 c1 70 da c6 3e a8 77 03 bf 3b 76 5b be
       -12.506609 0.3883853 -0.51354456 -0.2143182
0003c0 4c 0d 6c 40 6e de 6b 3f 01 18 b1 40 61 1a 05 41
       3.6883116 0.92136276 5.53418 8.31894
0003d0 b4 6d 0f 41 05 bb 8d bf e8 36 a7 c1 86 c4 50 41
       8.964283 -1.1072699 -20.90181 13.047979
0003e0 42 ad a4 bb cb b9 a5 41 8c c1 58 c1 18 cb ad 3e
       -0.0050255368 20.71572 -13.547253 0.3394401
0003f0 f4 f2 86 c0 e2 c5 1a be c3 a7 5b 3e d2 48 54 c2
       -4.2171574 -0.15114549 0.21450715 -53.071114

fc1.bias f4 [70]
000000 5e 33 9e c0 49 b9 99 c0 07 fb 5c c0 88 b8 98 c0
       -4.9437704 -4.803868 -3.4528215 -4.772526
000010 35 ae a0 c0 b9 03 f5 bf 2c cd 12 c0 cd 1e 74 bf
       -5.0212655 -1.9141761 -2.2937727 -0.953595
000020 73 b3 a5 c0 b3 5d d2 bf cb 99 92 c0 97 f5 9f c0
       -5.1781554 -1.6434845 -4.5812736 -4.998729
000030 23 ea 91 c0 e8 55 a0 c0 bf 31 a9 c0 11 93 a0 c0
       -4.559831 -5.0104866 -5.2873225 -5.0179524
000040 66 b4 99 c0 0c ae 96 c0 8c eb 93 c0 91 bf a3 c0
       -4.8032713 -4.708746 -4.6225033 -5.1171346
000050 99 96 f0 bf 33 4f 8c c0 a2 fa 18 c0 0d 2b a2 c0
       -1.8795959 -4.384668 -2.3902974 -5.067755
000060 13 94 cf bf 86 fd d4 bf c7 a8 dc bf a2 dc 9d c0
       -1.6217064 -1.6639869 -1.7239007 -4.9331827
000070 ed 8a a2 c0 f2 16 9b c0 80 ed a6 c0 e5 4a 9b c0
       -5.0794587 -4.846551 -5.2164917 -4.8528924
000080 d3 2f a3 c0 75 d1 a6 c0 c8 11 a5 c0 3a 10 df bf
       -5.099588 -5.2130685 -5.1584206 -1.7426827
000090 1f f6 70 bf 2a c3 8c c0 ff 8a a1 c0 97 7e 9b c0
       -0.9412555 -4.3988237 -5.0482173 -4.859203
0000a0 a5 1d a5 c0 e6 a3 95 c0 d8 cb a0 c0 23 ca e2 bf
       -5.1598687 -4.676257 -5.0248833 -1.7717937
0000b0 c0 21 a4 c0 4a df 75 c0 46 30 a3 c0 57 5f a1 c0
       -5.12912 -3.8417535 -5.0996428 -5.042888
0000c0 90 63 e1 bf 4f 7c a1 c0 a7 59 9f c0 c9 86 8a c0
       -1.7608509 -5.0464244 -4.979694 -4.3289533
0000d0 a1 4e a1 c0 ed 33 a7 c0 f4 c9 a4 c0 05 91 a4 c0
       -5.0408483 -5.2250886 -5.1496525 -5.1427026
0000e0 a6 18 9d c0 40 e4 d6 bf e8 e7 a4 c0 3f 93 a7 c0
       -4.909259 -1.6788406 -5.153309 -5.2367244
0000f0 32 29 a0 c0 b4 0c 95 c0 ee 33 a3 c0 ca 50 8c c0
       -5.0050287 -4.6578007 -5.100089 -4.384862
000100 23 12 d9 bf dc 0e a3 c0 15 ad a6 c0 ae 13 92 c0
       -1.695866 -5.095564 -5.208628 -4.5649023
000110 93 9c 9d c0 c5 cf 81 c0
       -4.925363 -4.0566125

fc2.weight f4 [35, 70]
000000 1e cd 12 bf 45 11 2a bf 92 fa 2a c0 f0 ce 4d bf
       -0.57344234 -0.664326 -2.6715436 -0.80393887
000010 03 0d 2e bf c9 c8 50 c0 70 57 48 c0 85 fd 84 c0
       -0.67988604 -3.262255 -3.1303368 -4.155947
000020 2b 4a d4 be d5 21 72 c0 20 0e b5 bf 6c 9a 2c bf
       -0.41462836 -3.783315 -1.4144936 -0.6742313
000030 8a 0b f0 bf 76 45 4a bf 80 16 1b bf c7 c2 01 bf
       -1.8753521 -0.7901224 -0.6058121 -0.5068783
000040 3e 31 88 bf 7c 21 80 bf ee 9b 48 bf ba 9c b5 be
       -1.0640028 -1.0010219 -0.7836293 -0.35471135
000050 96 03 53 c0 2c 45 01 c0 fa 48 3a c0 9a 2b d0 be
       -3.2970939 -2.019847 -2.9107041 -0.40658265
000060 3c e2 66 c0 05 5a 54 c0 eb 5d 65 c0 08 f3 1f bf
       -3.6075583 -3.3179944 -3.5838573 -0.6248021
000070 13 8a 39 bf f7 75 7e bf 79 7c c3 be 4f 7e 26 bf
       -0.7247631 -0.9939875 -0.38180903 -0.6503648
000080 6f 77 f0 be 94 d7 d6 be 36 13 b2 be 86 d5 2a c0
       -0.4696612 -0.41961348 -0.34780282 -2.6692824
000090 22 50 95 c0 56 cb e9 bf 47 f3 37 bf 16 43 0b bf
       -4.666032 -1.8265178 -0.71855587 -0.5439924
0000a0 b4 99 dc be 80 e0 69 bf 2e d0 2c bf c2 6e 5c c0
       -0.43086016 -0.91358185 -0.67505157 -3.4442601
0000b0 bd 79 9e be 67 53 1b c0 79 92 a4 be 52 db 3e bf
       -0.30952254 -2.4269655 -0.32143 -0.74553406
0000c0 31 69 62 c0 12 5e c2 be f6 21 a7 be a5 ae 08 c0
       -3.5376704 -0.37962395 -0.32643098 -2.1356595
0000d0 49 ff 34 bf bb 35 9e be 73 38 9d be dd da 36 bf
       -0.70702034 -0.30900368 -0.3070713 -0.7142771
0000e0 5c 96 0b bf 89 98 52 c0 0a 53 00 bf 57 aa ae be
       -0.54526305 -3.29056 -0.5012671 -0.34114334
0000f0 19 6b 16 bf 05 e3 8b bf 4b 9d 30 bf f1 84 fa bf
       -0.5875717 -1.0928656 -0.6899001 -1.957182
000100 e0 9d 5f c0 79 13 d3 be 0b 82 dd be ad 5e e8 bf
       -3.494011 -0.41225794 -0.43263277 -1.8153893
000110 ba 29 0b bf 16 3f 14 c0 70 7b 3f bf a8 33 6d bf
       -0.54360545 -2.3163505 -0.74797726 -0.92656946
000120 c9 64 4a c0 f5 a4 7c bf 98 19 4c bf d8 32 93 c0
       -3.1624014 -0.98689204 -0.7972655 -4.5999565
000130 2f 86 7b c0 63 22 62 c0 f7 93 e6 be 3c c1 a8 c0
       -3.930065 -3.5333488 -0.45034763 -5.273588
000140 04 92 a5 bf 5d 69 6e bf 27 55 e9 bf 8e 02 57 bf
       -1.2935185 -0.9312952 -1.8229111 -0.83988273
000150 a5 ab 1e bf 37 00 ae be 45 9d 82 bf 78 82 83 bf
       -0.6198066 -0.3398454 -1.0204245 -1.0274191
000160 21 12 80 bf 83 f3 a1 be 09 df 92 c0 d3 31 04 c0
       -1.0005533 -0.31631097 -4.589726 -2.065541
000170 45 94 69 c0 64 ec 8a be 2e b2 a2 c0 29 66 92 c0
       -3.6496747 -0.27133477 -5.0842505 -4.5749707
000180 91 cf 9b c0 96 3d 30 bf bc df 28 bf 6e eb 76 bf
       -4.8690877 -0.6884397 -0.6596639 -0.9645299
000190 73 e8 e4 be 2b d0 57 bf 06 f6 23 bf ad e5 c2 be
       -0.44708595 -0.84302014 -0.64047277 -0.38065854
0001a0 f1 3b 9d be 35 db 1c c0 eb 2f 82 c0 f0 ba 0d c0
       -0.30709794 -2.4508793 -4.0683494 -2.2145348
0001b0 3f 01 76 bf b8 c3 75 bf 0d c7 0b bf 51 dc 58 bf
       -0.9609565 -0.9600177 -0.546006 -0.84711176
0001c0 d1 a7 2a bf f5 af 98 c0 70 98 bb be 66 02 34 c0
       -0.6666232 -4.771479 -0.36639738 -2.8126464
0001d0 cd 49 cb be ba d7 62 bf 73 b4 9a c0 90 9d a8 be
       -0.39704743 -0.8861042 -4.8345275 -0.3293271
0001e0 60 ef 92 be aa 58 0d c0 2c da 70 bf 2b 49 e0 be
       -0.28698254 -2.2085366 -0.94082904 -0.43805823
0001f0 2f 6d 94 be 0e 23 6f bf 78 a5 89 bf 99 f8 87 c0
       -0.2898955 -0.93412864 -1.0753622 -4.2490964
000200 a0 ff da be ed 95 a1 be 6f ef 1e bf 09 8a 8c bf
       -0.4277315 -0.31559697 -0.62084097 -1.0979625
000210 12 3b 38 bf cb 1e 01 c0 37 26 9c c0 fa 09 13 bf
       -0.71965134 -2.0175045 -4.879665 -0.574371
000220 bb ea e4 be e6 ce ec bf 44 72 88 bf 9c 8f 2f c0
       -0.44710335 -1.850064 -1.0659871 -2.7431402
000230 c2 aa 2e bf 5f 64 46 bf 21 e1 23 c0 d9 aa 3f bf
       -0.68229306 -0.77496904 -2.5606158 -0.7487007
000240 49 7c 42 bf bf de 4b c0 c3 a6 31 c0 f1 7d 88 c0
       -0.75970894 -3.1854703 -2.7758033 -4.2653737
000250 d2 62 06 bf 36 43 52 c0 67 80 9d bf 5d 7d 36 bf
       -0.5249454 -3.2853522 -1.230481 -0.7128504
000260 78 37 db bf d4 45 3a bf 81 27 1c bf c7 08 f9 be
       -1.7126303 -0.727628 -0.6099778 -0.4863951
000270 5a 14 64 bf 3d 30 83 bf 34 0b 87 bf f3 68 87 be
       -0.89093554 -1.0249096 -1.0550294 -0.26447257
000280 a2 d3 45 c0 8e b2 ea bf 8c a3 31 c0 8d 8e aa be
       -3.091042 -1.833574 -2.775607 -0.33311883
000290 e2 6c 53 c0 99 af 40 c0 40 5f 57 c0 8c 6c 25 bf
       -3.3035207 -3.0107176 -3.3651886 -0.64618754
0002a0 32 37 49 bf ee 3e 94 bf c2 22 dd be 08 90 46 bf
       -0.78599846 -1.1581705 -0.4319058 -0.77563524
0002b0 f5 1d 12 bf ce 7b 01 bf 87 17 8e be 97 02 34 c0
       -0.5707696 -0.50579536 -0.27752325 -2.812658
0002c0 9a 1a 93 c0 7f 5c ef bf 16 61 44 bf 83 64 1d bf
       -4.5969973 -1.8700103 -0.7671064 -0.61481494
0002d0 82 bf ce be 4d d3 89 bf 50 4a 0d bf d6 7b 44 c0
       -0.40380484 -1.0767609 -0.55191517 -3.0700583
0002e0 48 31 c7 be c2 d0 1a c0 03 28 a8 be 93 73 17 bf
       -0.38904786 -2.4189916 -0.32843027 -0.5916073
0002f0 4e 0c 4d c0 43 9c d2 be 75 19 98 be 29 92 f5 bf
       -3.203876 -0.41134843 -0.29706922 -1.918523
000300 77 22 18 bf e3 d5 ff be c2 80 a5 be b6 42 19 bf
       -0.5942759 -0.4996787 -0.32324797 -0.5986742
000310 ba 73 12 bf 9f 50 3d c0 e0 dd ca be ed 0f b2 be
       -0.57207835 -2.9580457 -0.39622402 -0.34777775
000320 4b bd 34 bf ed 0b a1 bf d3 62 2d bf c5 87 e8 bf
       -0.7060134 -1.2581764 -0.6772892 -1.8166434
000330 4e a7 4b c0 5c 03 d4 be 21 a8 84 be 6c 4d e3 bf
       -3.1820865 -0.41408813 -0.25909522 -1.7758002
000340 02 57 48 bf 3a 16 16 c0 60 b2 17 bf 06 e4 22 bf
       -0.78257763 -2.3451066 -0.59256554 -0.63629186
000350 f4 93 ae bf e5 11 21 bf 2b e4 fc be ef e3 83 bf
       -1.3638902 -0.6291793 -0.49392828 -1.0303935
000360 6a dc bf bf 64 e9 de c0 7f 33 bb be 96 ec f9 be
       -1.498914 -6.96599 -0.36562726 -0.48813313
000370 d0 e6 4d bf 18 b2 0e bf 08 11 8f bf 1f 13 27 bf
       -0.80430317 -0.557405 -1.1177073 -0.6526355
000380 6f 8f 04 bf 22 45 94 be 02 c4 1a bf 15 25 2e bf
       -0.5178136 -0.28958994 -0.60455334 -0.6802533
000390 e1 0a 34 bf d7 4b 7a be 42 d3 7b bf cd 81 a8 bf
       -0.703291 -0.24442993 -0.9836923 -1.3164612
0003a0 c6 7f b4 bf 0f d4 81 be cd f5 39 bf c1 cd 7a bf
       -1.4101493 -0.253571 -0.7264069 -0.97970206
0003b0 ba 19 1c bf eb f3 0f bf 85 6e 19 bf 81 6a 2a bf
       -0.60976756 -0.56231564 -0.59934264 -0.6656876
0003c0 50 1f 6f be 92 91 1b bf 8b 6b 01 bf c5 a3 a5 be
       -0.23351789 -0.60769 -0.5055472 -0.3235151
0003d0 5b bf 7a be f6 84 79 c0 80 0f f5 c0 5f 8c 9a bf
       -0.24487059 -3.8987403 -7.658142 -1.2074088
0003e0 96 6e 13 bf cc 93 11 bf 55 bc 9a be 89 6a 33 bf
       -0.57590616 -0.56866145 -0.3022181 -0.70084435
0003f0 7f 27 13 bf f4 4e 6d bf af 28 6a be 83 12 c5 bf
       -0.5748214 -0.926986 -0.22867082 -1.5396274

fc2.bias f4 [35]
000000 5a 91 06 c1 d1 5f 08 c1 43 82 05 c1 bd 6b a9 c0
       -8.410486 -8.523393 -8.344302 -5.2944016
000010 ab b0 08 c1 db 49 6d c0 bc bb aa c0 e2 c0 06 c1
       -8.543132 -3.7076328 -5.335417 -8.422091
000020 60 94 9e c0 02 78 8e bf d7 07 07 c1 cf cb 25 c0
       -4.955612 -1.1130373 -8.439414 -2.5905645
000030 7b 57 0a c1 bf 56 08 c1 fa fb 07 c1 cc 65 34 c0
       -8.646358 -8.521178 -8.499018 -2.8187132
000040 fa 69 18 c0 b7 24 85 c0 e3 ee 87 c0 52 af 36 c0
       -2.3814683 -4.160732 -4.247911 -2.8544507
000050 94 17 41 c0 c8 c3 0a c1 2b 9c 0a c1 10 f1 92 c0
       -3.017064 -8.672798 -8.663127 -4.5919266
000060 fd e6 03 c1 3a 87 a0 c0 b9 3d 0a c1 f9 20 0a c1
       -8.243894 -5.016507 -8.640069 -8.63305
000070 27 f5 c2 c0 aa 17 ec c0 f8 6f 08 c1 c1 fe 6d c0
       -6.092426 -7.3778887 -8.527336 -3.718674
000080 9b 1c 84 c0 85 c1 06 c1 31 17 08 c1
       -4.128492 -8.422246 -8.505662

fc3.weight f4 [17, 35]
000000 e5 16 c6 c0 4d f8 bc c0 87 a0 b1 c0 56 67 88 c0
       -6.1902947 -5.90531 -5.5508456 -4.2626143
000010 a2 17 ce c0 b7 41 b0 c0 df 42 31 c0 36 41 c2 c0
       -6.440385 -5.508022 -2.7697065 -6.0704603
000020 b0 02 95 c0 49 46 05 c1 51 75 bd c0 5d 82 dc c0
       -4.656578 -8.329659 -5.920571 -6.8909135
000030 96 71 b8 c0 fc 53 d2 c0 ff b9 d7 c0 80 ea df c0
       -5.7638655 -6.572752 -6.7414546 -6.9973755
000040 ba f8 e0 c0 45 10 a8 c0 69 c6 d6 c0 f3 f0 d4 c0
       -7.030362 -5.251986 -6.71172 -6.6544127
000050 72 19 d5 c0 b6 5b aa c0 62 d7 bb c0 c8 f3 98 c0
       -6.659356 -5.323695 -5.870042 -4.7797585
000060 7a 1d c0 c0 31 23 60 c0 e9 35 ba c0 cc f5 99 c0
       -6.003598 -3.502148 -5.819081 -4.8112545
000070 78 94 d1 c0 76 6a eb c0 31 4a c4 c0 70 d6 da c0
       -6.5493736 -7.3567457 -6.1340566 -6.8386765
000080 9f 55 98 c0 89 1a b9 c0 5a 96 d8 c0 2e 79 c2 c0
       -4.760452 -5.784489 -6.7683535 -6.0772924
000090 30 60 be c0 75 4c b1 c0 50 5d 85 c0 ca 46 c8 c0
       -5.9492416 -5.540583 -4.1676407 -6.2586412
0000a0 43 70 a3 c0 ab 5b 2c c0 85 80 bd c0 19 68 90 c0
       -5.107454 -2.693095 -5.9219384 -4.512707
0000b0 ca 54 02 c1 15 9f ba c0 c2 c2 d5 c0 ea fb b3 c0
       -8.1457 -5.831919 -6.680024 -5.624501
0000c0 d3 36 cc c0 37 b2 dd c0 10 97 d8 c0 22 84 d6 c0
       -6.3816924 -6.9280047 -6.7684402 -6.7036295
0000d0 27 c0 a2 c0 4e cf d0 c0 dc ae ca c0 b2 c3 c7 c0
       -5.085956 -6.5253057 -6.333845 -6.2426386
0000e0 74 b0 aa c0 ed ee b3 c0 f2 13 9a c0 22 e1 b8 c0
       -5.3340397 -5.6229157 -4.8149347 -5.777482
0000f0 05 3d 52 c0 b2 d7 b0 c0 54 a2 90 c0 7d 93 d2 c0
       -3.2849743 -5.52633 -4.5198154 -6.580504
000100 39 ac e6 c0 43 97 c2 c0 1a 1e d4 c0 2c 64 8f c0
       -7.2085233 -6.0809646 -6.6286745 -4.480978
000110 ab c1 b2 c0 0a 64 d6 c0 3c 9d 62 c0 1e d9 65 c0
       -5.586141 -6.699712 -3.5408468 -3.5913768
000120 f6 79 47 c0 db 13 27 c0 b9 c4 55 c0 e1 31 94 c0
       -3.116819 -2.610587 -3.340132 -4.6310887
000130 91 7e a2 bf 5c 4b 5b c0 ab 8c 1b c0 cf a7 9a c0
       -1.2694875 -3.4264746 -2.4304607 -4.8329844
000140 6f 46 5c c0 6b b2 c3 c0 22 f5 4d c0 90 53 69 c0
       -3.441799 -6.1155295 -3.2180867 -3.6457253
000150 fb 09 75 c0 c9 44 c8 c0 87 c9 c1 c0 82 44 8d c0
       -3.8287342 -6.2583966 -6.0558505 -4.414613
000160 2f 32 27 c0 51 cc bb c0 2c 52 af c0 87 e3 3c c0
       -2.612438 -5.868691 -5.4787807 -2.9513872
000170 62 2e 5d c0 4a f2 74 c0 2b 8f 49 c0 5a 12 d9 bf
       -3.455956 -3.8272882 -3.1493633 -1.6958725
000180 74 d8 55 c0 e8 59 2f c0 f0 f3 76 c0 83 ef 69 c0
       -3.3413363 -2.7398624 -3.8586388 -3.6552436
000190 3f 35 67 c0 2a cb 76 c0 aa 11 8a c0 ab ef 3e c0
       -3.612625 -3.8561502 -4.3146563 -2.9833782
0001a0 14 ac 69 c0 02 89 a2 c0 8d e6 9e c0 a9 8e 93 c0
       -3.6511278 -5.0792246 -4.9656434 -4.6111646
0001b0 4f 69 5a c0 d7 7a b4 c0 e2 21 9a c0 78 33 05 c0
       -3.4126775 -5.639995 -4.816636 -2.0812664
0001c0 0a 5a a1 c0 bf ec 5d c0 b2 58 dc c0 1f b7 9e c0
       -5.042241 -3.4675748 -6.885827 -4.9598536
0001d0 ac 07 c3 c0 f7 16 91 c0 5b 70 a7 c0 5f f6 be c0
       -6.0946865 -4.5340533 -5.2324653 -5.9675746
0001e0 cb 71 b2 c0 61 03 c4 c0 df ef 87 c0 55 48 a8 c0
       -5.5763907 -6.1254125 -4.248031 -5.2588296
0001f0 c8 ec a1 c0 f3 90 b0 c0 c0 f0 88 c0 4c 2c 94 c0
       -5.060154 -5.517694 -4.2793884 -4.6304073
000200 23 6d 81 c0 55 b8 98 c0 58 b7 21 c0 99 06 95 c0
       -4.0445724 -4.7725015 -2.5268154 -4.6570554
000210 9e 31 83 c0 be 9f b2 c0 9b 44 c3 c0 2e 00 a2 c0
       -4.099807 -5.582 -6.1021247 -5.062522
000220 94 5b b9 c0 05 cf 84 c0 52 2c 98 c0 b7 67 bc c0
       -5.792429 -4.150271 -4.75541 -5.8876605
000230 14 ea 25 bf 7d 4c 70 3b 09 03 50 bf 68 71 2f c0
       -0.648103 0.0036666684 -0.8125463 -2.7412968
000240 c1 cb a4 be ec c7 e8 bf 1f 66 2f c0 8d f3 33 bf
       -0.32186702 -1.8186011 -2.740608 -0.70293504
000250 10 aa 36 c0 55 38 82 40 ff 0c 9c 3d 2e a4 19 c0
       -2.8541298 4.0693765 0.07619666 -2.4006457
000260 2c 65 ce be 96 f0 f6 bd 59 d1 d2 be bf 26 3a c0
       -0.40311563 -0.12057607 -0.41175345 -2.9086149
000270 8e eb 14 c0 b3 1c f3 bf 39 ff 2b c0 19 b9 1f c0
       -2.326877 -1.8993133 -2.6874526 -2.4956725
000280 7e 15 eb bf 56 16 dc be 76 81 4c be 10 86 1d c0
       -1.8365934 -0.4298579 -0.1997126 -2.4613075
000290 ff 7d 6a bf 65 45 37 c0 05 f7 af bd ab 1e 22 bf
       -0.91598505 -2.8636105 -0.08592037 -0.63328046
0002a0 95 20 c4 3f 8a 24 bb bf 2f 74 f7 be 50 9d 3d 40
       1.5322443 -1.4620526 -0.4833083 2.9627266
0002b0 3e 9c e5 bf a6 e8 42 bf 70 a7 ce be 23 23 b4 c0
       -1.7938306 -0.76136243 -0.4036212 -5.629289
0002c0 df 37 b3 c0 86 57 a0 c0 1d e3 64 c0 e8 e9 bf c0
       -5.60057 -5.010684 -3.576362 -5.997303
0002d0 55 99 96 c0 7c a4 12 c0 7b 46 b4 c0 6f 72 85 c0
       -4.7062173 -2.2912893 -5.6336036 -4.170219
0002e0 0c dd ed c0 4c f5 ad c0 a5 ae c6 c0 4d 5b a0 c0
       -7.4332333 -5.4361935 -6.208819 -5.011145
0002f0 4f 5a bb c0 35 5a cc c0 b7 ff c5 c0 88 b1 c8 c0
       -5.854774 -6.3860116 -6.187465 -6.2716713
000300 ef ae 93 c0 c7 ba bd c0 ac f7 bb c0 4f 36 b4 c0
       -4.615104 -5.92905 -5.8739834 -5.6316295
000310 a4 ed 96 c0 cb 5b a7 c0 bd 46 8c c0 ef 47 af c0
       -4.716509 -5.229955 -4.383635 -5.477531
000320 11 37 31 c0 17 1a a9 c0 07 2b 8a c0 a2 f8 be c0
       -2.768986 -5.284435 -4.3177524 -5.9678507
000330 15 ab d4 c0 3c 1e ad c0 b9 a3 c1 c0 0a 3b 89 c0
       -6.645884 -5.4099407 -6.0512357 -4.288457
000340 4a db 9f c0 25 d1 c7 c0 40 f6 a3 c0 49 75 9b c0
       -4.9955187 -6.2442803 -5.12381 -4.858067
000350 4f c0 8d c0 84 c2 54 c0 d5 57 a8 c0 3d ba 91 c0
       -4.429725 -3.3243723 -5.2607217 -4.553984
000360 f0 39 f6 bf 71 13 a0 c0 f8 cc 59 c0 7c 13 de c0
       -1.9236431 -5.002373 -3.4031353 -6.9398785
000370 64 58 9b c0 a8 8d bc c0 c5 9e 92 c0 8a f1 ad c0
       -4.85454 -5.892292 -4.581881 -5.4357347
000380 f2 e1 ba c0 9f 0d b3 c0 e0 60 b6 c0 22 58 8d c0
       -5.840081 -5.5954127 -5.6993256 -4.4170084
000390 e1 68 a0 c0 6b 87 a4 c0 ca 2e ab c0 b5 fb 8f c0
       -5.0128026 -5.1415305 -5.3494616 -4.499476
0003a0 d4 b8 90 c0 22 b5 7a c0 dd 4c 93 c0 9d 65 23 c0
       -4.522562 -3.9173055 -4.6031327 -2.553077
0003b0 ef 5c 95 c0 7b 66 71 c0 35 c7 af c0 46 73 b8 c0
       -4.6675944 -3.77188 -5.4930673 -5.7640715
0003c0 cc 54 a2 c0 e6 f0 b3 c0 84 21 7e c0 a2 37 9a c0
       -5.072851 -5.6231565 -3.9707956 -4.819291
0003d0 36 10 b6 c0 11 7f a3 c0 7a ae 98 c0 7a 2d 94 c0
       -5.689479 -5.109261 -4.7712984 -4.6305513
0003e0 d8 2b 4c c0 8f 06 ad c0 eb 84 8f c0 7f d2 fd bf
       -3.190176 -5.4070506 -4.4849753 -1.9829863
0003f0 e5 1c 9f c0 67 d0 6f c0 e5 1b dc c0 61 1d a0 c0
       -4.972277 -3.7470949 -6.878405 -5.0035863

fc3.bias f4 [17]
000000 62 87 fa c0 4a 01 05 c1 32 8a 12 c1 dd d9 12 c1
       -7.829026 -8.312815 -9.158739 -9.178189
000010 10 f7 4a c0 71 48 0e c1 32 0d 16 c1 fa 40 16 c1
       -3.1713295 -8.892686 -9.3782215 -9.390863
000020 6c 53 16 c1 15 e0 14 c1 a8 f5 0f c1 3c 48 13 c1
       -9.395367 -9.304708 -8.997475 -9.205135
000030 37 6a 12 c1 37 41 1f c1 7d 6e 10 c1 5d 27 15 c1
       -9.150931 -9.953422 -9.026975 -9.32211
000040 83 35 09 c1
       -8.575564

output.weight f4 [1, 17]
000000 26 21 6b 40 a1 ca 63 40 00 ed 55 40 af 5b 45 40
       3.6738982 3.5592425 3.3425903 3.083721
000010 00 cc fd 3f 5a b6 52 40 23 f3 43 40 6b 27 47 40
       1.9827881 3.2923799 3.061715 3.111781
000020 6c 4c 4a 40 6f f4 4d 40 22 11 5d 40 1f 9e 53 40
       3.1609144 3.218044 3.4541707 3.306526
000030 25 18 56 40 63 19 30 40 a2 82 5b 40 c8 7c 4e 40
       3.3452237 2.7515495 3.4298482 3.226366
000040 36 46 57 40
       3.3636603
