training_nn/model/order3_dynamiclr/Theta_net_ep14.pth (torch, 25366 bytes, 7 tensors)

fc1.weight f4 [70, 35]
000000 6f 75 a3 c0 db 4d 1a 40 81 0f 50 bd 01 3f 95 bd
       -5.108085 2.411002 -0.050796036 -0.07287408
000010 a0 d5 cd bf 71 c0 3d bd 24 85 3e 3d 80 48 2f be
       -1.6080818 -0.046326105 0.04651369 -0.171175
000020 3d 5d 09 be 0a 25 81 3d a7 8b 66 41 55 13 54 be
       -0.13414474 0.06305893 14.409095 -0.207105
000030 2b 19 16 3e 5a 7a a7 3d d1 b6 c3 3d 70 61 b0 3d
       0.14658038 0.081776336 0.09556354 0.08612335
000040 60 0e 68 bd 55 3c a3 3b a6 7b 22 bd f9 8c 82 3d
       -0.056654334 0.0049815574 -0.0396687 0.06374545
000050 46 d2 8c 3f c8 54 ed bd 9c 88 a6 bd ee 5d 09 3e
       1.100167 -0.11588436 -0.08131525 0.13414738
000060 17 66 91 bd c4 68 a9 3d 02 bf b3 bf 73 74 14 3e
       -0.0709955 0.082719356 -1.4042666 0.14497547
000070 f4 9f ee bd 87 c6 f9 bd fd 09 14 bf fc 7a 8a bd
       -0.116516024 -0.12196069 -0.5782774 -0.06761739
000080 db 39 28 bd fa 31 20 3e 5b b4 88 3f dd ff a1 c0
       -0.0410708 0.15644065 1.068004 -5.0624833
000090 c9 60 b9 40 70 64 a8 be cd 34 e8 bd ff 83 7b c0
       5.7930646 -0.32889128 -0.11338196 -3.9299314
0000a0 2c b6 f0 3d 4e e3 3a 3c 64 5d 04 3d 5d 3c 94 3b
       0.117534965 0.011406733 0.032315627 0.0045237974
0000b0 4f f3 8b 3c f2 30 8f 41 c6 09 65 bf bc ca 9f bd
       0.017083792 17.8989 -0.8946804 -0.078023404
0000c0 02 07 22 3f 01 e2 97 3c c5 2b 9b 3d 21 66 e3 3e
       0.63291943 0.018540384 0.07576708 0.44413856
0000d0 5b ea aa bd 8b 1f d1 bd 83 3a 21 bb da 1b be 3f
       -0.08345481 -0.102110945 -0.0024601526 1.485225
0000e0 92 d0 5b be 1d f8 1b 3d 98 3c 0d 3e 8c 1b eb bd
       -0.21466282 0.038078416 0.13792646 -0.114798635
0000f0 19 d1 b4 3b 6c 5d 16 c0 00 51 02 bd f6 83 18 be
       0.0055180904 -2.349452 -0.03181553 -0.14894089
000100 18 98 ce bd 6f fb 35 bf 49 ab 30 3e e0 d9 b4 be
       -0.10087603 -0.7108678 0.1725284 -0.35322475
000110 16 81 45 3f 33 9d 19 40 3f a2 69 c0 ee 6f 5b c1
       0.77150095 2.4002197 -3.6505277 -13.714827
000120 59 5a 3e bd dd 36 3f 3e bc 60 6a 41 11 2e 27 40
       -0.04647288 0.18673272 14.648617 2.6121867
000130 e7 7d ef bd 9a 94 9a c0 23 17 0b be d1 d8 c2 3d
       -0.11693936 -4.83064 -0.13583045 0.09514011
000140 ba f3 53 42 7f 42 7c c1 0e 22 4b 3e 6e 70 60 41
       52.988014 -15.766234 0.1983721 14.027449
000150 4f 06 30 3e ac 65 cd bd 35 a4 bc 40 25 ef e0 3d
       0.17189907 -0.10029158 5.895045 0.10983113
000160 9b 98 b1 bd f0 81 ee 3d 56 20 8b 3e f9 b1 0a be
       -0.08671685 0.11645877 0.27173108 -0.13544454
000170 6f ea 19 3e d9 da ff bf c3 d6 46 3d 53 63 e2 3e
       0.15030836 -1.9988662 0.048544656 0.44216403
000180 ae cf 30 c1 f8 ec 7b 3e 78 13 8f be b1 49 c7 bd
       -11.050703 0.24602115 -0.2794454 -0.097308524
000190 ba 28 3a 40 81 21 ba 3e e7 ae 08 40 ed f8 d0 40
       2.9087358 0.36353686 2.1356752 6.5303864
0001a0 79 12 01 41 1e e8 9a c0 22 7a 86 40 4e fb a2 be
       8.06701 -4.8408346 4.202409 -0.31832355
0001b0 ef fa 1f bd 41 d7 e8 bf 46 c9 1b 3f 5d b9 e7 bd
       -0.03905767 -1.819069 0.60853994 -0.11314652
0001c0 53 bc bb be fb e8 e3 3d 2f 62 15 be 56 dd ba 41
       -0.36667117 0.11128422 -0.14588235 23.358074
0001d0 80 18 48 c0 8d 48 f9 3d 89 2a 08 40 0b b7 ba bc
       -3.1264954 0.12172041 2.1275961 -0.02279236
0001e0 2b ed ff 3d 88 27 d4 3f 26 46 e9 3d f2 f2 47 3d
       0.12496408 1.6574564 0.11390333 0.048815675
0001f0 a4 f4 6b bd 32 bb a6 3f a6 fc a0 bd bd 29 ce bd
       -0.057606354 1.3025877 -0.07860689 -0.10066555
000200 10 77 9c 3d bc a3 01 be f1 79 54 3e ba df 8f c0
       0.07639897 -0.12660116 0.20749642 -4.4960604
000210 c4 1c ae 3d d7 2b d2 bc df 27 06 3e 27 bc b1 3e
       0.0850158 -0.02565567 0.13101147 0.3471386
000220 82 76 42 3e ee 77 ac be e6 3b c0 3f a5 f4 74 40
       0.1899052 -0.3368525 1.501828 3.827432
000230 a8 b2 a5 c0 ac 4d 4c 3f eb 4a 14 be 46 0e 1e 3c
       -5.1780586 0.7980602 -0.14481704 0.009646958
000240 ce 7c c1 3e 0d 5c ed 3c 67 9b 58 bd c9 c1 13 be
       0.3779053 0.028974557 -0.05288258 -0.14429392
000250 32 a3 27 bd eb 3d 59 3d b1 15 99 3f c7 12 57 3e
       -0.04092712 0.053037565 1.1959745 0.21003257
000260 84 3d 11 be 6c fc 74 bd a9 36 c3 bd db 74 f1 bd
       -0.14183623 -0.05981104 -0.0953191 -0.117898665
000270 33 89 a1 be e3 c9 99 bd ef 38 a2 ba 47 19 23 be
       -0.31549987 -0.0750921 -0.0012376587 -0.15927611
000280 76 cf bb 3f 54 23 cc 3d 78 9b d3 3d 4a 4c 33 bd
       1.4672687 0.09967676 0.10332388 -0.043773927
000290 d9 43 36 bd 96 42 f9 3d 1f 17 9e 3e 02 32 88 bd
       -0.0444983 0.121709034 0.30877015 -0.06650163
0002a0 23 9b bb 3d d8 57 ce bd 70 3d 2e c0 76 fd a4 3d
       0.09160449 -0.100753486 -2.7224998 0.08056156
0002b0 6f 3b 93 3e 5d f1 17 be ed 42 93 3e 14 7c ef bf
       0.28756282 -0.14838167 0.28761998 -1.8709741
0002c0 18 cc 90 c1 70 c9 fc 3f 44 45 7f 3e 97 af 9b 41
       -18.099655 1.9748974 0.24928766 19.460737
0002d0 cf 85 44 40 0f 45 a6 3d 31 24 9d bf 38 1f 8e 3d
       3.070667 0.08118641 -1.227667 0.06939548
0002e0 c9 23 bb 3c 01 66 85 42 04 36 d8 c1 2e ee 07 3e
       0.022844212 66.69923 -27.026375 0.13274452
0002f0 81 58 c6 41 f1 72 05 3e 90 ac 34 be 58 3f 13 41
       24.793215 0.13032128 -0.17643952 9.202965
000300 36 2c ff 3b cc b0 21 3e a0 bf ef 3d c0 a6 e4 3d
       0.007787253 0.15790099 0.117064714 0.111646175
000310 b7 15 ea c0 6e 21 0a be 28 95 f9 c0 6b 4e e6 bb
       -7.3151507 -0.13489315 -7.7994576 -0.007028391
000320 c8 04 57 3f 96 04 6a c1 cc 6d 58 3e 2e 2b 67 bf
       0.8399167 -14.62612 0.21135634 -0.9030026
000330 d4 0c 06 be e4 64 5e 40 33 cf 8a 40 71 7e 42 41
       -0.13090831 3.4749079 4.337793 12.1558695
000340 dc a4 20 41 22 ce 06 41 e8 c6 28 c0 c9 e9 91 c1
       10.040249 8.425325 -2.6371403 -18.239153
000350 a5 08 53 3f fe 78 e0 3d 37 98 8f 41 84 12 47 40
       0.82435066 0.109605774 17.949324 3.110505
000360 27 dd 1d be f3 78 84 c0 fa 02 63 bd d4 07 cb bc
       -0.15416394 -4.1397643 -0.05542276 -0.024784006
000370 ae be 79 42 fd 67 a1 c1 73 f4 42 3e c5 86 93 41
       62.43621 -20.175776 0.19038562 18.440805
000380 53 20 e0 3d d5 e6 51 bd a3 63 e2 40 32 c2 6d be
       0.10943665 -0.05124553 7.0746627 -0.23218611
000390 8e c6 2a bd 17 f9 03 bd 9b 2b ea 3e 30 fe 30 c0
       -0.041693263 -0.032219972 0.45736393 -2.7655144
0003a0 b6 ab 19 3e f3 80 97 c0 1f 5d b6 3d 78 da 32 3f
       0.15006909 -4.734491 0.0890448 0.69864607
0003b0 fe 3c 48 c1 36 2b b2 3e 48 59 08 bf 6a 47 65 be
       -12.514891 0.34798592 -0.5326123 -0.22390524
0003c0 fa de 33 40 35 9e c5 3f d7 45 c2 40 2e d8 02 41
       2.8104844 1.5438906 6.0710254 8.177778
0003d0 e1 e6 0a 41 5f c2 99 bf 92 bd 96 c1 1a 84 7b 41
       8.681367 -1.2012442 -18.842564 15.719751
0003e0 87 5b 81 3c 08 f1 a6 41 52 4d 87 c1 5a 15 cc 3e
       0.015790714 20.867691 -16.912754 0.3986004
0003f0 4e ab 16 c1 04 e1 25 be 0c 04 d2 3e 29 eb 5e c2
       -9.416822 -0.16199118 0.41018713 -55.72965

fc1.bias f4 [70]
000000 90 f6 9d c0 38 d3 97 c0 d4 4b 6e c0 03 83 96 c0
       -4.936348 -4.7445335 -3.7233782 -4.7034926
000010 56 e7 a0 c0 e2 21 ff bf a7 76 1e c0 7a 17 86 bf
       -5.0282393 -1.9932215 -2.475992 -1.0475914
000020 21 01 a6 c0 10 54 d3 bf bd 72 92 c0 82 d3 9e c0
       -5.187638 -1.6510029 -4.576506 -4.963319
000030 a8 17 93 c0 c6 a7 a0 c0 37 8c a9 c0 92 ac a0 c0
       -4.5966377 -5.02048 -5.298366 -5.0210657
000040 2b 73 98 c0 34 dc 95 c0 6f 88 92 c0 08 05 a4 c0
       -4.7640586 -4.6831303 -4.5791545 -5.125614
000050 98 cf fd bf aa ec 8d c0 b8 96 25 c0 e0 66 a2 c0
       -1.9828978 -4.4351397 -2.5873241 -5.075058
000060 2a 47 d0 bf e4 d3 db bf c9 d2 e3 bf 6e 45 9d c0
       -1.6271718 -1.7174039 -1.7798702 -4.9147253
000070 b5 d7 a1 c0 e6 35 9a c0 61 35 a7 c0 77 d6 98 c0
       -5.0575814 -4.8190794 -5.225266 -4.77618
000080 9a 28 a3 c0 95 e6 a6 c0 8a 57 a5 c0 7f e1 ba bf
       -5.0987062 -5.215647 -5.166936 -1.4600066
000090 95 de 8a bf fc 86 8e c0 c1 cf a1 c0 48 9d 98 c0
       -1.0849177 -4.4539776 -5.0566106 -4.7691994
0000a0 93 6d a5 c0 36 db 94 c0 8b 36 a0 c0 6e 60 e9 bf
       -5.1696258 -4.651759 -5.006658 -1.8232553
0000b0 8b 4d a4 c0 ba 5e 82 c0 45 85 a3 c0 cb 7f a0 c0
       -5.1344657 -4.0740633 -5.1100183 -5.0155997
0000c0 b0 81 ea bf cb d2 a1 c0 6e 8e 9f c0 3f 3a 8c c0
       -1.8320827 -5.0569816 -4.9861364 -4.38211
0000d0 61 d2 a0 c0 44 83 a7 c0 e8 21 a5 c0 47 c6 a4 c0
       -5.025681 -5.2347736 -5.160389 -5.149204
0000e0 8c 04 9a c0 10 0f db bf 2b 35 a5 c0 2d e9 a7 c0
       -4.813055 -1.7113972 -5.16274 -5.247214
0000f0 6d 72 a0 c0 19 79 94 c0 56 77 a3 c0 d4 d1 8d c0
       -5.013968 -4.6397824 -5.1083174 -4.431864
000100 eb ac dc bf 80 04 a3 c0 b5 ff a6 c0 f8 e2 92 c0
       -1.724027 -5.0942993 -5.218714 -4.590206
000110 cb fa 9b c0 36 62 86 c0
       -4.8743644 -4.1994886

fc2.weight f4 [35, 70]
000000 eb cc 12 bf 67 10 2a bf 58 f8 2a c0 54 ce 4d bf
       -0.5734393 -0.6643128 -2.6714077 -0.80392957
000010 69 0d 2e bf ef 69 50 c0 48 36 48 c0 2f ca 83 c0
       -0.6798921 -3.2564657 -3.128313 -4.1184306
000020 6d 49 d4 be 3c 68 71 c0 f9 0d b5 bf f4 99 2c bf
       -0.4146227 -3.771987 -1.4144889 -0.67422414
000030 18 0b f0 bf c7 45 4a bf 98 16 1b bf c7 c2 01 bf
       -1.8753386 -0.7901272 -0.6058135 -0.5068783
000040 8c 31 88 bf b9 21 80 bf 11 9b 48 bf ae 9b b5 be
       -1.064012 -1.0010291 -0.7836161 -0.35470337
000050 6b a1 52 c0 34 45 01 c0 f8 2f 3a c0 fe 2a d0 be
       -3.2911022 -2.0198488 -2.9091778 -0.406578
000060 3b 37 66 c0 4f f0 53 c0 1a cd 64 c0 ea f2 1f bf
       -3.597121 -3.3115423 -3.5750184 -0.6248003
000070 ea 89 39 bf fb 74 7e bf b6 7b c3 be 48 7d 26 bf
       -0.72476065 -0.9939725 -0.3818032 -0.65034914
000080 1b 76 f0 be 7d d6 d6 be 59 12 b2 be 2f ab 25 c0
       -0.46965107 -0.41960517 -0.34779623 -2.5885732
000090 19 ed 94 c0 82 ca e9 bf a6 f3 37 bf 11 42 0b bf
       -4.6539426 -1.8264925 -0.71856153 -0.54397684
0000a0 28 99 dc be 7b df 69 bf fe cf 2c bf d5 f1 5b c0
       -0.430856 -0.9135663 -0.6750487 -3.4366353
0000b0 cb 78 9e be 51 52 1b c0 e5 91 a4 be 1a db 3e bf
       -0.30951533 -2.4268992 -0.3214256 -0.7455307
0000c0 ad e9 61 c0 3f 5d c2 be 4d 21 a7 be b1 ae 08 c0
       -3.5298874 -0.37961766 -0.32642594 -2.1356623
0000d0 2f ff 34 bf e8 34 9e be 89 37 9d be 3b db 36 bf
       -0.7070188 -0.3089974 -0.30706432 -0.7142827
0000e0 4e 95 0b bf 7b 37 52 c0 1f 53 00 bf 7e a9 ae be
       -0.54524696 -3.2846363 -0.5012683 -0.34113687
0000f0 50 6b 16 bf 23 e3 8b bf 96 9d 30 bf 60 84 fa bf
       -0.58757496 -1.0928692 -0.6899046 -1.9571648
000100 49 12 5f c0 64 12 d3 be 5a 81 dd be 33 5e e8 bf
       -3.485491 -0.41224968 -0.4326275 -1.8153747
000110 19 29 0b bf a6 3e 14 c0 70 7b 3f bf a8 33 6d bf
       -0.54359585 -2.3163238 -0.74797726 -0.92656946
000120 f3 64 4a c0 fa a4 7c bf 98 19 4c bf 2f 2f 93 c0
       -3.1624115 -0.98689234 -0.7972655 -4.5995097
000130 7e 80 7b c0 d0 eb 5f c0 fc 93 e6 be bd be a8 c0
       -3.9297175 -3.4987679 -0.45034778 -5.2732835
000140 04 92 a5 bf 5d 69 6e bf 27 55 e9 bf 8e 02 57 bf
       -1.2935185 -0.9312952 -1.8229111 -0.83988273
000150 a5 ab 1e bf 4c 00 ae be 45 9d 82 bf 78 82 83 bf
       -0.6198066 -0.33984601 -1.0204245 -1.0274191
000160 21 12 80 bf 87 f3 a1 be 8e d8 92 c0 d3 31 04 c0
       -1.0005533 -0.3163111 -4.588935 -2.065541
000170 b9 8f 69 c0 6d ec 8a be 4b b2 a2 c0 c9 63 92 c0
       -3.6493971 -0.27133504 -5.0842643 -4.574681
000180 36 cb 9b c0 96 3d 30 bf bc df 28 bf 72 eb 76 bf
       -4.868556 -0.6884397 -0.6596639 -0.9645301
000190 78 e8 e4 be 2f d0 57 bf 06 f6 23 bf c8 e5 c2 be
       -0.4470861 -0.8430204 -0.64047277 -0.38065934
0001a0 f5 3b 9d be 6b 99 19 c0 8c 8b 81 c0 f0 ba 0d c0
       -0.30709806 -2.399989 -4.0482845 -2.2145348
0001b0 3f 01 76 bf b8 c3 75 bf 0d c7 0b bf 56 dc 58 bf
       -0.9609565 -0.9600177 -0.546006 -0.84711206
0001c0 d1 a7 2a bf 1e ad 98 c0 7c 98 bb be 69 02 34 c0
       -0.6666232 -4.7711325 -0.36639774 -2.812647
0001d0 d4 49 cb be ba d7 62 bf 2a ae 9a c0 93 9d a8 be
       -0.39704764 -0.8861042 -4.8337603 -0.3293272
0001e0 65 ef 92 be aa 58 0d c0 2c da 70 bf 2f 49 e0 be
       -0.2869827 -2.2085366 -0.94082904 -0.43805835
0001f0 32 6d 94 be 0e 23 6f bf 78 a5 89 bf db f8 87 c0
       -0.2898956 -0.93412864 -1.0753622 -4.249128
000200 b0 ff da be f2 95 a1 be 6f ef 1e bf 09 8a 8c bf
       -0.427732 -0.31559712 -0.62084097 -1.0979625
000210 12 3b 38 bf cb 1e 01 c0 ff 24 9c c0 fa 09 13 bf
       -0.71965134 -2.0175045 -4.879516 -0.574371
000220 c1 ea e4 be e6 ce ec bf 44 72 88 bf 9c 8f 2f c0
       -0.44710353 -1.850064 -1.0659871 -2.7431402
000230 ad a9 2e bf aa 63 46 bf 28 dc 23 c0 21 a9 3f bf
       -0.68227655 -0.77495825 -2.5603123 -0.74867445
000240 4e 7c 42 bf ee 66 4b c0 3d 7e 31 c0 81 87 87 c0
       -0.75970924 -3.1781573 -2.77333 -4.235291
000250 8e 62 06 bf 68 47 51 c0 ac 7f 9d bf 89 7c 36 bf
       -0.5249413 -3.2699833 -1.2304587 -0.71283776
000260 3a 36 db bf a6 45 3a bf 6b 27 1c bf 5f 08 f9 be
       -1.7125924 -0.72762525 -0.6099765 -0.486392
000270 9a 12 64 bf d9 2f 83 bf d9 0a 87 bf b4 67 87 be
       -0.89090884 -1.0248977 -1.0550185 -0.26446307
000280 12 56 45 c0 d2 b0 ea bf 3b 84 31 c0 ad 8d aa be
       -3.0833783 -1.8335211 -2.7736957 -0.33311215
000290 b5 87 52 c0 cf 23 40 c0 2e a0 56 c0 7d 6b 25 bf
       -3.289533 -3.0021856 -3.3535266 -0.6461714
0002a0 ef 35 49 bf 7d 3e 94 bf a8 21 dd be 7b 8e 46 bf
       -0.7859792 -1.158157 -0.4318974 -0.7756116
0002b0 62 1d 12 bf 72 7b 01 bf 46 16 8e be aa a1 2e c0
       -0.57076085 -0.5057899 -0.27751368 -2.7286172
0002c0 6a 0c 93 c0 ce 5a ef bf 0c 61 44 bf bb 63 1d bf
       -4.5952654 -1.8699586 -0.7671058 -0.614803
0002d0 ef be ce be da d2 89 bf 27 49 0d bf 06 d6 43 c0
       -0.40380046 -1.0767472 -0.55189747 -3.059938
0002e0 bf 30 c7 be 82 ce 1a c0 28 27 a8 be a4 72 17 bf
       -0.38904378 -2.4188542 -0.32842374 -0.591593
0002f0 dd 66 4c c0 82 9b d2 be b9 18 98 be 84 90 f5 bf
       -3.1937783 -0.41134268 -0.29706362 -1.9184728
000300 81 21 18 bf cd d4 ff be cb 7f a5 be 60 42 19 bf
       -0.5942612 -0.49967042 -0.3232406 -0.59866905
000310 68 72 12 bf a0 d1 3c c0 6d dd ca be fa 0e b2 be
       -0.5720582 -2.9502945 -0.3962206 -0.3477705
000320 0f bd 34 bf 4e 0b a1 bf b2 62 2d bf 0c 86 e8 bf
       -0.7060098 -1.2581575 -0.6772872 -1.8165908
000330 e0 f0 4a c0 df 02 d4 be db a6 84 be 6c 4c e3 bf
       -3.1709518 -0.4140844 -0.2590855 -1.7757697
000340 5e 56 48 bf 06 15 16 c0 5a 13 17 bf 4f bc 21 bf
       -0.78256786 -2.3450332 -0.59013903 -0.6317796
000350 8e c9 ae bf b0 a0 1f bf 99 b4 fc be 1c 75 87 bf
       -1.365526 -0.62354565 -0.49356535 -1.0582614
000360 70 60 c6 bf 6b 6c f0 c0 0d a0 ba be ce d4 3d be
       -1.549818 -7.5132346 -0.36450234 -0.1853821
000370 ee c2 4c bf a0 c5 0d bf 02 92 8e bf 8a f7 26 bf
       -0.7998494 -0.55379677 -1.1138308 -0.65221465
000380 56 67 04 bf a3 77 93 be 35 83 19 bf 74 fd 2c bf
       -0.5172018 -0.28802213 -0.5996583 -0.6757424
000390 2d c6 32 bf 2b 4a 79 be 83 07 67 bf 6f fd a7 bf
       -0.6983364 -0.24344699 -0.90245837 -1.3124217
0003a0 84 96 ba bf 59 3f 81 be bd 0d 14 bf 05 02 7a bf
       -1.4577184 -0.25243643 -0.5783346 -0.9765933
0003b0 1f 06 cb be fb 36 0f bf 86 a4 18 bf 07 38 29 bf
       -0.39653108 -0.5594327 -0.5962604 -0.66101116
0003c0 b3 21 6e be b5 28 1a bf 7b f0 00 bf 90 be a4 be
       -0.23255043 -0.60218364 -0.50366944 -0.32176638
0003d0 bf bf 79 be df 47 8e c0 c2 4a 02 c1 99 0a 9a bf
       -0.24389552 -4.4462733 -8.143251 -1.2034484
0003e0 ac 51 13 bf 05 37 10 bf 30 61 9a be 91 4e 32 bf
       -0.57546496 -0.56333953 -0.30152273 -0.6965113
0003f0 cd 64 12 bf 67 44 4e bf f9 cf 68 be 94 fc c4 bf
       -0.5718506 -0.80573124 -0.22735585 -1.5389581

fc2.bias f4 [35]
000000 2f c3 04 c1 1b 8c 07 c1 48 bd 03 c1 d2 d7 a1 c0
       -8.297652 -8.471705 -8.233711 -5.0575953
000010 5f 49 07 c1 2c 18 80 c0 81 1e a5 c0 ef db 04 c1
       -8.455413 -4.0029507 -5.1599736 -8.303695
000020 1c d9 94 c0 81 b8 89 bf cf a2 06 c1 57 8e 2b c0
       -4.6515026 -1.0759431 -8.414748 -2.6805627
000030 c9 aa 08 c1 73 3e 07 c1 82 47 06 c1 5e ab 36 c0
       -8.541696 -8.452746 -8.392458 -2.8542094
000040 9a 03 1d c0 a7 41 85 c0 0b 9f 75 c0 e0 19 3e c0
       -2.4533448 -4.164264 -3.8378322 -2.9703293
000050 ec 80 4f c0 8d 23 09 c1 6d 62 09 c1 91 52 8b c0
       -3.2422438 -8.571179 -8.58653 -4.353829
000060 b9 d7 01 c1 a1 15 99 c0 a4 29 09 c1 0d 47 08 c1
       -8.115167 -4.7838902 -8.572666 -8.517346
000070 d8 fd cf c0 02 47 e8 c0 93 d3 06 c1 cd a1 7e c0
       -6.499737 -7.258668 -8.426654 -3.9786255
000080 11 9b 86 c0 6e bf 04 c1 1c 62 06 c1
       -4.206429 -8.296736 -8.3989525

fc3.weight f4 [17, 35]
000000 c3 53 c6 c0 f3 3d bd c0 8f de b1 c0 e9 8a 89 c0
       -6.197725 -5.913812 -5.558418 -4.298207
000010 38 51 ce c0 67 15 bb c0 0c 20 34 c0 7f 80 c2 c0
       -6.4474144 -5.8463626 -2.814456 -6.0781856
000020 0c 0b 96 c0 28 79 08 c1 34 b7 bd c0 d9 71 e5 c0
       -4.6888485 -8.529579 -5.9286137 -7.1701474
000030 f1 ae b8 c0 ae 92 d2 c0 96 f6 d7 c0 f2 cc e2 c0
       -5.771355 -6.580405 -6.748851 -7.0875177
000040 db 65 eb c0 e5 b4 ac c0 29 48 d7 c0 86 c1 db c0
       -7.3561835 -5.397082 -6.7275586 -6.8673735
000050 97 cc e2 c0 ec 98 aa c0 97 15 bc c0 7c aa 9a c0
       -7.0874743 -5.331167 -5.8776355 -4.833311
000060 58 62 c0 c0 da 1a 63 c0 6b 7a ba c0 00 36 9a c0
       -6.012005 -3.548514 -5.8274436 -4.819092
000070 8b 75 d2 c0 18 bc eb c0 33 85 c4 c0 6d bd dd c0
       -6.5768485 -7.3667107 -6.1412597 -6.9293733
000080 ae 32 9e c0 20 5c b9 c0 16 d3 d8 c0 ef 9b c2 c0
       -4.9436865 -5.7924957 -6.7757673 -6.081535
000090 76 8a be c0 e1 6e b1 c0 84 03 86 c0 cd 6a c8 c0
       -5.954402 -5.544785 -4.187929 -6.263037
0000a0 11 3a ad c0 a3 09 2e c0 39 a3 bd c0 92 fa 90 c0
       -5.413338 -2.7193382 -5.9261746 -4.530587
0000b0 f5 a9 04 c1 51 c8 ba c0 89 e8 e0 c0 97 21 b4 c0
       -8.291493 -5.8369527 -7.0283856 -5.6291003
0000c0 01 5d cc c0 16 d5 dd c0 a0 30 df c0 5f e7 e2 c0
       -6.386353 -6.9322615 -6.9746857 -7.0907435
0000d0 6d c7 a5 c0 1c ef d0 c0 ce 12 d4 c0 98 a5 d3 c0
       -5.180594 -6.529188 -6.6272955 -6.613964
0000e0 bd d5 aa c0 af 14 b4 c0 42 11 9b c0 0f 07 b9 c0
       -5.338591 -5.627525 -4.8458567 -5.7821116
0000f0 fb f0 53 c0 8e 01 b1 c0 7e c6 90 c0 86 11 d3 c0
       -3.3115833 -5.53144 -4.52423 -6.595889
000100 10 da e6 c0 83 b8 c2 c0 7d cf d5 c0 95 57 93 c0
       -7.214119 -6.0850234 -6.681578 -4.604441
000110 2b e6 b2 c0 4d 87 d6 c0 7d b3 62 c0 5d f5 65 c0
       -5.5905967 -6.704016 -3.542205 -3.5931008
000120 cc 90 47 c0 be 62 27 c0 d4 db 55 c0 26 8f 9a c0
       -3.1182127 -2.6154017 -3.3415422 -4.829974
000130 ac 67 a3 bf 72 61 5b c0 74 bc 1b c0 17 0a 9c c0
       -1.2766013 -3.4278226 -2.4333773 -4.8762317
000140 f8 5f 5c c0 5d 0a d0 c0 03 0f 4e c0 98 6c 69 c0
       -3.4433575 -6.501265 -3.2196662 -3.647253
000150 37 21 75 c0 37 24 d3 c0 d0 e2 ce c0 cd 50 8e c0
       -3.8301523 -6.5981708 -6.465187 -4.4473634
000160 be d0 26 c0 c2 0f c7 c0 e7 60 b6 c0 d0 fc 3c c0
       -2.6064906 -6.2206736 -5.699329 -2.9529305
000170 9f 47 5d c0 79 65 75 c0 12 a7 49 c0 bb ed d9 bf
       -3.4574964 -3.8343184 -3.1508222 -1.7025675
000180 fb f3 55 c0 9f 72 2f c0 b5 46 77 c0 7e 06 6a c0
       -3.3430164 -2.741371 -3.8636906 -3.6566463
000190 56 4c 67 c0 95 e3 77 c0 bf 90 8b c0 b4 07 3f c0
       -3.6140342 -3.8732655 -4.361419 -2.9848452
0001a0 f9 c3 69 c0 06 93 a2 c0 c1 f1 9e c0 2a 99 93 c0
       -3.6525862 -5.080447 -4.967011 -4.612447
0001b0 3f d4 5a c0 2a 84 b4 c0 e5 38 a1 c0 45 c5 05 c0
       -3.4192045 -5.6411333 -5.038195 -2.0901654
0001c0 c9 64 a1 c0 73 41 5e c0 48 b2 dd c0 98 c1 9e c0
       -5.043553 -3.4727447 -6.928013 -4.961132
0001d0 b0 06 d2 c0 b3 21 91 c0 4e 7a a7 c0 3d 00 bf c0
       -6.5633163 -4.5353637 -5.23368 -5.968779
0001e0 6c 9d c0 c0 76 cc d3 c0 f5 27 89 c0 b7 3e a8 c0
       -6.0192165 -6.6187086 -4.2861276 -5.2576556
0001f0 31 d2 af c0 10 6b b8 c0 54 fb 88 c0 34 36 94 c0
       -5.494408 -5.763069 -4.2806797 -4.6316166
000200 3e c7 81 c0 2c c4 98 c0 db 4a 22 c0 4c 11 95 c0
       -4.0555716 -4.773947 -2.5358188 -4.6583614
000210 79 3c 83 c0 74 c7 b2 c0 4d 51 c3 c0 ac 0a a2 c0
       -4.101132 -5.5868473 -6.1036744 -5.0638027
000220 44 d3 b9 c0 46 80 86 c0 a4 37 98 c0 ad 71 bc c0
       -5.8070393 -4.2031584 -4.756792 -5.8888764
000230 5a ae 52 bf d0 d7 2c be f3 e0 7d bf c2 fa 48 c0
       -0.8229729 -0.16879201 -0.9917137 -3.140305
000240 84 fd f8 be 1f d9 d8 bf 25 1d 45 c0 83 dd 61 bf
       -0.48630917 -1.694126 -3.0799038 -0.88228625
000250 7b 00 55 c0 00 0c 86 40 07 b8 ae bd 32 90 16 c0
       -3.3281543 4.188965 -0.08531194 -2.352551
000260 b8 cc 14 bf 8e aa 90 be 91 b6 14 bf 2b f0 3a c0
       -0.58124876 -0.28255123 -0.58091074 -2.9209087
000270 4c 13 12 c0 b1 db 08 c0 58 3c 54 c0 df dc 1c c0
       -2.2824278 -2.138409 -3.316183 -2.450981
000280 e6 4f e5 bf c9 ba 1b bf e8 25 bd be 03 f1 39 c0
       -1.7915008 -0.60831887 -0.36942983 -2.9053352
000290 f5 8d 8d bf f8 cb 50 c0 1e 82 86 be 0e dc 51 bf
       -1.1058947 -3.2624493 -0.26271147 -0.819764
0002a0 0a ab a3 3f ef df d6 bf 47 47 27 bf 06 52 38 40
       1.2786572 -1.6787089 -0.65343136 2.8800063
0002b0 dc 1b fb bf 56 aa 72 bf 8c f3 12 bf 79 34 b4 c0
       -1.9617877 -0.9479116 -0.57402873 -5.6314054
0002c0 92 49 b3 c0 f1 68 a0 c0 64 7e 65 c0 c8 f8 bf c0
       -5.6027308 -5.01281 -3.5858393 -5.999119
0002d0 54 9d 9e c0 fa 72 13 c0 5c 58 b4 c0 f1 b2 85 c0
       -4.956705 -2.3038926 -5.635786 -4.1780934
0002e0 74 3a f0 c0 17 06 ae c0 cf 69 d4 c0 58 6b a0 c0
       -7.5071354 -5.4382434 -6.637916 -5.0131035
0002f0 57 69 bb c0 e5 69 cc c0 a7 82 d1 c0 3c 58 d7 c0
       -5.856609 -6.3879266 -6.547199 -6.729521
000300 55 55 95 c0 20 af bd c0 0d 69 c8 c0 2f 62 bd c0
       -4.6666665 -5.9276276 -6.2628236 -5.9182353
000310 ea fd 96 c0 40 6b a7 c0 86 bf 8c c0 b9 5b af c0
       -4.7184954 -5.231842 -4.3983793 -5.4799466
000320 b9 08 32 c0 d0 2a a9 c0 fc 3c 8a c0 90 32 bf c0
       -2.7817824 -5.286476 -4.3199444 -5.974922
000330 18 bf d4 c0 d8 2d ad c0 77 65 c2 c0 dc 7d 8b c0
       -6.648327 -5.411846 -6.074886 -4.3591137
000340 0a ee 9f c0 f1 e0 c7 c0 41 fe a3 c0 0b 7e 9b c0
       -4.9978075 -6.2462087 -5.124787 -4.859136
000350 37 c8 8d c0 f0 18 55 c0 d0 5f a8 c0 8c fb 97 c0
       -4.4306903 -3.329647 -5.261696 -4.7494564
000360 b2 19 f7 bf 94 1b a0 c0 96 0c 5a c0 da fb de c0
       -1.9304717 -5.0033665 -3.4070182 -6.9682436
000370 01 61 9b c0 97 23 cb c0 6e a7 92 c0 de f9 ad c0
       -4.8555913 -6.3480945 -4.582938 -5.4367514
000380 7d e9 ba c0 60 4b c1 c0 bf b5 c5 c0 35 53 8e c0
       -5.841002 -6.040451 -6.178436 -4.447657
000390 09 5d a0 c0 17 10 b2 c0 7b 10 b2 c0 44 04 90 c0
       -5.011357 -5.564464 -5.564512 -4.5005207
0003a0 08 c1 90 c0 3a 37 7b c0 7e 55 93 c0 35 d6 23 c0
       -4.5235634 -3.9252458 -4.604186 -2.5599492
0003b0 b9 65 95 c0 9d 79 71 c0 d2 e4 af c0 ab 7d b8 c0
       -4.6686673 -3.7730477 -5.496682 -5.7653403
0003c0 fa 5b a2 c0 fe 47 b4 c0 74 6f 80 c0 6f 40 9a c0
       -5.0737276 -5.633788 -4.013605 -4.8203654
0003d0 e9 17 b6 c0 1f 87 a3 c0 2f b7 98 c0 60 35 94 c0
       -5.6904187 -5.1102443 -4.7723613 -4.6315155
0003e0 48 7f 4c c0 74 0e ad c0 c2 af 95 c0 f8 af fe bf
       -3.1952686 -5.4080143 -4.677705 -1.9897451
0003f0 05 25 9f c0 36 0d 70 c0 0a 0f dd c0 5a 26 a0 c0
       -4.973269 -3.7508063 -6.908086 -5.0046816

fc3.bias f4 [17]
000000 e9 11 e5 c0 1a f1 f5 c0 20 7f 0a c1 93 60 0b c1
       -7.1584363 -7.6856813 -8.656036 -8.711078
000010 8b ca 53 c0 1e ac 05 c1 35 04 0f c1 07 10 0f c1
       -3.3092372 -8.354521 -8.938527 -8.941413
000020 aa 09 0f c1 57 41 0d c1 a5 61 07 c1 e0 6a 0b c1
       -8.939859 -8.828452 -8.461339 -8.713593
000030 f7 63 0a c1 d5 b2 1a c1 e3 ff 07 c1 26 a3 0d c1
       -8.6494055 -9.66866 -8.499972 -8.852331
000040 fc f3 ff c0
       -7.9985332

output.weight f4 [1, 17]
000000 21 19 8f 40 fe f7 89 40 c1 af 7d 40 50 8f 6b 40
       4.4718175 4.3115225 3.9638522 3.680622
000010 97 8e 06 40 92 37 7d 40 e1 1f 68 40 a1 bc 6b 40
       2.102453 3.9565167 3.6269457 3.683388
000020 73 1a 6f 40 6b 13 74 40 25 70 83 40 e5 b0 7a 40
       3.7359893 3.8136852 4.1074395 3.9170468
000030 57 cf 7d 40 aa 8f 4a 40 0f 69 82 40 c8 35 74 40
       3.96578 3.1650186 4.0753245 3.8157825
000040 e7 39 82 40
       4.069568
