training_nn/model/order3_dynamiclr/Theta_net_ep3.pth (torch, 25366 bytes, 7 tensors)

fc1.weight f4 [70, 35]
00000000: 9e8a a3c0 f851 1a40 0918 50bd 013f 95bd
00000010: 6f90 cdbf c4b7 3dbd 2a85 3e3d c654 2fbe
00000020: 3d5d 09be 1025 813d cb8b 6641 a013 54be
00000030: 2b19 163e 7778 a73d d1b6 c33d 7061 b03d
00000040: 2612 68bd 603c a33b a67b 22bd f98c 823d
00000050: 71b1 8c3f c155 edbd 7a88 a6bd 0670 093e
00000060: 5a66 91bd 8568 a93d a0bf b3bf 7374 143e
00000070: e09f eebd 87c6 f9bd 8d5e 14bf a591 8abd
00000080: 2e3c 28bd 0634 203e 2cc1 883f 2e96 a2c0
00000090: 0f63 b940 1e65 a8be ca34 e8bd d62d 7bc0
000000a0: c3c2 f03d 07e4 3a3c 5701 033d 4c3c 943b
000000b0: 72f4 8b3c 0931 8f41 c609 65bf bcca 9fbd
000000c0: ed06 223f 01e2 973c c52b 9b3d f265 e33e
000000d0: 5bea aabd 8b1f d1bd 3a39 21bb 4c87 bd3f
000000e0: f2df 5bbe 87f9 1b3d ab64 0d3e 201c ebbd
000000f0: e8a0 b43b de5d 16c0 9650 02bd e983 18be
00000100: 0598 cebd 47ae 36bf e897 303e 75da b4be
00000110: 7a81 453f e9a8 1940 d803 66c0 a2f7 5ac1
00000120: af94 41bd 1234 3f3e ef8a 6a41 a33e 2740
00000130: 587c efbd 8ecc 9ac0 fc18 0bbe f826 c33d
00000140: 69f0 5342 da42 7cc1 3522 4b3e 346f 6041
00000150: 9307 303e 4d66 cdbd 69a3 bc40 bfef e03d
00000160: 6e92 b1bd d181 ee3d 4e3c 5c3e d6d2 febd
00000170: 2af0 193e 0f03 febf 7134 463d 0d4a e23e
00000180: 98d2 30c1 b654 7c3e 47f3 8ebe cc12 c7bd
00000190: 3ab3 3a40 8936 b63e e565 0840 9c01 d140
000001a0: 434d 0141 4a8b 9bc0 4778 8640 0dfe a2be
000001b0: c9fa 1fbd e6d9 e7bf e2c8 1b3f 4eb9 e7bd
000001c0: f4de bbbe 13e9 e33d 2362 15be e7dc ba41
000001d0: 8018 48c0 8d48 f93d 892a 0840 0eb7 babc
000001e0: 2bed ff3d 8827 d43f 2646 e93d f2f2 473d
000001f0: a4f4 6bbd 0761 a63f 23b2 a0bd e927 cebd
00000200: 6c0b 9d3d 4ca4 01be 4b79 543e d6df 8fc0
00000210: 0c1d ae3d 1321 d2bc e027 063e acc3 af3e
00000220: 7245 423e 767d acbe 0b3c c03f 6408 7540
00000230: c0b2 a5c0 f861 4c3f e34a 14be 430e 1e3c
00000240: cd95 c13e b25d ed3c 679b 58bd 45c2 13be
00000250: 32a3 27bd eb3d 593d 8a16 993f c712 573e
00000260: 843d 11be 9dff 74bd a936 c3bd db74 f1bd
00000270: 3389 a1be e3c9 99bd cf37 a2ba 4719 23be
00000280: 73c6 bb3f 4efb cb3d 789b d33d 2168 33bd
00000290: d243 36bd a942 f93d 2d15 9e3e 0232 88bd
000002a0: 239b bb3d d857 cebd a13d 2ec0 0000 a53d
000002b0: da3b 933e e5f0 17be c13e 933e 6afc ebbf
000002c0: 8a09 91c1 6e2e f13f f236 7d3e 93be 9841
000002d0: 5dff 4c40 6533 a83d b62d fabf 35da 843d
000002e0: 66b3 163d 742d 8542 84d5 d8c1 8511 053e
000002f0: 45c5 c641 f93b 093e dbca 3bbe e5db 1241
00000300: 582f fa3b dec5 253e a7e2 ec3d c726 db3d
00000310: d4a0 cec0 c014 02be 59f0 e4c0 bd7b cebc
00000320: c21b 543f a425 69c1 9d46 7e3e 3a0b 63bf
00000330: c210 ffbd e039 6940 9de5 7040 9b12 3c41
00000340: 5c0f 2341 f2d3 0a41 8dae 25c0 df98 90c1
00000350: 549c 4e3f d6ed df3d f367 8e41 4ac7 4840
00000360: 899c 1dbe d9f4 89c0 e6d8 66bd a60a b0bc
00000370: caa2 7942 1c82 a1c1 f584 423e c199 9341
00000380: aca9 e13d a5ec 57bd e837 e240 cfb7 6dbe
00000390: 5829 27bd 903c 05bd 8bd2 bc3e 4ccf 23c0
000003a0: 613f 1a3e e9fa 90c0 807a af3d e920 323f
000003b0: 743b 48c1 63eb b53e 4375 07bf 4d74 63be
000003c0: e7bc 4140 dd6d b53f 816b bf40 8d76 0341
000003d0: efd2 0c41 699a 98bf 2b98 9cc1 9eca 7241
000003e0: 1280 183c c3e3 a441 e809 80c1 72bb c33e
000003f0: d701 02c1 c1a3 24be 591c b83e dd88 5ec2
-5.110671 2.411253 -0.05080417 -0.07287408 -1.6059703 -0.04631783 0.046513714 -0.17122182
-0.13414474 0.06305897 14.409129 -0.20710611 0.14658038 0.08177274 0.09556354 0.08612335
-0.056657933 0.0049815625 -0.0396687 0.06374545 1.0991651 -0.11588622 -0.081314996 0.1342164
-0.070996 0.08271889 -1.4042854 0.14497547 -0.116515875 -0.12196069 -0.57956773 -0.06766061
-0.041073017 0.15644845 1.0683951 -5.0808325 5.793342 -0.32889646 -0.11338194 -3.9246726
0.11755898 0.011406905 0.0319837 0.0045237895 0.017084334 17.898943 -0.8946804 -0.078023404
0.6329182 0.018540384 0.07576708 0.44413716 -0.08345481 -0.102110945 -0.002460076 1.4806914
-0.21472147 0.038079765 0.13807933 -0.11479974 0.0055123456 -2.3494792 -0.031815134 -0.1489407
-0.10087589 -0.71359676 0.17245448 -0.3532292 0.7715069 2.4009345 -3.5939846 -13.685457
-0.047260936 0.18672207 14.658919 2.613198 -0.116936386 -4.83747 -0.1358375 0.09528917
52.984776 -15.766321 0.19837268 14.027149 0.1719039 -0.10029278 5.8949475 0.10983228
-0.08670507 0.11645854 0.2150738 -0.124425575 0.15033022 -1.9844683 0.048389856 0.4419712
-11.0514145 0.2464169 -0.2791998 -0.09720382 2.9171891 0.35588482 2.1312191 6.5314465
8.081363 -4.860753 4.2021823 -0.3183445 -0.039057527 -1.8113372 0.608534 -0.11314641
-0.36693537 0.1112844 -0.14588217 23.357862 -3.1264954 0.12172041 2.1275961 -0.022792365
0.12496408 1.6574564 0.11390333 0.048815675 -0.057606354 1.299836 -0.07846477 -0.10066206
0.07668194 -0.1266033 0.20749395 -4.4960737 0.08501634 -0.025650537 0.13101149 0.34328973
0.18971804 -0.3368947 1.5018324 3.8286371 -5.17807 0.7983699 -0.14481692 0.009646955
0.378096 0.028975341 -0.05288258 -0.14429577 -0.04092712 0.053037565 1.1960003 0.21003257
-0.14183623 -0.059814084 -0.0953191 -0.117898665 -0.31549987 -0.0750921 -0.0012376251 -0.15927611
1.4669937 0.09960042 0.10332388 -0.043800477 -0.044498272 0.121709175 0.3087553 -0.06650163
0.09160449 -0.100753486 -2.7225115 0.080566406 0.287566 -0.14837988 0.28758815 -1.8436406
-18.129658 1.8842294 0.24727991 19.093054 3.2030861 0.08212928 -1.95452 0.06486932
0.03679218 66.588776 -27.104256 0.12994964 24.846323 0.13401784 -0.18339102 9.178685
0.0076350383 0.16188762 0.11566668 0.107007556 -6.4571323 -0.12703228 -7.1543393 -0.025205487
0.82854855 -14.57169 0.24831624 -0.88689005 -0.12454368 3.6441574 3.7640145 11.754542
10.19125 8.676744 -2.5887787 -18.074644 0.8070729 0.109340355 17.800756 3.1371636
-0.15391745 -4.3111386 -0.056359194 -0.021489453 62.408974 -20.18853 0.18996032 18.450075
0.110186905 -0.052715916 7.0693245 -0.23214649 -0.040810913 -0.03252846 0.36879382 -2.5595274
0.1506324 -4.5306287 0.08568287 0.69581467 -12.514515 0.35531148 -0.529133 -0.22212334
3.0271547 1.4174153 5.981873 8.216443 8.801497 -1.1922122 -19.5743 15.174467
0.009307878 20.611212 -16.004837 0.38228947 -8.125449 -0.16078092 0.35959128 -55.633656

fc1.bias f4 [70]
00000000: bf0b 9ec0 8969 98c0 6dad 6ac0 2f26 97c0
00000010: 6ee7 a0c0 38a2 fbbf 4c5e 1bc0 84ef 84bf
00000020: fffc a5c0 6c2e d3bf d762 92c0 f42d 9fc0
00000030: c4a5 92c0 fca1 a0c0 d886 a9c0 9dae a0c0
00000040: 21c0 98c0 1908 96c0 2ae0 92c0 feff a3c0
00000050: de7b f9bf 825a 8dc0 5067 22c0 1364 a2c0
00000060: d203 d0bf 7464 d9bf 8b77 e1bf 7c72 9dc0
00000070: a210 a2c0 6667 9ac0 e131 a7c0 6391 99c0
00000080: 2d34 a3c0 25ea a6c0 b652 a5c0 cd6a c4bf
00000090: 3c0a 87bf 87e9 8dc0 dccd a1c0 0989 99c0
000000a0: ce6c a5c0 bc00 95c0 fd62 a0c0 5f0b e7bf
000000b0: d048 a4c0 b2b8 80c0 097e a3c0 2ec6 a0c0
000000c0: ab55 e7bf 19cc a1c0 d18b 9fc0 b1a9 8bc0
000000d0: 9a01 a1c0 617e a7c0 f51a a5c0 f2ca a4c0
000000e0: 1801 9bc0 4989 d9bf a333 a5c0 4be5 a7c0
000000f0: 4972 a0c0 d58e 94c0 6075 a3c0 b94d 8dc0
00000100: 715d dbbf d00d a3c0 a0f9 a6c0 038b 92c0
00000110: 5a7e 9cc0 d74a 85c0
-4.938934 -4.7628827 -3.666835 -4.723411 -5.0282507 -1.965888 -2.4276304 -1.0385594
-5.1871333 -1.6498542 -4.5745654 -4.9743595 -4.582735 -5.0197735 -5.2977104 -5.021315
-4.773453 -4.6884885 -4.589864 -5.124999 -1.9490926 -4.4172983 -2.5375557 -5.074716
-1.6251166 -1.6983781 -1.7614607 -4.920225 -5.0645304 -4.825122 -5.2248387 -4.7989974
-5.100119 -5.216082 -5.1663465 -1.5345093 -1.0549998 -4.4347568 -5.0563793 -4.797978
-5.169532 -4.6563396 -5.0120835 -1.8050345 -5.1338882 -4.022546 -5.109135 -5.024192
-1.8073019 -5.0561643 -4.9858174 -4.3644643 -5.0314455 -5.234177 -5.1595407 -5.1497736
-4.8438835 -1.6995021 -5.1625533 -5.24674 -5.013951 -4.6424356 -5.108078 -4.4157376
-1.7137891 -5.095436 -5.217972 -4.579469 -4.890424 -4.1653857

fc2.weight f4 [35, 70]
00000000: ebcc 12bf 6910 2abf 0bf8 2ac0 3ace 4dbf
00000010: 690d 2ebf d263 50c0 1d37 48c0 2b87 84c0
00000020: 5749 d4be f266 71c0 f90d b5bf f599 2cbf
00000030: 180b f0bf c745 4abf 9816 1bbf c7c2 01bf
00000040: 8c31 88bf b921 80bf f99a 48bf 9c9b b5be
00000050: a5a0 52c0 3445 01c0 fc2f 3ac0 e52a d0be
00000060: 352c 66c0 66e6 53c0 1ece 64c0 eaf2 1fbf
00000070: ea89 39bf e674 7ebf a27b c3be 3f7d 26bf
00000080: d275 f0be 3ed6 d6be 4412 b2be bdce 27c0
00000090: bf76 95c0 7fca e9bf a6f3 37bf 1442 0bbf
000000a0: 0e99 dcbe 67df 69bf fecf 2cbf 83ec 5bc0
000000b0: ac78 9ebe 4152 1bc0 ce91 a4be 1adb 3ebf
000000c0: dde9 61c0 2f5d c2be 3521 a7be b1ae 08c0
000000d0: 2fff 34bf d634 9ebe 7d37 9dbe 3bdb 36bf
000000e0: 4a95 0bbf f827 52c0 1f53 00bf 6da9 aebe
000000f0: 506b 16bf 23e3 8bbf 969d 30bf 5e84 fabf
00000100: 7e07 5fc0 1912 d3be 4381 ddbe 335e e8bf
00000110: 1a29 0bbf a63e 14c0 707b 3fbf a833 6dbf
00000120: f364 4ac0 faa4 7cbf 9819 4cbf db2f 93c0
00000130: a682 7bc0 8241 61c0 fc93 e6be 1cbc a8c0
00000140: 0492 a5bf 5d69 6ebf 2755 e9bf 8e02 57bf
00000150: a5ab 1ebf 4c00 aebe 459d 82bf 7882 83bf
00000160: 2112 80bf 87f3 a1be 60da 92c0 d331 04c0
00000170: 1a91 69c0 6dec 8abe c8ae a2c0 e362 92c0
00000180: 8cca 9bc0 963d 30bf bcdf 28bf 72eb 76bf
00000190: 78e8 e4be 2fd0 57bf 06f6 23bf c8e5 c2be
000001a0: f53b 9dbe 8f29 1bc0 350f 82c0 f0ba 0dc0
000001b0: 3f01 76bf b8c3 75bf 0dc7 0bbf 56dc 58bf
000001c0: d1a7 2abf e3ab 98c0 7c98 bbbe 6902 34c0
000001d0: d449 cbbe bad7 62bf 08af 9ac0 939d a8be
000001e0: 65ef 92be aa58 0dc0 2cda 70bf 2f49 e0be
000001f0: 326d 94be 0e23 6fbf 78a5 89bf 8bf6 87c0
00000200: b0ff dabe f295 a1be 6fef 1ebf 098a 8cbf
00000210: 123b 38bf cb1e 01c0 7a22 9cc0 fa09 13bf
00000220: c1ea e4be e6ce ecbf 4472 88bf 9c8f 2fc0
00000230: afa9 2ebf 8963 46bf 3cdc 23c0 b4a8 3fbf
00000240: 4e7c 42bf 335e 4bc0 6f7f 31c0 3436 88c0
00000250: 8e62 06bf 1c4c 51c0 ac7f 9dbf 847c 36bf
00000260: 3136 dbbf a645 3abf 6b27 1cbf d807 f9be
00000270: 2112 64bf d92f 83bf d90a 87bf 5d67 87be
00000280: 1d55 45c0 c9b0 eabf b784 31c0 418d aabe
00000290: 437e 52c0 3b1a 40c0 85a5 56c0 7b6b 25bf
000002a0: ee35 49bf 7d3e 94bf 4a21 ddbe 1b8e 46bf
000002b0: 621d 12bf 727b 01bf ea15 8ebe e0cb 30c0
000002c0: 7a84 93c0 c15a efbf 0c61 44bf 9163 1dbf
000002d0: 8bbe cebe dad2 89bf 2549 0dbf 66d2 43c0
000002e0: 3830 c7be 46ce 1ac0 ca26 a8be a372 17bf
000002f0: 2068 4cc0 2f9b d2be 5118 98be 7790 f5bf
00000300: 8321 18bf 71d4 ffbe 767f a5be 6042 19bf
00000310: 2b72 12bf 15c1 3cc0 fbdc cabe a00e b2be
00000320: 0fbd 34bf 4e0b a1bf b262 2dbf 0286 e8bf
00000330: d3e5 4ac0 5202 d4be 80a6 84be 674c e3bf
00000340: 5756 48bf 0315 16c0 ea40 17bf 1017 22bf
00000350: f4b7 aebf bd11 20bf 21c7 fcbe 7743 84bf
00000360: 15f9 c3bf 60dc ebc0 50c9 babe e7ac 88be
00000370: 0614 4dbf 510b 0ebf 7ab0 8ebf 0303 27bf
00000380: 0574 04bf 81af 93be 8fdf 19bf 0250 2dbf
00000390: 1024 33bf f48e 79be 5b50 6abf 001d a8bf
000003a0: b678 b8bf 9668 81be 9b0e 1bbf 978f 75bf
000003b0: 328a e6be 9e6d 0fbf 40e0 18bf bb8f 29bf
000003c0: ed65 6ebe 0098 1abf 9313 01bf e7fd a4be
000003d0: 5704 7abe 23bf 87c0 6ea4 00c1 4d29 9abf
000003e0: 1c5e 13bf a8a4 10bf a57c 9abe 029d 32bf
000003f0: f89c 12bf 8cd1 53bf 522c 69be c4fc c4bf
-0.5734393 -0.6643129 -2.6713893 -0.803928 -0.6798921 -3.2560925 -3.1283638 -4.1415
-0.41462204 -3.7719083 -1.4144889 -0.6742242 -1.8753386 -0.7901272 -0.6058135 -0.5068783
-1.064012 -1.0010291 -0.7836147 -0.35470283 -3.291055 -2.0198488 -2.9091787 -0.40657726
-3.5964482 -3.3109374 -3.5750804 -0.6248003 -0.72476065 -0.9939712 -0.38180262 -0.6503486
-0.4696489 -0.4196033 -0.3477956 -2.6219933 -4.6707454 -1.8264922 -0.71856153 -0.543977
-0.4308552 -0.9135651 -0.6750487 -3.4363105 -0.3095144 -2.4268954 -0.3214249 -0.7455307
-3.529899 -0.37961718 -0.32642522 -2.1356623 -0.7070188 -0.30899686 -0.30706397 -0.7142827
-0.5452467 -3.2836895 -0.5012683 -0.34113637 -0.58757496 -1.0928692 -0.6899046 -1.9571645
-3.4848323 -0.41224745 -0.4326268 -1.8153747 -0.5435959 -2.3163238 -0.74797726 -0.92656946
-3.1624115 -0.98689234 -0.7972655 -4.5995917 -3.9298491 -3.5196233 -0.45034778 -5.2729626
-1.2935185 -0.9312952 -1.8229111 -0.83988273 -0.6198066 -0.33984601 -1.0204245 -1.0274191
-1.0005533 -0.3163111 -4.589157 -2.065541 -3.6494813 -0.27133504 -5.0838356 -4.574571
-4.868475 -0.6884397 -0.6596639 -0.9645301 -0.4470861 -0.8430204 -0.64047277 -0.38065934
-0.30709806 -2.4244115 -4.0643563 -2.2145348 -0.9609565 -0.9600177 -0.546006 -0.84711206
-0.6666232 -4.7709823 -0.36639774 -2.812647 -0.39704764 -0.8861042 -4.833866 -0.3293272
-0.2869827 -2.2085366 -0.94082904 -0.43805835 -0.2898956 -0.93412864 -1.0753622 -4.2488456
-0.427732 -0.31559712 -0.62084097 -1.0979625 -0.71965134 -2.0175045 -4.8792086 -0.574371
-0.44710353 -1.850064 -1.0659871 -2.7431402 -0.68227667 -0.7749563 -2.560317 -0.74866796
-0.75970924 -3.1776245 -2.773403 -4.2566166 -0.5249413 -3.2702703 -1.2304587 -0.71283746
-1.7125913 -0.72762525 -0.6099765 -0.48638797 -0.8909016 -1.0248977 -1.0550185 -0.26446047
-3.08332 -1.83352 -2.7737253 -0.33310893 -3.2889564 -3.001601 -3.3538525 -0.6461713
-0.78597915 -1.158157 -0.4318946 -0.77560586 -0.57076085 -0.5057899 -0.27751094 -2.7624435
-4.6099215 -1.8699571 -0.7671058 -0.6148005 -0.40379748 -1.0767472 -0.55189735 -3.0597167
-0.38903975 -2.41884 -0.32842094 -0.59159297 -3.1938553 -0.4113402 -0.29706052 -1.9184712
-0.59426135 -0.49966767 -0.32323807 -0.59866905 -0.57205456 -2.9492848 -0.3962172 -0.34776783
-0.7060098 -1.2581575 -0.6772872 -1.8165896 -3.1702774 -0.4140802 -0.2590828 -1.7757691
-0.78256744 -2.3450325 -0.59083426 -0.6331644 -1.3649888 -0.62527066 -0.49370673 -1.0333089
-1.5310389 -7.3706512 -0.36481714 -0.26694414 -0.8010868 -0.5548602 -1.1147606 -0.6523897
-0.5173953 -0.28844836 -0.6010675 -0.6770021 -0.699769 -0.24370939 -0.9152886 -1.313385
-1.4411838 -0.25275105 -0.6056916 -0.95922226 -0.4502731 -0.5602664 -0.5971718 -0.6623494
-0.23281069 -0.60388184 -0.5042049 -0.32224962 -0.24415718 -4.242082 -8.040144 -1.2043854
-0.57565475 -0.56501245 -0.3017322 -0.69770825 -0.57270765 -0.8274162 -0.22770813 -1.5389638

fc2.bias f4 [35]
00000000: 8b7b 05c1 7075 08c1 ec58 04c1 8984 a3c0
00000010: 7f13 08c1 b116 7cc0 f052 a6c0 f394 05c1
00000020: d641 97c0 e327 8cbf 2c77 07c1 fec4 29c0
00000030: 4080 09c1 d11c 08c1 e81e 07c1 9237 36c0
00000040: 6666 1bc0 65a3 85c0 57ef 7cc0 b711 3cc0
00000050: 9eb8 4cc0 caed 09c1 5836 0ac1 5770 8dc0
00000060: 5687 02c1 a9ed 9ac0 b90f 0ac1 5807 09c1
00000070: 6fd1 cfc0 f413 e9c0 d591 07c1 8131 7cc0
00000080: ad7f 86c0 577c 05c1 183c 07c1
-8.342662 -8.528671 -8.271709 -5.1099286 -8.50476 -3.938885 -5.197624 -8.348865
-4.7267866 -1.0949672 -8.466595 -2.6526484 -8.593811 -8.507035 -8.445045 -2.8471417
-2.428125 -4.1761956 -3.9521081 -2.9385812 -3.1987681 -8.620554 -8.6382675 -4.4199634
-8.158041 -4.8415112 -8.628839 -8.564293 -6.4943156 -7.2836857 -8.473104 -3.9405215
-4.2030854 -8.342856 -8.452171

fc3.weight f4 [17, 35]
00000000: b33c c6c0 c821 bdc0 77c8 b1c0 4de8 89c0
00000010: 673b cec0 5cb5 bbc0 9e9e 34c0 b168 c2c0
00000020: 36b6 96c0 9de4 07c1 089d bdc0 f90c e8c0
00000030: 6b96 b8c0 9f7a d2c0 d6df d7c0 2e0b e7c0
00000040: 3db2 edc0 d131 adc0 20e2 d8c0 75d9 dec0
00000050: ece3 e2c0 b480 aac0 77fd bbc0 cd7e 9bc0
00000060: d449 c0c0 4918 64c0 0d5f bac0 c01c 9ac0
00000070: 0c2a d2c0 03a7 ebc0 346f c4c0 f9f6 dcc0
00000080: f46e 9ec0 6843 b9c0 56bc d8c0 d58f c2c0
00000090: 0079 bec0 5f63 b1c0 e944 86c0 725c c8c0
000000a0: ff72 adc0 4963 2ec0 6796 bdc0 ff6c 91c0
000000b0: 0134 04c1 7cb7 bac0 1a94 e2c0 2c12 b4c0
000000c0: 6f4d ccc0 e5c6 ddc0 351b e2c0 e259 e4c0
000000d0: 2b28 a6c0 d30d d2c0 d716 d6c0 d09a d3c0
000000e0: d6c6 aac0 1c05 b4c0 4aa5 9bc0 74fa b8c0
000000f0: dfa3 54c0 1bf0 b0c0 9ab8 90c0 aee8 d2c0
00000100: abcc e6c0 f0aa c2c0 7e5b d5c0 908b 93c0
00000110: ccd8 b2c0 d078 d6c0 0fab 62c0 13ea 65c0
00000120: 5688 47c0 41a9 27c0 ebd2 55c0 3776 9ac0
00000130: 6bd8 a3bf 5059 5bc0 4430 1cc0 41ce 9bc0
00000140: 5655 5cc0 f227 d0c0 8b04 4ec0 8762 69c0
00000150: 5f18 75c0 bdad d3c0 77f4 cec0 dc8f 8ec0
00000160: d6e4 27c0 f449 c7c0 5e5f b6c0 c3f2 3cc0
00000170: 313d 5dc0 c8fc 75c0 1c9f 49c0 63a9 dabf
00000180: 8ee8 55c0 3269 2fc0 452c 77c0 6f02 6ac0
00000190: ca43 67c0 e29c 77c0 82bd 8bc0 15ff 3ec0
000001a0: 0abb 69c0 ae8f a2c0 d8ed 9ec0 b495 93c0
000001b0: 3f0b 5bc0 c680 b4c0 cfd5 a0c0 d6ec 05c0
000001c0: 2361 a1c0 d8a1 5ec0 0a6b ddc0 fbbd 9ec0
000001d0: 1040 d1c0 dd1d 91c0 d276 a7c0 c1fc bec0
000001e0: d609 c0c0 7bfa d2c0 7c52 89c0 c7b3 a8c0
000001f0: 4925 afc0 7d20 b8c0 80f7 88c0 9d32 94c0
00000200: 75ff 81c0 ffbf 98c0 f992 22c0 650d 95c0
00000210: 7f38 83c0 c0ba b2c0 bd4e c3c0 d606 a2c0
00000220: 73b4 b9c0 b495 86c0 b833 98c0 1a6e bcc0
00000230: 2c23 4cbf 195f 06be 78ae 77bf a289 44c0
00000240: 098d eabe 6cc1 dfbf ffd4 41c0 7c12 5bbf
00000250: 1cd9 4ec0 2202 8640 197c 50bd 4105 19c0
00000260: 0e96 0cbf af83 80be 3178 0dbf c333 3cc0
00000270: 4a7c 14c0 7249 06c0 297a 4ac0 d147 1fc0
00000280: aee1 e8bf df99 13bf 712e acbe adef 33c0
00000290: 3b2d 8abf 1e0a 4cc0 534d 66be d1e1 49bf
000002a0: 5478 aa3f 0521 d4bf d454 20bf 5fa5 3a40
000002b0: 4e54 f8bf 8f6e 6bbf 168c 0bbf c52d b4c0
000002c0: 0e43 b3c0 eb61 a0c0 45cc 65c0 68f3 bfc0
000002d0: 4a6e 9ec0 15ad 13c0 7e51 b4c0 12f3 85c0
000002e0: 78bc efc0 d2ff adc0 4898 d4c0 a065 a0c0
000002f0: 6a63 bbc0 3464 ccc0 5b50 d2c0 ab6d d7c0
00000300: f893 95c0 4c54 bec0 04c1 c8c0 1634 bdc0
00000310: 5ef8 96c0 7365 a7c0 4514 8dc0 3554 afc0
00000320: 2d6f 32c0 4e24 a9c0 8236 8ac0 c720 bfc0
00000330: caba d4c0 2c28 adc0 d532 c2c0 3f9f 8bc0
00000340: 9ee6 9fc0 3cdb c7c0 c6fb a3c0 7e7b 9bc0
00000350: 3ec5 8dc0 b244 55c0 595d a8c0 fc95 97c0
00000360: 2561 f7bf 6f18 a0c0 135b 5ac0 cbc6 dec0
00000370: 4f5e 9bc0 511d cac0 d3a4 92c0 67f7 adc0
00000380: efe6 bac0 dc52 c0c0 91a8 c4c0 8376 8ec0
00000390: 05bc a0c0 9b1f b1c0 d1c6 b1c0 9901 90c0
000003a0: a6be 90c0 909c 7bc0 cb52 93c0 c012 24c0
000003b0: f162 95c0 2372 71c0 9ddb afc0 8a7b b8c0
000003c0: 7a59 a2c0 e332 b4c0 a183 80c0 f03c 9ac0
000003d0: 7015 b6c0 7384 a3c0 91b4 98c0 5c32 94c0
000003e0: e5ab 4cc0 120c adc0 3950 95c0 63f7 febf
000003f0: cc21 9fc0 e85c 70c0 6ad7 dcc0 8b23 a0c0
-6.1949096 -5.9103737 -5.555721 -4.309607 -6.4447513 -5.8658886 -2.8221812 -6.0752797
-4.7097425 -8.493314 -5.925419 -7.2515836 -5.7683616 -6.5774684 -6.7460737 -7.2201147
-7.4280076 -5.412331 -6.777603 -6.964045 -7.0903225 -5.328211 -5.8746905 -4.8592286
-6.009012 -3.5639822 -5.824103 -4.8160095 -6.5676327 -7.364137 -6.1385746 -6.905148
-4.951044 -5.7894783 -6.77299 -6.0800576 -5.9522705 -5.5433803 -4.195912 -6.261285
-5.4202876 -2.72481 -5.9246097 -4.544555 -8.262696 -5.834898 -7.080579 -5.6272182
-6.3844523 -6.930529 -7.065821 -7.135972 -5.1924033 -6.5641875 -6.690288 -6.612648
-5.336772 -5.6256237 -4.863927 -5.780573 -3.322502 -5.5293097 -4.5225344 -6.5909033
-7.212484 -6.0833664 -6.6674185 -4.6107864 -5.5889645 -6.7022476 -3.5416906 -3.5924118
-3.1176963 -2.6197054 -3.3409984 -4.8269305 -1.280042 -3.4273262 -2.440446 -4.8689275
-3.4427085 -6.504876 -3.2190273 -3.6466386 -3.8296125 -6.6149583 -6.467342 -4.455061
-2.623342 -6.2277775 -5.6991415 -2.952317 -3.4568598 -3.8435535 -3.1503363 -1.7082943
-3.342319 -2.7407956 -3.862077 -3.6563985 -3.6135125 -3.8689504 -4.3668833 -2.984319
-3.652041 -5.080039 -4.9665337 -4.6120243 -3.4225614 -5.6407194 -5.0260997 -2.0925803
-5.0431075 -3.4786282 -6.9193163 -4.960691 -6.53907 -4.5348954 -5.2332544 -5.9683537
-6.0012007 -6.593076 -4.291319 -5.2719455 -5.4733014 -5.753966 -4.2802124 -4.6311784
-4.0624337 -4.773437 -2.5402205 -4.657885 -4.1006465 -5.5852966 -6.1033616 -5.0633345
-5.8032775 -4.2057743 -4.7563133 -5.88844 -0.7974117 -0.13122214 -0.96750593 -3.0709004
-0.45810726 -1.7480903 -3.0286252 -0.8557508 -3.2320013 4.1877604 -0.0508996 -2.3909457
-0.54916465 -0.25100467 -0.5526152 -2.9406593 -2.320086 -2.0982327 -3.163706 -2.4887583
-1.8193872 -0.57656664 -0.33629182 -2.8115036 -1.0795053 -3.1881175 -0.22490434 -0.78860193
1.3317971 -1.6572577 -0.6262944 2.9163435 -1.9400728 -0.91965574 -0.5451063 -5.630587
-5.6019354 -5.011953 -3.5905926 -5.9984627 -4.950963 -2.307439 -5.634948 -4.1859217
-7.4917564 -5.437478 -6.643589 -5.0124054 -5.8558855 -6.387232 -6.572309 -6.732137
-4.6743126 -5.94779 -6.2735615 -5.912608 -4.7178183 -5.231134 -4.4087243 -5.479029
-2.7880356 -5.2856817 -4.319154 -5.972751 -6.6478014 -5.411154 -6.068705 -4.363189
-4.9969015 -6.245512 -5.124484 -4.8588247 -4.4303274 -3.3323178 -5.261395 -4.7370586
-1.9326521 -5.0029826 -3.4118087 -6.9617667 -4.8552623 -6.3160787 -4.58262 -5.4364505
-5.84069 -6.0101147 -6.145577 -4.451967 -5.0229516 -5.535108 -5.5555196 -4.500195
-4.5232725 -3.9314308 -4.6038566 -2.5636444 -4.668328 -3.7725914 -5.4955583 -5.7650805
-5.0734224 -5.6312118 -4.016068 -4.8199387 -5.690117 -5.109918 -4.772042 -4.6311474
-3.1979916 -5.4077234 -4.666043 -1.9919246 -4.9728756 -3.7556705 -6.9012957 -5.0043387

fc3.bias f4 [17]
00000000: b5ec e8c0 68ae f9c0 b11e 0cc1 7bf5 0cc1
00000010: eb12 53c0 f162 07c1 7c85 10c1 8d95 10c1
00000020: 0892 10c1 00d4 0ec1 1411 09c1 b904 0dc1
00000030: b002 0cc1 34c2 1bc1 9daa 09c1 b831 0fc1
00000040: 77c6 01c1
-7.278895 -7.80254 -8.757493 -8.809932 -3.2980297 -8.461656 -9.032589 -9.036511
-9.035652 -8.926758 -8.566669 -8.813653 -8.750656 -9.734913 -8.604154 -8.949638
-8.110953

output.weight f4 [1, 17]
00000000: f00a 8b40 750d 8640 7af1 7640 80f2 6440
00000010: 770d 0640 3f06 7640 1dd9 6140 e268 6540
00000020: f5c2 6840 4986 6d40 c6e0 7f40 0808 7440
00000030: 5d13 7740 211f 4640 80dd 7d40 03b9 6d40
00000040: 10ed 7c40
4.345085 4.1891427 3.8584886 3.577301 2.0945718 3.8441312 3.5288765 3.5845265
3.6368992 3.711321 3.998094 3.8129902 3.8605568 3.09565 3.9666443 3.7144172
3.9519691
