training_nn/model/order3_dynamiclr/Theta_net_ep0.pth (torch, 25366 bytes, 7 tensors)

fc1.weight f4 [70, 35]
0	0xc0a2ce2c	-5.0876675
1	0x401a98cd	2.4155762
2	0xbd50039a	-0.050784685
3	0xbd953ecc	-0.07287368
4	0xbfcbb29e	-1.5913885
5	0xbd3d5239	-0.04622099
6	0x3d3e8585	0.046514053
7	0xbe308226	-0.17237148
8	0xbe095d35	-0.13414462
9	0x3d8125d0	0.0630604
10	0x41665d4b	14.397777
11	0xbe543f0f	-0.2072718
12	0x3e16192b	0.14658038
13	0x3da7d6f0	0.08195293
14	0x3dc3b6d6	0.095563576
15	0x3db061a2	0.08612372
16	0xbd6825ae	-0.05667656
17	0x3ba344f5	0.0049825856
18	0xbd227b56	-0.039668404
19	0x3d828cfa	0.063745454
20	0x3f8eaeb9	1.1147071
21	0xbdecdff4	-0.11566153
22	0xbda68849	-0.08131463
23	0x3e08a110	0.1334269
24	0xbd916b53	-0.071005486
25	0x3da9662d	0.082714416
26	0xbfb3c165	-1.4043394
27	0x3e147572	0.14497927
28	0xbdee9632	-0.11649741
29	0xbdf9c270	-0.12195289
30	0xbf148737	-0.5801882
31	0xbd8b0721	-0.06788469
32	0xbd29afdd	-0.041427482
33	0x3e20040b	0.15626542
34	0x3f88d256	1.068919
35	0xc0a3c5d8	-5.117901
36	0x40b9a1bb	5.8009925
37	0xbea86477	-0.3288915
38	0xbde833fc	-0.1133804
39	0xc07942d1	-3.8947031
40	0x3df12db7	0.117762975
41	0x3c3af424	0.011410747
42	0x3cf55c63	0.02995128
43	0x3b93ec07	0.0045142206
44	0x3c8c3f61	0.017120065
45	0x418f0816	17.878948
46	0xbf651541	-0.89485556
47	0xbd9fcab3	-0.07802334
48	0x3f2215ae	0.6331433
49	0x3c97e50a	0.018541832
50	0x3d9b2c6e	0.07576834
51	0x3ee36596	0.4441344
52	0xbdaaea52	-0.08345474
53	0xbdd11f60	-0.102110624
54	0xbb21a980	-0.002466768
55	0x3fc1abc0	1.5130539
56	0xbe5bd37e	-0.21467397
57	0x3d1bf43f	0.038074728
58	0x3e0bc1cc	0.13648146
59	0xbdeb2183	-0.11481001
60	0x3bb50dff	0.00552535
61	0xc0166135	-2.349683
62	0xbd021dfb	-0.031766873
63	0xbe187db9	-0.1489171
64	0xbdce8c9a	-0.10085411
65	0xbf36cfb9	-0.7141071
66	0x3e304674	0.17214376
67	0xbeb50cb9	-0.3536127
68	0x3f456f66	0.77123106
69	0x4019c42c	2.4025984
70	0xc03697e6	-2.8530211
71	0xc14d5036	-12.832083
72	0xbd8cb52b	-0.068704925
73	0x3e3ee0d1	0.18640448
74	0x41666fce	14.402296
75	0x40295806	2.6459975
76	0xbdeed74e	-0.1166216
77	0xc0a15a6c	-5.042288
78	0xbe0c512f	-0.13702844
79	0x3dcae460	0.0990684
80	0x424df225	51.48647
81	0xc17c61ba	-15.773859
82	0x3e49e7b7	0.19717298
83	0x41608406	14.032232
84	0x3e3134ad	0.1730525
85	0xbdd0bd9c	-0.10192415
86	0x40bc3a53	5.8821197
87	0x3de1e8d8	0.110307395
88	0xbdafd2c3	-0.085851215
89	0x3decb6f8	0.11558336
90	0x3da6dd9d	0.08147738
91	0x3e3ffb3f	0.18748187
92	0x3e1a9d67	0.15099107
93	0xbfe88a4c	-1.8167205
94	0x3d2eef0d	0.042708445
95	0x3ee1343c	0.43985164
96	0xc13083f6	-11.032217
97	0x3e83f830	0.2577529
98	0xbe8c02b1	-0.27345803
99	0xbdc26ae8	-0.09493047
100	0x4051f580	3.2806091
101	0x3e7ef6d1	0.2489884
102	0x3ff83127	1.939
103	0x40d0f6b3	6.5301147
104	0x40ff614a	7.980626
105	0xc09d444d	-4.9145875
106	0x4086a6ec	4.207876
107	0xbea3093b	-0.3184298
108	0xbd1ffaed	-0.03905766
109	0xbfe28aaa	-1.7698567
110	0x3f1bdf2d	0.60887414
111	0xbde7b922	-0.11314608
112	0xbebd887d	-0.37018195
113	0x3de3e929	0.11128456
114	0xbe156128	-0.14587843
115	0x41ba9bee	23.326138
116	0xc0481911	-3.12653
117	0x3df94894	0.12172046
118	0x40082a32	2.1275754
119	0xbcbaafc5	-0.022788892
120	0x3dffee31	0.12496603
121	0x3fd42611	1.6574117
122	0x3de9463c	0.11390349
123	0x3d47f4b0	0.048817337
124	0xbd6bf432	-0.05760593
125	0x3faca2f2	1.3487227
126	0xbd9d11d2	-0.076694146
127	0xbdce21a4	-0.1006501
128	0x3d99a5d7	0.075023346
129	0xbe01ac4b	-0.12663381
130	0x3e5473de	0.20747325
131	0xc08fde3b	-4.4958777
132	0x3dae41e4	0.085086614
133	0xbcd1ba2b	-0.025601467
134	0x3e062d1e	0.13103148
135	0x3eabc079	0.33545282
136	0x3e41577b	0.18881027
137	0xbeacf860	-0.33783245
138	0x3fc03107	1.5014962
139	0x40753e44	3.8319254
140	0xc0a3fbaf	-5.124473
141	0x3f4dcdc8	0.8039212
142	0xbe14482f	-0.14480661
143	0x3c1e0fa6	0.009647286
144	0x3ec218c8	0.37909532
145	0x3cecd713	0.02891115
146	0xbd589b5e	-0.052882545
147	0xbe13c10c	-0.1442911
148	0xbd27a30b	-0.040926974
149	0x3d593ec0	0.05303836
150	0x3f9919ec	1.1961036
151	0x3e570d07	0.21001063
152	0xbe113d84	-0.14183623
153	0xbd752f32	-0.059859462
154	0xbdc336a9	-0.0953191
155	0xbdf174ce	-0.11789857
156	0xbea18b18	-0.31551433
157	0xbd99c9e3	-0.0750921
158	0xbaa23d30	-0.0012377854
159	0xbe231947	-0.15927611
160	0x3fbe0fcb	1.484857
161	0x3dca2cc1	0.098718174
162	0x3dd39adb	0.10332271
163	0xbd356e38	-0.044294566
164	0xbd3640bf	-0.04449534
165	0x3df946f0	0.121717334
166	0x3e9dd132	0.30823666
167	0xbd8831dc	-0.06650135
168	0x3dbb9ce9	0.091607876
169	0xbdce56f1	-0.100751765
170	0xc02dbf34	-2.714795
171	0x3da55d7d	0.08074472
172	0x3e9349d0	0.28767252
173	0xbe17f1d8	-0.1483835
174	0x3e92f8ad	0.2870535
175	0xbfd5a83b	-1.6691965
176	0xc17dc4b1	-15.86052
177	0x3f8379d6	1.0271556
178	0x3e6a4b2c	0.22880238
179	0x418484b2	16.564793
180	0x408e4210	4.4455643
181	0x3db34525	0.08753423
182	0xc0f10770	-7.532158
183	0x3ca94bd2	0.020666037
184	0x3e13e481	0.14442636
185	0x426eeb9e	59.730095
186	0xc1d9cb7b	-27.224356
187	0x3dbba99f	0.09163212
188	0x41c9ab15	25.208536
189	0x3e2e8881	0.1704426
190	0xbe76a7f8	-0.24087512
191	0x410a18a6	8.631018
192	0x3c8d00d1	0.017212303
193	0x3e4560ec	0.19275254
194	0x3db3bcfb	0.087762795
195	0x3bd9cd45	0.0066467845
196	0x3f155d65	0.58345634
197	0xbd94de47	-0.072689585
198	0xc07d82bf	-3.961105
199	0xbe7f5cfb	-0.24937813
200	0x3f3e14e4	0.74250627
201	0xc15f0b8d	-13.94032
202	0x3f18361a	0.5945755
203	0xbf3816c4	-0.7190974
204	0xbd87f1be	-0.066379055
205	0x40821a89	4.065739
206	0x3cb02674	0.02150271
207	0x40df7bf2	6.98388
208	0x412ac2bb	10.672542
209	0x410f049f	8.938628
210	0xc00d4447	-2.2072923
211	0xc1777739	-15.466607
212	0x3f0bbbf8	0.5458369
213	0x3dd688b2	0.10475291
214	0x41806606	16.049816
215	0x40610acb	3.5162838
216	0xbe1b52b9	-0.15168275
217	0xc0c70b33	-6.220117
218	0xbd8e36a5	-0.06944016
219	0x3c5747e5	0.0131397
220	0x4264554e	57.083305
221	0xc1a19cbd	-20.201532
222	0x3e36100c	0.17779559
223	0x41945557	18.54167
224	0x3df952a7	0.12173968
225	0xbd8fa00a	-0.07012947
226	0x40dcb879	6.8975186
227	0xbe69e048	-0.22839463
228	0xbd0107c5	-0.03150155
229	0xbd29d388	-0.041461498
230	0x3dab5879	0.08366484
231	0x3edaf94a	0.42768317
232	0x3e252c22	0.16130117
233	0xc043b028	-3.0576267
234	0x3c9a0ec4	0.018805869
235	0x3f2b07c3	0.6680872
236	0xc145d877	-12.365348
237	0x3eec363a	0.46135122
238	0xbef366ff	-0.47539517
239	0xbe4e52b4	-0.20148736
240	0x407c973a	3.9467301
241	0x3e423150	0.18964124
242	0x4086eba3	4.2162642
243	0x4105fac3	8.373721
244	0x410be774	8.744007
245	0xbf828d6b	-1.0199407
246	0xc1aa7b5d	-21.310236
247	0x41128075	9.156362
248	0xbce40657	-0.027835054
249	0x41ab9563	21.447943
250	0xc12ac159	-10.672204
251	0x3e94ca42	0.2906056
252	0x3fd28e5d	1.6449696
253	0xbe0e0a05	-0.1387101
254	0x3bcc9d0f	0.006244309
255	0xc233bb8e	-44.93316

fc1.bias f4 [70]
0	0xc09d4f4d	-4.9159303
1	0xc0999933	-4.799951
2	0xc03b417b	-2.9258716
3	0xc098df32	-4.7772455
4	0xc09f305d	-4.9746537
5	0xbfe54e09	-1.791444
6	0xc002f406	-2.046144
7	0xbf5dc4ad	-0.8662823
8	0xc0a45a10	-5.135994
9	0xbfc55d1c	-1.541904
10	0xc09119a7	-4.5343814
11	0xc09f7408	-4.982914
12	0xc08e270f	-4.442268
13	0xc09ebae7	-4.960315
14	0xc0a7a357	-5.238689
15	0xc09f8999	-4.9855466
16	0xc09964fb	-4.7935767
17	0xc095efc6	-4.685519
18	0xc093c0d6	-4.6172895
19	0xc0a288bf	-5.0791926
20	0xbfdd1384	-1.7271581
21	0xc0877459	-4.2329526
22	0xc0076fff	-2.1162107
23	0xc0a0f330	-5.029686
24	0xbfc4a017	-1.5361356
25	0xbfc76de1	-1.5580407
26	0xbfcc90f1	-1.5981733
27	0xc09d2ef1	-4.91198
28	0xc0a1d652	-5.057412
29	0xc09a55e0	-4.822983
30	0xc0a5a985	-5.1769433
31	0xc09bacd3	-4.8648467
32	0xc0a21f41	-5.066315
33	0xc0a5b670	-5.17852
34	0xc0a3d54e	-5.119788
35	0xc0000b69	-2.0006964
36	0xbf50c7a4	-0.8155463
37	0xc087b182	-4.2404184
38	0xc09feedf	-4.997909
39	0xc09bc95a	-4.868329
40	0xc0a3a540	-5.113922
41	0xc0950d81	-4.6578984
42	0xc0a024cf	-5.004493
43	0xbfd45fcd	-1.6591736
44	0xc0a318c3	-5.0967727
45	0xc0532650	-3.2992134
46	0xc0a1cf3c	-5.056547
47	0xc0a0c0ef	-5.0235515
48	0xbfd13cba	-1.6346657
49	0xc0a02017	-5.003917
50	0xc09e36c5	-4.9441857
51	0xc08501a5	-4.1564507
52	0xc0a054b3	-5.0103393
53	0xc0a5e341	-5.183991
54	0xc0a371d1	-5.1076436
55	0xc0a2fbb8	-5.0932274
56	0xc09d806b	-4.921926
57	0xbfcb60bb	-1.5888895
58	0xc0a36381	-5.1058965
59	0xc0a62234	-5.191675
60	0xc09e99ec	-4.9562893
61	0xc0940a74	-4.626276
62	0xc0a1b2f3	-5.0530944
63	0xc08755f8	-4.229244
64	0xbfcccd77	-1.6000203
65	0xc0a22162	-5.066575
66	0xc0a55106	-5.1661406
67	0xc08efacd	-4.4681153
68	0xc09d3ee7	-4.9139285
69	0xc06745e5	-3.613641

fc2.weight f4 [35, 70]
0	0xbf12cca5	-0.5734351
1	0xbf2a109c	-0.66431594
2	0xc02b09bc	-2.6724691
3	0xbf4dcf58	-0.80394506
4	0xbf2e0be3	-0.6798689
5	0xc051ca76	-3.2779822
6	0xc048ba02	-3.136353
7	0xc0829354	-4.0804844
8	0xbed44a44	-0.4146291
9	0xc073b695	-3.808019
10	0xbfb50e50	-1.4144993
11	0xbf2c998f	-0.6742181
12	0xbff00bc6	-1.8753593
13	0xbf4a4474	-0.790107
14	0xbf1b1593	-0.60579795
15	0xbf01c26a	-0.5068728
16	0xbf883175	-1.0640093
17	0xbf8021c4	-1.0010304
18	0xbf489ce3	-0.7836439
19	0xbeb59cb3	-0.35471115
20	0xc053fd0a	-3.3123193
21	0xc0014563	-2.01986
22	0xc03a9b79	-2.9157393
23	0xbed02bdc	-0.40658462
24	0xc0687cce	-3.6326175
25	0xc0557c41	-3.3357089
26	0xc066a1b5	-3.6036198
27	0xbf1ff246	-0.62479055
28	0xbf398964	-0.72475266
29	0xbf7e76fb	-0.994003
30	0xbec37c67	-0.3818085
31	0xbf267df8	-0.65035963
32	0xbef07835	-0.4696671
33	0xbed6d838	-0.41961837
34	0xbeb21322	-0.34780222
35	0xc02aa011	-2.6660197
36	0xc0923f11	-4.5701985
37	0xbfe9ccbd	-1.8265606
38	0xbf37f216	-0.7185377
39	0xbf0b426a	-0.54398215
40	0xbedc992b	-0.43085608
41	0xbf69e192	-0.9135982
42	0xbf2ccf9b	-0.6750428
43	0xc05da800	-3.463379
44	0xbe9e7a62	-0.30952746
45	0xc01b5b2f	-2.4274404
46	0xbea49240	-0.3214283
47	0xbf3edaa8	-0.7455239
48	0xc06393f0	-3.5559044
49	0xbec25d91	-0.3796201
50	0xbea72239	-0.32643297
51	0xc008aef5	-2.1356785
52	0xbf34fe4a	-0.70700514
53	0xbe9e3598	-0.30900264
54	0xbe9d382e	-0.30706924
55	0xbf36d9d5	-0.71426135
56	0xbf0b95ba	-0.5452534
57	0xc053bacc	-3.3082762
58	0xbf005225	-0.5012534
59	0xbeaea9dd	-0.3411397
60	0xbf166a32	-0.5875579
61	0xbf8be354	-1.092875
62	0xbf309c56	-0.6898855
63	0xbffa85ed	-1.9572121
64	0xc06100ff	-3.5156858
65	0xbed3146f	-0.41226527
66	0xbedd820e	-0.43263286
67	0xbfe85ed9	-1.8153945
68	0xbf0b28c2	-0.54359066
69	0xc01440e5	-2.3164608
70	0xbf3f7b6c	-0.747977
71	0xbf6d3394	-0.92656827
72	0xc04a5a6e	-3.1617694
73	0xbf7ca4be	-0.98688877
74	0xbf4c1992	-0.7972652
75	0xc092e54b	-4.59049
76	0xc07b419b	-3.9258792
77	0xc05df4a5	-3.468057
78	0xbee69376	-0.4503438
79	0xc0a84d3a	-5.259427
80	0xbfa59206	-1.2935188
81	0xbf6e694c	-0.9312942
82	0xbfe95515	-1.822909
83	0xbf570288	-0.8398824
84	0xbf1eaba5	-0.6198066
85	0xbeadff6b	-0.3398393
86	0xbf829d40	-1.0204239
87	0xbf838275	-1.0274187
88	0xbf80121a	-1.0005524
89	0xbea1f304	-0.3163072
90	0xc09293fe	-4.5805655
91	0xc00431ca	-2.065539
92	0xc06958f7	-3.646055
93	0xbe8aebd9	-0.27133062
94	0xc0a23d4c	-5.0699825
95	0xc0921124	-4.5645924
96	0xc09b70eb	-4.857534
97	0xbf303d83	-0.6884386
98	0xbf28dfad	-0.659663
99	0xbf76eb14	-0.9645245
100	0xbee4e7f7	-0.44708225
101	0xbf57cffa	-0.8430172
102	0xbf23f606	-0.64047277
103	0xbec2e4ba	-0.3806513
104	0xbe9d3b6f	-0.30709407
105	0xc01bf3a8	-2.4367466
106	0xc07fe758	-3.998495
107	0xc00dbaeb	-2.2145336
108	0xbf760138	-0.9609561
109	0xbf75c39e	-0.96001613
110	0xbf0bc711	-0.54600626
111	0xbf58dc09	-0.84710747
112	0xbf2aa7bf	-0.6666221
113	0xc098553e	-4.7604055
114	0xbebb97cd	-0.36639252
115	0xc033fdf5	-2.8123753
116	0xbecb494b	-0.39704356
117	0xbf62d7ac	-0.8861034
118	0xc09a5cba	-4.823819
119	0xbea89d1d	-0.32932368
120	0xbe92eede	-0.28697866
121	0xc00d58a7	-2.208536
122	0xbf70da22	-0.94082844
123	0xbee048a9	-0.43805435
124	0xbe946cb8	-0.28989196
125	0xbf6f230a	-0.9341284
126	0xbf89a573	-1.0753616
127	0xc087a51e	-4.238906
128	0xbedafefe	-0.4277267
129	0xbea19574	-0.31559336
130	0xbf1eef71	-0.6208411
131	0xbf8c8a0a	-1.0979626
132	0xbf383b0e	-0.7196511
133	0xc0011ec3	-2.0175025
134	0xc09bbfa3	-4.867143
135	0xbf1309fb	-0.57437104
136	0xbee4ea37	-0.44709942
137	0xbfeccee3	-1.8500637
138	0xbf887240	-1.0659866
139	0xc02f8e5b	-2.7430637
140	0xbf2eab06	-0.6822971
141	0xbf466507	-0.77497905
142	0xc023f60d	-2.5618927
143	0xbf3fad05	-0.7487338
144	0xbf427b35	-0.7596925
145	0xc04d4da3	-3.2078636
146	0xc0323553	-2.7845047
147	0xc0859741	-4.1747136
148	0xbf066237	-0.52493614
149	0xc0548377	-3.320524
150	0xbf9d80da	-1.2304947
151	0xbf367e41	-0.712864
152	0xbfdb396a	-1.7126896
153	0xbf3a44b4	-0.7276108
154	0xbf1c269a	-0.609964
155	0xbef90a22	-0.48640543
156	0xbf641750	-0.8909807
157	0xbf83303a	-1.0249093
158	0xbf870b5d	-1.0550343
159	0xbe87698c	-0.26447713
160	0xc04736aa	-3.1127114
161	0xbfeab554	-1.8336587
162	0xc0321994	-2.7828112
163	0xbeaa8ef0	-0.33312178
164	0xc055b2a4	-3.3390284
165	0xc0424a67	-3.0357912
166	0xc0592b2a	-3.3932595
167	0xbf256d67	-0.6462006
168	0xbf493807	-0.78601116
169	0xbf943f1b	-1.1581758
170	0xbedd2320	-0.4319086
171	0xbf46921a	-0.77566683
172	0xbf121d9f	-0.5707645
173	0xbf017b6b	-0.50578946
174	0xbe8e17fa	-0.27752668
175	0xc033cc03	-2.809327
176	0xc08f651a	-4.4810915
177	0xbfef5f47	-1.8700951
178	0xbf445fdf	-0.7670879
179	0xbf1d6557	-0.6148276
180	0xbecebf55	-0.4038035
181	0xbf89d393	-1.0767692
182	0xbf0d4b54	-0.55193067
183	0xc046385d	-3.0971901
184	0xbec73284	-0.38905728
185	0xc01adb97	-2.4196527
186	0xbea82824	-0.32843125
187	0xbf177469	-0.59162
188	0xc04eb55f	-3.22982
189	0xbed29c1f	-0.41134736
190	0xbe9819eb	-0.29707274
191	0xbff594f2	-1.918608
192	0xbf18224c	-0.5942733
193	0xbeffd67b	-0.49968323
194	0xbea580ef	-0.3232493
195	0xbf1941b2	-0.5986587
196	0xbf1274c4	-0.5720942
197	0xc03eea53	-2.983052
198	0xbecadd48	-0.3962195
199	0xbeb2100e	-0.34777874
200	0xbf34bc42	-0.7059976
201	0xbfa10be5	-1.2581755
202	0xbf2d61ad	-0.67727166
203	0xbfe88ab2	-1.8167326
204	0xc04d9e09	-3.2127707
205	0xbed4045c	-0.41409576
206	0xbe84a853	-0.2590967
207	0xbfe34ef0	-1.7758465
208	0xbf4857c3	-0.78258914
209	0xc0161aff	-2.3453977
210	0xbf1821a5	-0.5942634
211	0xbf23869f	-0.6387729
212	0xbfb11c2f	-1.3836726
213	0xbf21e5ee	-0.6324147
214	0xbefd002f	-0.49414203
215	0xbfa19016	-1.2622097
216	0xbfcc20d4	-1.5947518
217	0xc0c70646	-6.219516
218	0xbebbae93	-0.36656627
219	0xbf69d085	-0.913338
220	0xbf4ed3f0	-0.8079214
221	0xbf0f3fac	-0.5595653
222	0xbf8f9ada	-1.1219132
223	0xbf27236b	-0.6528842
224	0xbf04b059	-0.51831585
225	0xbe94ee34	-0.29087985
226	0xbf1ba3e5	-0.6079696
227	0xbf2efd68	-0.6835542
228	0xbf34e784	-0.70665765
229	0xbe7b3e5f	-0.24535511
230	0xbfa13e05	-1.2597052
231	0xbfa91b8e	-1.3211534
232	0xbfbea2e7	-1.4893464
233	0xbe8253a9	-0.25454453
234	0xbf8bb0d1	-1.0913335
235	0xbf9f0d01	-1.2425843
236	0xbf78da00	-0.9720764
237	0xbf106f28	-0.5641961
238	0xbf19ec69	-0.6012636
239	0xbf2b40b7	-0.6689562
240	0xbe700ae7	-0.23441659
241	0xbf1c5e6c	-0.61081576
242	0xbf01c62c	-0.5069301
243	0xbea6567a	-0.3248785
244	0xbe7bab3a	-0.24577036
245	0xc0688239	-3.6329482
246	0xc0db6801	-6.856446
247	0xbf9b2a1b	-1.2122225
248	0xbf137b44	-0.57609963
249	0xbf124418	-0.5713515
250	0xbe9b0c30	-0.30282736
251	0xbf3442c8	-0.704144
252	0xbf13a780	-0.5767746
253	0xbfa0262d	-1.251165
254	0xbe6b5c9a	-0.22984543
255	0xbfc6a136	-1.5517948

fc2.bias f4 [35]
0	0xc1043b6e	-8.264509
1	0xc0fceda5	-7.9040093
2	0xc1045346	-8.27033
3	0xc0be7331	-5.9515615
4	0xc10392f9	-8.223382
5	0xc051bc53	-3.2771194
6	0xc0bc9052	-5.892617
7	0xc104d186	-8.301153
8	0xc0b6573f	-5.69815
9	0xbfa3a484	-1.2784581
10	0xc0f770bc	-7.7325115
11	0xc01f0dfa	-2.485228
12	0xc10648c6	-8.392767
13	0xc1006679	-8.025018
14	0xc103c269	-8.234963
15	0xc02f2691	-2.736729
16	0xc013bb6f	-2.308315
17	0xc0826857	-4.075237
18	0xc0a09298	-5.0178947
19	0xc02d2829	-2.7055762
20	0xc029d8ef	-2.6538656
21	0xc10700f8	-8.4377365
22	0xc1043e8b	-8.265269
23	0xc0a2cdcb	-5.087621
24	0xc1035512	-8.208269
25	0xc0b49201	-5.6428227
26	0xc10221c6	-8.133245
27	0xc107e442	-8.493227
28	0xc09dee99	-4.9353757
29	0xc0f1c37b	-7.5551124
30	0xc104ea2a	-8.307169
31	0xc05a1481	-3.4075015
32	0xc07894d1	-3.884083
33	0xc1053d94	-8.327534
34	0xc103cb84	-8.237186

fc3.weight f4 [17, 35]
0	0xc0c60fb3	-6.1894164
1	0xc0bcf25f	-5.9045863
2	0xc0b19787	-5.549747
3	0xc086f476	-4.2173414
4	0xc0ce125c	-6.439741
5	0xc094badd	-4.6478105
6	0xc02e19c6	-2.720323
7	0xc0c2393d	-6.069487
8	0xc093347d	-4.6001573
9	0xc1025ab1	-8.147141
10	0xc0bd6f12	-5.9198084
11	0xc0b6bdc0	-5.710663
12	0xc0b86ae8	-5.76305
13	0xc0d24d92	-6.571969
14	0xc0d7b392	-6.74067
15	0xc0bd7142	-5.9200754
16	0xc0b9710d	-5.79505
17	0xc09fce67	-4.9939456
18	0xc0d3e495	-6.621653
19	0xc0b13ffb	-5.53906
20	0xc0b5c673	-5.6804748
21	0xc0aa54c0	-5.3228455
22	0xc0bbd0d5	-5.869242
23	0xc095b725	-4.6786065
24	0xc0c01329	-6.002339
25	0xc05bf6bc	-3.4369345
26	0xc0ba2f43	-5.8182693
27	0xc099ed9b	-4.8102546
28	0xc0d13a7e	-6.53839
29	0xc0eb54af	-7.3540874
30	0xc0c44398	-6.133251
31	0xc0d997ab	-6.799764
32	0xc08ddf8d	-4.433539
33	0xc0b91236	-5.783473
34	0xc0d88feb	-6.767568
35	0xc0c273ac	-6.07662
36	0xc0be5c2f	-5.948753
37	0xc0b146ea	-5.5399065
38	0xc08465be	-4.1374197
39	0xc0c843a4	-6.258257
40	0xc08cd938	-4.401516
41	0xc02a3d88	-2.6600056
42	0xc0bd7a42	-5.921174
43	0xc08f32bc	-4.474943
44	0xc10099c3	-8.0375395
45	0xc0ba9a2b	-5.8313193
46	0xc0b29ad5	-5.5814004
47	0xc0b3f79f	-5.623977
48	0xc0cc32cc	-6.381201
49	0xc0ddaeb5	-6.9275765
50	0xc0b7c932	-5.74331
51	0xc0b1a027	-5.5508
52	0xc09cf35f	-4.9047084
53	0xc0cedf02	-6.4647226
54	0xc0a994c3	-5.2994094
55	0xc0ada2c7	-5.4261203
56	0xc0aaac12	-5.3335047
57	0xc0b3ea88	-5.6223793
58	0xc097e492	-4.7466516
59	0xc0b8da80	-5.7766724
60	0xc04f6ffe	-3.2412105
61	0xc0b0d300	-5.525757
62	0xc0909d57	-4.5192065
63	0xc0d25bd7	-6.573711
64	0xc0e69dcc	-7.2067623
65	0xc0c292ea	-6.080434
66	0xc0d36be0	-6.6069183
67	0xc087eb1e	-4.247451
68	0xc0b2bb7c	-5.5853863
69	0xc0d660a2	-6.699296
70	0xc0629a1c	-3.540656
71	0xc065d715	-3.5912526
72	0xc0477713	-3.1166427
73	0xc02640cb	-2.5977046
74	0xc055c342	-3.3400426
75	0xc0868bae	-4.2045507
76	0xbfa0af73	-1.2553543
77	0xc05b4806	-3.426271
78	0xc01a8550	-2.4143867
79	0xc09a0d7e	-4.814147
80	0xc05c44a8	-3.4416904
81	0xc0a936f0	-5.287956
82	0xc04df2fb	-3.2179554
83	0xc0695286	-3.6456618
84	0xc0750872	-3.8286405
85	0xc0ae8c3f	-5.45462
86	0xc0a5dfbf	-5.1835628
87	0xc08a94a2	-4.3306437
88	0xc0258d59	-2.5867522
89	0xc0a307c3	-5.0946975
90	0xc09f6a08	-4.9816933
91	0xc03ce0cd	-2.9512208
92	0xc05d2c95	-3.455846
93	0xc073097f	-3.7974546
94	0xc0498b86	-3.1491408
95	0xbfd6a7ba	-1.6769936
96	0xc055d6cb	-3.341235
97	0xc02f563f	-2.739639
98	0xc076cdf3	-3.8563201
99	0xc069e5ed	-3.6546586
100	0xc0673303	-3.6124885
101	0xc0766f2e	-3.8505359
102	0xc0867de0	-4.2028656
103	0xc03eed2f	-2.9832265
104	0xc069aa61	-3.651024
105	0xc0a2857a	-5.0787935
106	0xc09ee4a7	-4.9654117
107	0xc0938a23	-4.6106124
108	0xc0596f58	-3.397421
109	0xc0b478cd	-5.639746
110	0xc08b8c96	-4.3609114
111	0xc00421f7	-2.064573
112	0xc0a15631	-5.0417714
113	0xc05cb662	-3.4486318
114	0xc0dbc665	-6.867968
115	0xc09eb534	-4.9596195
116	0xc0a679e8	-5.202381
117	0xc0911424	-4.5337086
118	0xc0a76e79	-5.2322354
119	0xc0bef430	-5.967308
120	0xc0969e89	-4.7068524
121	0xc0a5dcac	-5.1831875
122	0xc084dc26	-4.1518736
123	0xc0a74c03	-5.228029
124	0xc0874a09	-4.2277875
125	0xc09f3a86	-4.975894
126	0xc088edfb	-4.2790504
127	0xc09429f3	-4.6301208
128	0xc08051cb	-4.0099845
129	0xc098b43c	-4.7720013
130	0xc0205065	-2.504907
131	0xc095049f	-4.656814
132	0xc0832e5b	-4.0994086
133	0xc0b288c0	-5.579193
134	0xc0c33be3	-6.1010604
135	0xc0a1fd83	-5.0621963
136	0xc0b929ca	-5.786351
137	0xc080c176	-4.023616
138	0xc0982892	-4.7549524
139	0xc0bc658d	-5.8873963
140	0xbe5fdb59	-0.21861018
141	0x3ea7833a	0.32717305
142	0xbeb49672	-0.3527103
143	0xbfca54b0	-1.5807095
144	0x3d1c2455	0.038120586
145	0xbfdc233b	-1.7198251
146	0xbfd63bd7	-1.6737012
147	0xbe895eb2	-0.2683006
148	0xbfcd587c	-1.6042628
149	0x405b7f38	3.4296398
150	0x3ecf0aae	0.40437835
151	0xc00dd8db	-2.2163608
152	0xbd1bc0e8	-0.038025767
153	0x3e5595e7	0.20857964
154	0xbd03f173	-0.032212686
155	0xc02c70e2	-2.6943898
156	0xc0083b5d	-2.1286232
157	0xbf9ccaca	-1.2249386
158	0xbfa6f2ed	-1.3042885
159	0xc0142253	-2.314595
160	0xbfd46ae3	-1.6595119
161	0xbd811a2e	-0.063038215
162	0x3e0499f6	0.12949356
163	0xbfaa8693	-1.3322319
164	0xbedbee93	-0.42955455
165	0xbfddf3d3	-1.7340034
166	0x3e6f4a8c	0.23368281
167	0xbe6f48fc	-0.23367685
168	0x3fea72e4	1.8316312
169	0xbf40aed0	-0.7526674
170	0xbdbe320c	-0.092868894
171	0x402b8421	2.6799395
172	0xbfa38ba0	-1.2776985
173	0xbea3249c	-0.31863868
174	0xbcd3dbb0	-0.025861591
175	0xc0b41f20	-5.6287994
176	0xc0b33607	-5.600345
177	0xc0a052d6	-5.010112
178	0xc063ae94	-3.5575304
179	0xc0bfe70d	-5.9969544
180	0xc08595c6	-4.174533
181	0xc01152b9	-2.270674
182	0xc0b44282	-5.6331186
183	0xc084b215	-4.1467385
184	0xc0ec911a	-7.3927126
185	0xc0adf357	-5.4359546
186	0xc0a7bb25	-5.241595
187	0xc0a057f5	-5.010737
188	0xc0bb585e	-5.854537
189	0xc0cc56e7	-6.385608
190	0xc0a8487e	-5.258849
191	0xc0a8166e	-5.252738
192	0xc08febaa	-4.4975176
193	0xc0bc8363	-5.8910384
194	0xc09efdfc	-4.968504
195	0xc0a02d3a	-5.005521
196	0xc096ea3c	-4.716093
197	0xc0a75977	-5.229671
198	0xc08ae7ce	-4.3407965
199	0xc0af4359	-5.476971
200	0xc02f78e4	-2.7417536
201	0xc0a91855	-5.28422
202	0xc08a2755	-4.3173013
203	0xc0bed9b7	-5.9640765
204	0xc0d4a11b	-6.644666
205	0xc0ad1ae5	-5.409533
206	0xc0c15593	-6.041696
207	0xc0844cfd	-4.134398
208	0xc09fd6be	-4.9949636
209	0xc0c7cda7	-6.243854
210	0xc0a3f3e1	-5.1235204
211	0xc09b7380	-4.857849
212	0xc08dbd19	-4.429333
213	0xc053f162	-3.3116078
214	0xc0a855c9	-5.260472
215	0xc08512c7	-4.158542
216	0xbff46f2c	-1.9096427
217	0xc0a010a4	-5.0020313
218	0xc058c7f4	-3.3872042
219	0xc0ddf2bc	-6.9358807
220	0xc09b56e7	-4.854358
221	0xc0a295dc	-5.0807934
222	0xc0929caa	-4.581624
223	0xc0adefea	-5.4355364
224	0xc0badfd0	-5.839821
225	0xc099a650	-4.801552
226	0xc09adbfd	-4.839354
227	0xc08abfdf	-4.335922
228	0xc09f93c7	-4.986789
229	0xc08c6ada	-4.3880434
230	0xc09bff27	-4.8748965
231	0xc08ff997	-4.4992175
232	0xc090b697	-4.522289
233	0xc078d7b7	-3.8881662
234	0xc09348d8	-4.602642
235	0xc022379c	-2.5346441
236	0xc0955b53	-4.667398
237	0xc07160e2	-3.7715383
238	0xc0afb515	-5.4908547
239	0xc0b86c45	-5.7632165
240	0xc0a25302	-5.072633
241	0xc0b3d203	-5.619386
242	0xc0774565	-3.8636105
243	0xc09a3454	-4.8188877
244	0xc0b60e25	-5.6892266
245	0xc0a37d0d	-5.109015
246	0xc098ad0c	-4.771124
247	0xc0942a28	-4.630146
248	0xc04b5ff4	-3.1777315
249	0xc0ad04c0	-5.40683
250	0xc0831acd	-4.0970216
251	0xbffc1527	-1.9693955
252	0xc09f1aac	-4.972006
253	0xc06ed276	-3.7315955
254	0xc0dbfd72	-6.874688
255	0xc0a01c09	-5.0034223

fc3.bias f4 [17]
0	0xc10e95f2	-8.911608
1	0xc114ec3d	-9.307675
2	0xc11f80d3	-9.968951
3	0xc11dcd9e	-9.8626995
4	0xc0374c5a	-2.8640351
5	0xc11b63d9	-9.711877
6	0xc120a3e0	-10.040009
7	0xc12146e4	-10.079807
8	0xc121b276	-10.10607
9	0xc120d391	-10.051652
10	0xc11e045a	-9.876062
11	0xc11fe1c7	-9.992621
12	0xc11f5f7f	-9.960814
13	0xc126864a	-10.407785
14	0xc11e35c8	-9.88813
15	0xc1210a51	-10.065019
16	0xc1172eff	-9.448974

output.weight f4 [1, 17]
0	0x40076f88	2.1161823
1	0x4006cdbf	2.1063077
2	0x40077653	2.116597
3	0x3ff7199d	1.9304692
4	0x3fc9a1aa	1.5752461
5	0x40013173	2.0186431
6	0x3ff9fb6d	1.9529854
7	0x3ffeb6a2	1.9899485
8	0x4001ca40	2.0279694
9	0x40034118	2.050848
10	0x400a820a	2.164187
11	0x40068690	2.101963
12	0x40079bdf	2.1188886
13	0x3fed1aa4	1.8523755
14	0x4009f02a	2.1552835
15	0x40042680	2.0648499
16	0x40011742	2.0170445
