training_nn/model/order3_dynamiclr/Theta_net_ep6.pth (torch, 25366 bytes, 7 tensors)

fc1.weight f4 [70, 35]
000000 2f 78 a3 c0 e0 4d 1a 40 a2 0f 50 bd 01 3f 95 bd
       -5.108421 2.411003 -0.05079616 -0.07287408
000010 02 d3 cd bf b4 c0 3d bd 24 85 3e 3d 86 48 2f be
       -1.608002 -0.046326354 0.04651369 -0.17117509
000020 3d 5d 09 be 0a 25 81 3d a7 8b 66 41 55 13 54 be
       -0.13414474 0.06305893 14.409095 -0.207105
000030 2b 19 16 3e 5a 7a a7 3d d1 b6 c3 3d 70 61 b0 3d
       0.14658038 0.081776336 0.09556354 0.08612335
000040 66 0e 68 bd 55 3c a3 3b a6 7b 22 bd f9 8c 82 3d
       -0.056654356 0.0049815574 -0.0396687 0.06374545
000050 e6 d6 8c 3f 86 4e ed bd 9c 88 a6 bd 76 5e 09 3e
       1.1003082 -0.11587243 -0.08131525 0.1341494
000060 17 66 91 bd c4 68 a9 3d 02 bf b3 bf 73 74 14 3e
       -0.0709955 0.082719356 -1.4042666 0.14497547
000070 f4 9f ee bd 87 c6 f9 bd 5b 1a 14 bf 0f 7c 8a bd
       -0.116516024 -0.12196069 -0.57852715 -0.067619435
000080 35 3b 28 bd fa 31 20 3e fa b4 88 3f ea 0f a2 c0
       -0.04107209 0.15644065 1.068023 -5.0644426
000090 d4 60 b9 40 70 64 a8 be cd 34 e8 bd 8b 80 7b c0
       5.79307 -0.32889128 -0.11338196 -3.9297206
0000a0 ec b5 f0 3d 54 e3 3a 3c 2d 50 04 3d 7f 3c 94 3b
       0.11753449 0.011406738 0.032303024 0.0045238133
0000b0 55 f3 8b 3c f2 30 8f 41 c6 09 65 bf bc ca 9f bd
       0.017083803 17.8989 -0.8946804 -0.078023404
0000c0 02 07 22 3f 01 e2 97 3c c5 2b 9b 3d 21 66 e3 3e
       0.63291943 0.018540384 0.07576708 0.44413856
0000d0 5b ea aa bd 8b 1f d1 bd 83 3a 21 bb 74 13 be 3f
       -0.08345481 -0.102110945 -0.0024601526 1.4849687
0000e0 83 cb 5b be 28 f8 1b 3d bf 40 0d 3e 8c 1b eb bd
       -0.21464352 0.038078457 0.1379423 -0.114798635
0000f0 01 ce b4 3b 6c 5d 16 c0 00 51 02 bd f6 83 18 be
       0.0055177216 -2.349452 -0.03181553 -0.14894089
000100 18 98 ce bd ea 1a 36 bf 91 aa 30 3e e5 d9 b4 be
       -0.10087603 -0.7113482 0.17252566 -0.3532249
000110 16 81 45 3f 93 9d 19 40 2f 1c 69 c0 04 67 5b c1
       0.77150095 2.4002426 -3.6423452 -13.71265
000120 b8 cb 3e bd de 36 3f 3e e0 66 6a 41 27 2e 27 40
       -0.046581 0.18673274 14.650116 2.612192
000130 e5 7d ef bd ac 94 9a c0 27 17 0b be 19 d9 c2 3d
       -0.11693934 -4.8306484 -0.1358305 0.09514064
000140 b8 f4 53 42 7f 42 7c c1 0e 22 4b 3e 6e 70 60 41
       52.988983 -15.766234 0.1983721 14.027449
000150 4f 06 30 3e 90 65 cd bd 35 a4 bc 40 25 ef e0 3d
       0.17189907 -0.10029137 5.895045 0.10983113
000160 9b 98 b1 bd f0 81 ee 3d e5 af 8a 3e 22 4a 09 be
       -0.08671685 0.11645877 0.27087322 -0.13407186
000170 49 ec 19 3e 87 a7 ff bf 02 c2 46 3d 28 61 e2 3e
       0.15031542 -1.9973 0.048524864 0.4421475
000180 d0 d0 30 c1 1e ef 7b 3e b1 12 8f be 59 48 c7 bd
       -11.05098 0.24602935 -0.27943948 -0.09730596
000190 fa 04 3a 40 e0 b6 b9 3e f7 a8 08 40 2b f9 d0 40
       2.9065537 0.36272335 2.1353128 6.530416
0001a0 36 20 01 41 32 f9 9a c0 fd 79 86 40 56 fb a2 be
       8.070364 -4.8429193 4.202391 -0.3183238
0001b0 ef fa 1f bd 08 be e8 bf 45 c9 1b 3f 5d b9 e7 bd
       -0.03905767 -1.8182993 0.6085399 -0.11314652
0001c0 65 bc bb be fb e8 e3 3d 2f 62 15 be 56 dd ba 41
       -0.3666717 0.11128422 -0.14588235 23.358074
0001d0 80 18 48 c0 8d 48 f9 3d 89 2a 08 40 0b b7 ba bc
       -3.1264954 0.12172041 2.1275961 -0.02279236
0001e0 2b ed ff 3d 88 27 d4 3f 26 46 e9 3d f2 f2 47 3d
       0.12496408 1.6574564 0.11390333 0.048815675
0001f0 a4 f4 6b bd 3a bf a6 3f 0c e8 a0 bd b2 29 ce bd
       -0.057606354 1.3027108 -0.078567594 -0.100665465
000200 8e 89 9c 3d bc a3 01 be ee 79 54 3e ba df 8f c0
       0.07643424 -0.12660116 0.20749637 -4.4960604
000210 c4 1c ae 3d b2 2b d2 bc df 27 06 3e 03 66 b1 3e
       0.0850158 -0.025655601 0.13101147 0.3464814
000220 ad 73 42 3e 4e 78 ac be e6 3b c0 3f 23 f6 74 40
       0.1898944 -0.33685535 1.501828 3.827523
000230 8c af a5 c0 ab 4d 4c 3f eb 4a 14 be 46 0e 1e 3c
       -5.177679 0.7980601 -0.14481704 0.009646958
000240 49 81 c1 3e 11 5c ed 3c 67 9b 58 bd c9 c1 13 be
       0.3779395 0.028974565 -0.05288258 -0.14429392
000250 32 a3 27 bd eb 3d 59 3d b3 15 99 3f c7 12 57 3e
       -0.04092712 0.053037565 1.1959747 0.21003257
000260 84 3d 11 be 6d fc 74 bd a9 36 c3 bd db 74 f1 bd
       -0.14183623 -0.059811044 -0.0953191 -0.117898665
000270 33 89 a1 be e3 c9 99 bd ef 38 a2 ba 47 19 23 be
       -0.31549987 -0.0750921 -0.0012376587 -0.15927611
000280 4a cd bb 3f 0a 23 cc 3d 78 9b d3 3d 50 50 33 bd
       1.4672024 0.09967621 0.10332388 -0.043777764
000290 d9 43 36 bd 96 42 f9 3d 1f 17 9e 3e 02 32 88 bd
       -0.0444983 0.121709034 0.30877015 -0.06650163
0002a0 23 9b bb 3d d8 57 ce bd 83 3d 2e c0 77 fd a4 3d
       0.09160449 -0.100753486 -2.7225044 0.08056157
0002b0 6f 3b 93 3e 5d f1 17 be 58 43 93 3e f3 c2 ee bf
       0.28756282 -0.14838167 0.28762317 -1.8653244
0002c0 4c e1 90 c1 05 42 fb 3f 90 01 7f 3e 2d 5b 9b 41
       -18.110008 1.9629523 0.2490294 19.41952
0002d0 e0 7e 45 40 b6 7a a6 3d 60 38 a8 bf e6 1d 8d 3d
       3.0858688 0.08128874 -1.3142204 0.06890468
0002e0 6f d9 c8 3c 3d 67 85 42 d5 41 d8 c1 15 c7 07 3e
       0.024517743 66.70164 -27.032145 0.13259538
0002f0 0c 63 c6 41 19 ae 05 3e 76 51 35 be c5 39 13 41
       24.798363 0.13054694 -0.17706856 9.201604
000300 fc 55 fe 3b e8 0f 22 3e 74 7f ef 3d b1 9e f9 3d
       0.007761715 0.1582638 0.11694232 0.12188471
000310 f9 97 e6 c0 5a d7 08 be 33 0e f7 c0 a4 b3 17 bc
       -7.2060513 -0.133634 -7.7204833 -0.009259138
000320 fe a4 56 3f 2d eb 69 c1 95 c5 5c 3e 49 aa 66 bf
       0.8384551 -14.619916 0.21559747 -0.90103585
000330 0b 41 05 be ec 2c 5f 40 5e 91 88 40 64 c7 41 41
       -0.13013093 3.4871168 4.267745 12.111179
000340 c0 ee 20 41 ee 79 07 41 43 3b 28 c0 c5 c6 91 c1
       10.058289 8.467268 -2.628617 -18.222055
000350 1a 7a 52 3f bc 67 e0 3d db 7b 8f 41 03 3b 47 40
       0.8221756 0.10957286 17.935476 3.1129768
000360 dc dc 1d be fe f4 84 c0 e3 5b 63 bd 94 00 c8 bc
       -0.15416282 -4.1549063 -0.055507552 -0.024414338
000370 f1 c4 79 42 14 68 a1 c1 e7 f4 42 3e 5b 86 93 41
       62.442326 -20.17582 0.19038735 18.440603
000380 75 2a e0 3d 7e 65 52 bd 72 61 e2 40 fd c1 6d be
       0.10945598 -0.05136632 7.074395 -0.23218532
000390 07 78 2a bd 44 10 04 bd f3 ad e9 3e ec 69 2f c0
       -0.041618373 -0.032242075 0.45640525 -2.74084
0003a0 97 cf 19 3e 0c bf 96 c0 6c 8d b5 3d a5 bd 32 3f
       0.15020595 -4.710821 0.08864865 0.69820625
0003b0 27 3b 48 c1 71 77 b2 3e 70 41 08 bf 5e 17 65 be
       -12.5144415 0.34856752 -0.5322485 -0.22372195
0003c0 b0 0b 35 40 d1 bb c3 3f 0a fe c1 40 f4 e1 02 41
       2.8288383 1.5291692 6.0622606 8.180164
0003d0 fc 3e 0b 41 41 b6 99 bf 3e 76 97 c1 ee a4 7a 41
       8.702877 -1.2008744 -18.932735 15.665266
0003e0 8c ec 76 3c c7 94 a6 41 a8 78 86 c1 e8 10 cb 3e
       0.015071046 20.822645 -16.808914 0.39661336
0003f0 7a 3f 14 c1 ff c6 25 be 91 e9 ce 3e 8f f6 5e c2
       -9.265497 -0.16189192 0.40412572 -55.74078

fc1.bias f4 [70]
000000 50 f9 9d c0 45 e3 97 c0 c4 c5 6d c0 17 94 96 c0
       -4.9366837 -4.746493 -3.7151957 -4.7055774
000010 3a e4 a0 c0 c1 68 fe bf 02 eb 1d c0 5c 0b 86 bf
       -5.0278597 -1.9875718 -2.4674687 -1.0472217
000020 16 02 a6 c0 e0 3f d3 bf a0 6c 92 c0 bc dc 9e c0
       -5.1877546 -1.6503868 -4.57576 -4.964445
000030 bc 04 93 c0 59 a5 a0 c0 d0 8b a9 c0 98 ad a0 c0
       -4.594328 -5.020184 -5.298317 -5.0211906
000040 0f 7b 98 c0 50 df 95 c0 23 92 92 c0 03 06 a4 c0
       -4.765022 -4.68351 -4.580339 -5.125734
000050 77 0a fd bf 01 d3 8d c0 73 09 25 c0 dc 67 a2 c0
       -1.9768819 -4.4320073 -2.5787017 -5.075178
000060 97 1b d0 bf 06 4a db bf 49 64 e3 bf 8b 49 9d c0
       -1.625842 -1.7131965 -1.776498 -4.9152274
000070 b3 dd a1 c0 f4 38 9a c0 f0 36 a7 c0 68 ec 98 c0
       -5.058313 -4.8194523 -5.225456 -4.778858
000080 48 2a a3 c0 ad e7 a6 c0 d5 58 a5 c0 77 6e bc bf
       -5.0989113 -5.2157807 -5.1670938 -1.4721211
000090 b3 34 8a bf d9 6c 8e c0 59 cb a1 c0 6f b7 98 c0
       -1.0797333 -4.450787 -5.0560727 -4.772392
0000a0 45 70 a5 c0 be dd 94 c0 b6 3a a0 c0 42 ea e8 bf
       -5.169955 -4.652068 -5.007167 -1.819649
0000b0 18 4d a4 c0 0c 23 82 c0 aa 86 a3 c0 be 86 a0 c0
       -5.134411 -4.066778 -5.1101885 -5.016448
0000c0 0a ec e9 bf a5 d4 a1 c0 36 8f 9f c0 eb 21 8c c0
       -1.8275158 -5.0572076 -4.986232 -4.3791404
0000d0 22 d7 a0 c0 4b 84 a7 c0 3f 23 a5 c0 58 c4 a4 c0
       -5.0262613 -5.234899 -5.1605525 -5.1489677
0000e0 77 21 9a c0 c3 a6 da bf 65 33 a5 c0 13 eb a7 c0
       -4.816585 -1.7082142 -5.1625237 -5.2474456
0000f0 90 72 a0 c0 54 78 94 c0 6b 74 a3 c0 1a b9 8d c0
       -5.0139847 -4.6396885 -5.107961 -4.4288454
000100 e3 58 dc bf a6 06 a3 c0 ea 00 a7 c0 0e d3 92 c0
       -1.7214626 -5.0945616 -5.2188616 -4.5882635
000110 a1 07 9c c0 81 36 86 c0
       -4.8759313 -4.1941533

fc2.weight f4 [35, 70]
000000 eb cc 12 bf 67 10 2a bf 58 f8 2a c0 54 ce 4d bf
       -0.5734393 -0.6643128 -2.6714077 -0.80392957
000010 69 0d 2e bf a1 6b 50 c0 06 37 48 c0 83 e4 83 c0
       -0.6798921 -3.2565691 -3.1283584 -4.1216445
000020 6d 49 d4 be c2 68 71 c0 f9 0d b5 bf f4 99 2c bf
       -0.4146227 -3.772019 -1.4144889 -0.67422414
000030 18 0b f0 bf c7 45 4a bf 98 16 1b bf c7 c2 01 bf
       -1.8753386 -0.7901272 -0.6058135 -0.5068783
000040 8c 31 88 bf b9 21 80 bf 11 9b 48 bf ae 9b b5 be
       -1.064012 -1.0010291 -0.7836161 -0.35470337
000050 2e a4 52 c0 34 45 01 c0 4e 30 3a c0 fe 2a d0 be
       -3.2912707 -2.0198488 -2.9091983 -0.406578
000060 56 37 66 c0 1a f1 53 c0 ef ce 64 c0 ea f2 1f bf
       -3.5971274 -3.3115907 -3.5751302 -0.6248003
000070 ea 89 39 bf fb 74 7e bf b6 7b c3 be 48 7d 26 bf
       -0.72476065 -0.9939725 -0.3818032 -0.65034914
000080 1b 76 f0 be 7d d6 d6 be 59 12 b2 be 4d f2 25 c0
       -0.46965107 -0.41960517 -0.34779623 -2.5929139
000090 68 03 95 c0 82 ca e9 bf a6 f3 37 bf 11 42 0b bf
       -4.656666 -1.8264925 -0.71856153 -0.54397684
0000a0 28 99 dc be 7b df 69 bf fe cf 2c bf 1e f3 5b c0
       -0.430856 -0.9135663 -0.6750487 -3.4367137
0000b0 cb 78 9e be 51 52 1b c0 e5 91 a4 be 1a db 3e bf
       -0.30951533 -2.4268992 -0.3214256 -0.7455307
0000c0 b5 eb 61 c0 3f 5d c2 be 4d 21 a7 be b1 ae 08 c0
       -3.5300114 -0.37961766 -0.32642594 -2.1356623
0000d0 2f ff 34 bf e8 34 9e be 89 37 9d be 3b db 36 bf
       -0.7070188 -0.3089974 -0.30706432 -0.7142827
0000e0 4e 95 0b bf 33 37 52 c0 1f 53 00 bf 7e a9 ae be
       -0.54524696 -3.284619 -0.5012683 -0.34113687
0000f0 50 6b 16 bf 23 e3 8b bf 96 9d 30 bf 60 84 fa bf
       -0.58757496 -1.0928692 -0.6899046 -1.9571648
000100 bd 12 5f c0 64 12 d3 be 5a 81 dd be 33 5e e8 bf
       -3.4855187 -0.41224968 -0.4326275 -1.8153747
000110 19 29 0b bf a6 3e 14 c0 70 7b 3f bf a8 33 6d bf
       -0.54359585 -2.3163238 -0.74797726 -0.92656946
000120 f3 64 4a c0 fa a4 7c bf 98 19 4c bf 34 2f 93 c0
       -3.1624115 -0.98689234 -0.7972655 -4.599512
000130 7e 80 7b c0 31 1d 60 c0 fc 93 e6 be 81 bf a8 c0
       -3.9297175 -3.5017817 -0.45034778 -5.273377
000140 04 92 a5 bf 5d 69 6e bf 27 55 e9 bf 8e 02 57 bf
       -1.2935185 -0.9312952 -1.8229111 -0.83988273
000150 a5 ab 1e bf 4c 00 ae be 45 9d 82 bf 78 82 83 bf
       -0.6198066 -0.33984601 -1.0204245 -1.0274191
000160 21 12 80 bf 87 f3 a1 be 8f d8 92 c0 d3 31 04 c0
       -1.0005533 -0.3163111 -4.5889354 -2.065541
000170 b9 8f 69 c0 6d ec 8a be ea b2 a2 c0 e7 63 92 c0
       -3.6493971 -0.27133504 -5.08434 -4.574695
000180 55 cb 9b c0 96 3d 30 bf bc df 28 bf 72 eb 76 bf
       -4.868571 -0.6884397 -0.6596639 -0.9645301
000190 78 e8 e4 be 2f d0 57 bf 06 f6 23 bf c8 e5 c2 be
       -0.4470861 -0.8430204 -0.64047277 -0.38065934
0001a0 f5 3b 9d be 11 cf 19 c0 e1 9f 81 c0 f0 ba 0d c0
       -0.30709806 -2.4032633 -4.0507665 -2.2145348
0001b0 3f 01 76 bf b8 c3 75 bf 0d c7 0b bf 56 dc 58 bf
       -0.9609565 -0.9600177 -0.546006 -0.84711206
0001c0 d1 a7 2a bf 3a ad 98 c0 7c 98 bb be 69 02 34 c0
       -0.6666232 -4.771146 -0.36639774 -2.812647
0001d0 d4 49 cb be ba d7 62 bf 43 ae 9a c0 93 9d a8 be
       -0.39704764 -0.8861042 -4.833772 -0.3293272
0001e0 65 ef 92 be aa 58 0d c0 2c da 70 bf 2f 49 e0 be
       -0.2869827 -2.2085366 -0.94082904 -0.43805835
0001f0 32 6d 94 be 0e 23 6f bf 78 a5 89 bf f3 f8 87 c0
       -0.2898956 -0.93412864 -1.0753622 -4.2491393
000200 b0 ff da be f2 95 a1 be 6f ef 1e bf 09 8a 8c bf
       -0.427732 -0.31559712 -0.62084097 -1.0979625
000210 12 3b 38 bf cb 1e 01 c0 43 25 9c c0 fa 09 13 bf
       -0.71965134 -2.0175045 -4.8795485 -0.574371
000220 c1 ea e4 be e6 ce ec bf 44 72 88 bf 9c 8f 2f c0
       -0.44710353 -1.850064 -1.0659871 -2.7431402
000230 ad a9 2e bf aa 63 46 bf 28 dc 23 c0 21 a9 3f bf
       -0.68227655 -0.77495825 -2.5603123 -0.74867445
000240 4e 7c 42 bf 59 67 4b c0 22 80 31 c0 cb a0 87 c0
       -0.75970924 -3.1781828 -2.7734456 -4.238378
000250 8e 62 06 bf 75 49 51 c0 ac 7f 9d bf 89 7c 36 bf
       -0.5249413 -3.2701085 -1.2304587 -0.71283776
000260 3a 36 db bf a6 45 3a bf 6b 27 1c bf 5f 08 f9 be
       -1.7125924 -0.72762525 -0.6099765 -0.486392
000270 9a 12 64 bf d9 2f 83 bf d9 0a 87 bf b4 67 87 be
       -0.89090884 -1.0248977 -1.0550185 -0.26446307
000280 27 58 45 c0 d2 b0 ea bf 23 85 31 c0 ad 8d aa be
       -3.0835054 -1.8335211 -2.773751 -0.33311215
000290 f4 87 52 c0 28 24 40 c0 6c a2 56 c0 7d 6b 25 bf
       -3.289548 -3.0022068 -3.3536634 -0.6461714
0002a0 ef 35 49 bf 7d 3e 94 bf a8 21 dd be 7b 8e 46 bf
       -0.7859792 -1.158157 -0.4318974 -0.7756116
0002b0 62 1d 12 bf 72 7b 01 bf 46 16 8e be 90 e7 2e c0
       -0.57076085 -0.5057899 -0.27751368 -2.7328835
0002c0 2b 21 93 c0 ce 5a ef bf 0c 61 44 bf bb 63 1d bf
       -4.597799 -1.8699586 -0.7671058 -0.614803
0002d0 ef be ce be da d2 89 bf 27 49 0d bf 54 d7 43 c0
       -0.40380046 -1.0767472 -0.55189747 -3.0600176
0002e0 bf 30 c7 be 82 ce 1a c0 28 27 a8 be a4 72 17 bf
       -0.38904378 -2.4188542 -0.32842374 -0.591593
0002f0 58 68 4c c0 82 9b d2 be b9 18 98 be 84 90 f5 bf
       -3.1938686 -0.41134268 -0.29706362 -1.9184728
000300 81 21 18 bf cd d4 ff be cb 7f a5 be 60 42 19 bf
       -0.5942612 -0.49967042 -0.3232406 -0.59866905
000310 68 72 12 bf 65 d1 3c c0 6d dd ca be fa 0e b2 be
       -0.5720582 -2.9502804 -0.3962206 -0.3477705
000320 0f bd 34 bf 4e 0b a1 bf b2 62 2d bf 0c 86 e8 bf
       -0.7060098 -1.2581575 -0.6772872 -1.8165908
000330 e6 f1 4a c0 df 02 d4 be db a6 84 be 6c 4c e3 bf
       -3.1710143 -0.4140844 -0.2590855 -1.7757697
000340 5e 56 48 bf 06 15 16 c0 62 19 17 bf c3 c7 21 bf
       -0.78256786 -2.3450332 -0.59023106 -0.6319544
000350 9c cb ae bf a9 af 1f bf c7 b8 fc be e3 1a 87 bf
       -1.3655887 -0.6237741 -0.49359724 -1.055508
000360 56 1d c6 bf 43 d9 ef c0 77 a6 ba be dc 07 4b be
       -1.5477703 -7.495271 -0.36455128 -0.19827217
000370 8f cf 4c bf d6 ce 0d bf 0e 97 8e bf f8 fa 26 bf
       -0.8000421 -0.5539373 -1.1139848 -0.652267
000380 10 6b 04 bf b6 7f 93 be 29 90 19 bf 57 09 2d bf
       -0.51725864 -0.28808373 -0.59985596 -0.67592376
000390 47 d3 32 bf 13 56 79 be da b4 67 bf 64 02 a8 bf
       -0.69853634 -0.24349241 -0.9051033 -1.312573
0003a0 ae 5b ba bf e0 45 81 be 66 56 15 bf a8 9b 79 bf
       -1.4559228 -0.25248623 -0.5833496 -0.9750314
0003b0 6b 70 cf be 28 3e 0f bf ab ab 18 bf 08 44 29 bf
       -0.40515456 -0.5595422 -0.59636945 -0.6611943
0003c0 72 2d 6e be 9a 37 1a bf 99 f5 00 bf fe c7 a4 be
       -0.23259524 -0.6024109 -0.5037475 -0.32183832
0003d0 87 cb 79 be 7c 40 8d c0 3f 24 02 c1 90 0f 9a bf
       -0.24394046 -4.4141216 -8.133849 -1.2035999
0003e0 3e 55 13 bf c5 44 10 bf 72 66 9a be 0b 5a 32 bf
       -0.57551944 -0.56354934 -0.30156285 -0.69668645
0003f0 2d 6c 12 bf ef 4e 4f bf 90 de 68 be 33 00 c5 bf
       -0.57196313 -0.8097982 -0.22741151 -1.5390686

fc2.bias f4 [35]
000000 61 de 04 c1 53 af 07 c1 b6 d4 03 c1 42 33 a2 c0
       -8.304292 -8.480304 -8.239431 -5.068757
000010 cf 67 07 c1 a8 d6 7f c0 4e 67 a5 c0 b2 f5 04 c1
       -8.462844 -3.9974766 -5.1688604 -8.309984
000020 1f 53 95 c0 72 5a 8b bf 8f c2 06 c1 7a 60 2b c0
       -4.6663966 -1.0886977 -8.4225 -2.6777635
000030 b5 cb 08 c1 d3 5f 07 c1 79 67 06 c1 66 a6 36 c0
       -8.549733 -8.460895 -8.400262 -2.8539062
000040 6a dd 1c c0 b3 74 85 c0 9c f2 76 c0 2b e2 3d c0
       -2.451014 -4.1704955 -3.8585577 -2.9669292
000050 ff 5c 4f c0 65 42 09 c1 90 81 09 c1 62 c6 8b c0
       -3.240051 -8.57871 -8.594131 -4.3679667
000060 35 f1 01 c1 15 7a 99 c0 b3 4c 09 c1 00 63 08 c1
       -8.121388 -4.7961526 -8.581225 -8.52417
000070 99 21 d0 c0 10 6a e8 c0 e6 ef 06 c1 47 d5 7e c0
       -6.5041013 -7.262947 -8.433569 -3.9817674
000080 f1 bb 86 c0 ba da 04 c1 28 82 06 c1
       -4.210442 -8.3034 -8.406776

fc3.weight f4 [17, 35]
000000 cc 4e c6 c0 bb 39 bd c0 dc d9 b1 c0 19 9b 89 c0
       -6.1971188 -5.913297 -5.557844 -4.300183
000010 23 4d ce c0 62 43 bb c0 be 3a 34 c0 8b 7b c2 c0
       -6.446916 -5.8519754 -2.8160853 -6.077581
000020 98 28 96 c0 ac 8f 08 c1 30 b3 bd c0 02 ef e5 c0
       -4.6924553 -8.535076 -5.9281235 -7.1854258
000030 a0 aa b8 c0 c0 8e d2 c0 82 f2 d7 c0 b7 7e e3 c0
       -5.7708282 -6.5799255 -6.748353 -7.109218
000040 00 da eb c0 66 cf ac c0 1e 88 d7 c0 65 4c dc c0
       -7.3703613 -5.400317 -6.735366 -6.8843255
000050 79 ea e2 c0 9b 94 aa c0 93 11 bc c0 01 d0 9a c0
       -7.091122 -5.3306403 -5.8771453 -4.837891
000060 d7 5d c0 c0 df 49 63 c0 48 76 ba c0 24 31 9a c0
       -6.011455 -3.5513837 -5.8269386 -4.8184986
000070 0e 6c d2 c0 a3 b6 eb c0 19 81 c4 c0 d8 ae dd c0
       -6.5756903 -7.3660445 -6.140759 -6.927593
000080 26 47 9e c0 fa 56 b9 c0 02 cf d8 c0 de 99 c2 c0
       -4.946185 -5.7918673 -6.7752695 -6.0812826
000090 eb 88 be c0 b3 6c b1 c0 86 0d 86 c0 66 69 c8 c0
       -5.9542136 -5.544519 -4.189151 -6.262866
0000a0 15 55 ad c0 6b 1a 2e c0 f1 a0 bd c0 ab 0b 91 c0
       -5.416636 -2.7203624 -5.925896 -4.5326743
0000b0 c8 bc 04 c1 c9 c6 ba c0 67 43 e1 c0 0d 20 b4 c0
       -8.296089 -5.836766 -7.039478 -5.6289124
0000c0 8f 5b cc c0 89 d3 dd c0 4e b4 df c0 e2 3b e3 c0
       -6.3861766 -6.932072 -6.99076 -7.10106
0000d0 13 db a5 c0 f5 1a d1 c0 5f 79 d4 c0 1b b9 d3 c0
       -5.1829925 -6.5345407 -6.639816 -6.616346
0000e0 3d d4 aa c0 4d 13 b4 c0 35 29 9b c0 f7 03 b9 c0
       -5.338408 -5.627356 -4.84878 -5.781734
0000f0 91 0f 54 c0 0b 00 b1 c0 65 c4 90 c0 e3 0c d3 c0
       -3.31345 -5.5312552 -4.523974 -6.595323
000100 92 d5 e6 c0 f5 b6 c2 c0 fa c5 d5 c0 a0 66 93 c0
       -7.2135706 -6.0848336 -6.680417 -4.6062775
000110 ca e3 b2 c0 c2 85 d6 c0 6b b2 62 c0 84 f4 65 c0
       -5.5903063 -6.703828 -3.5421398 -3.593049
000120 86 8f 47 c0 c8 6a 27 c0 11 db 55 c0 5d 94 9a c0
       -3.118135 -2.6158924 -3.3414958 -4.8306108
000130 b4 79 a3 bf 5b 60 5b c0 cc ca 1b c0 49 2d 9c c0
       -1.2771516 -3.427756 -2.4342527 -4.880528
000140 19 5f 5c c0 9a 27 d0 c0 19 0e 4e c0 cf 6b 69 c0
       -3.4433043 -6.504834 -3.2196105 -3.647205
000150 6b 20 75 c0 e1 50 d3 c0 2a ff ce c0 f1 58 8e c0
       -3.8301036 -6.603623 -6.468648 -4.448357
000160 24 f7 26 c0 f7 2f c7 c0 60 6a b6 c0 ec fb 3c c0
       -2.6088343 -6.224605 -5.700485 -2.952876
000170 df 46 5d c0 61 7a 75 c0 1e a5 49 c0 bb 09 da bf
       -3.4574506 -3.8355944 -3.150703 -1.703422
000180 26 f3 55 c0 9f 71 2f c0 c9 42 77 c0 0f 03 6a c0
       -3.3429656 -2.74131 -3.8634512 -3.6564367
000190 86 4b 67 c0 00 df 77 c0 be 97 8b c0 5f 06 3f c0
       -3.6139846 -3.8729858 -4.362273 -2.9847639
0001a0 2a c3 69 c0 04 93 a2 c0 bc f1 9e c0 23 99 93 c0
       -3.6525369 -5.0804462 -4.9670086 -4.6124434
0001b0 ba d9 5a c0 29 84 b4 c0 b7 34 a1 c0 bc c8 05 c0
       -3.419539 -5.641133 -5.037685 -2.0903769
0001c0 c4 64 a1 c0 8f 4e 5e c0 16 cb dd c0 95 c1 9e c0
       -5.0435505 -3.4735448 -6.931041 -4.9611306
0001d0 45 06 d2 c0 b1 21 91 c0 4c 7a a7 c0 3b 00 bf c0
       -6.5632653 -4.5353627 -5.233679 -5.968778
0001e0 aa a4 c0 c0 41 cb d3 c0 cb 2d 89 c0 c8 4d a8 c0
       -6.0201006 -6.6185613 -4.28684 -5.259495
0001f0 72 d5 af c0 0f 6b b8 c0 52 fb 88 c0 32 36 94 c0
       -5.4948053 -5.7630687 -4.2806787 -4.6316156
000200 d8 cc 81 c0 1b c4 98 c0 03 54 22 c0 47 11 95 c0
       -4.0562553 -4.7739387 -2.5363777 -4.658359
000210 71 3c 83 c0 dc c5 b2 c0 6c 50 c3 c0 ab 0a a2 c0
       -4.101128 -5.5866528 -6.103567 -5.0638022
000220 87 cf b9 c0 5d 83 86 c0 9d 37 98 c0 ab 71 bc c0
       -5.806583 -4.2035356 -4.7567887 -5.8888755
000230 03 ee 51 bf 99 55 28 be 04 26 7d bf ed 32 48 c0
       -0.820038 -0.16438903 -0.9888613 -3.1281083
000240 31 52 f7 be 98 8d d9 bf 7a 84 44 c0 da 14 61 bf
       -0.48304895 -1.6996336 -3.0705857 -0.8792244
000250 23 f2 53 c0 5f ba 85 40 e6 82 a6 bd d2 e1 16 c0
       -3.3116539 4.1790004 -0.08130436 -2.357533
000260 74 d7 13 bf 55 ca 8e be ef de 13 bf c5 29 3b c0
       -0.5775063 -0.27888742 -0.57762045 -2.9244244
000270 fd 61 12 c0 91 4c 08 c0 43 9d 52 c0 e4 33 1d c0
       -2.2872307 -2.1296732 -3.2908485 -2.4562922
000280 cc 75 e5 bf 1b c9 1a bf 5a 2c bb be aa df 38 c0
       -1.7926574 -0.6046311 -0.36557275 -2.8886514
000290 26 27 8d bf d2 f3 4f c0 fd 3c 84 be f7 f1 50 bf
       -1.1027572 -3.2492566 -0.2582778 -0.8161921
0002a0 9e 2f a4 3f d1 7c d6 bf a7 79 26 bf 7a 30 38 40
       1.2827032 -1.6756841 -0.65029377 2.8779588
0002b0 f8 5a fa bf a0 d2 71 bf 06 17 12 bf 3e 34 b4 c0
       -1.9559011 -0.94462013 -0.5706638 -5.631377
0002c0 65 49 b3 c0 a1 68 a0 c0 68 89 65 c0 a5 f8 bf c0
       -5.6027093 -5.012772 -3.5865116 -5.999102
0002d0 fb a4 9e c0 e6 7c 13 c0 1b 58 b4 c0 df ba 85 c0
       -4.957639 -2.3044982 -5.635755 -4.1790614
0002e0 17 58 f0 c0 ea 05 ae c0 b4 8e d4 c0 2b 6b a0 c0
       -7.510753 -5.438222 -6.64242 -5.013082
0002f0 2e 69 bb c0 ba 69 cc c0 32 bc d1 c0 35 79 d7 c0
       -5.8565893 -6.387906 -6.554223 -6.733546
000300 52 60 95 c0 bc c5 bd c0 5b 8f c8 c0 40 69 bd c0
       -4.668008 -5.9303875 -6.2674994 -5.919098
000310 c1 fd 96 c0 1c 6b a7 c0 f7 c9 8c c0 45 5b af c0
       -4.718476 -5.231825 -4.399654 -5.4798913
000320 ce 17 32 c0 a6 2a a9 c0 c8 3c 8a c0 0d 30 bf c0
       -2.782703 -5.286456 -4.3199196 -5.9746156
000330 25 bd d4 c0 b0 2d ad c0 95 5f c2 c0 dd 83 8b c0
       -6.648089 -5.411827 -6.0741677 -4.3598466
000340 b9 ed 9f c0 c6 e0 c7 c0 41 fe a3 c0 0b 7e 9b c0
       -4.997769 -6.246188 -5.124787 -4.859136
000350 37 c8 8d c0 f8 1c 55 c0 d0 5f a8 c0 20 f5 97 c0
       -4.4306903 -3.329893 -5.261696 -4.7486725
000360 f3 22 f7 bf 94 1b a0 c0 bf 15 5a c0 ba 0f df c0
       -1.9307541 -5.0033665 -3.4075773 -6.9706697
000370 01 61 9b c0 5d 19 cb c0 6e a7 92 c0 de f9 ad c0
       -4.8555913 -6.346846 -4.582938 -5.4367514
000380 7d e9 ba c0 11 44 c1 c0 08 ab c5 c0 b6 56 8e c0
       -5.841002 -6.039559 -6.177128 -4.448085
000390 1b 68 a0 c0 e5 06 b2 c0 2b 0e b2 c0 44 04 90 c0
       -5.012708 -5.5633416 -5.5642295 -4.5005207
0003a0 08 c1 90 c0 c9 43 7b c0 7d 55 93 c0 7b dc 23 c0
       -4.5235634 -3.9260123 -4.6041856 -2.560332
0003b0 b9 65 95 c0 4b 79 71 c0 a2 e3 af c0 69 7d b8 c0
       -4.6686673 -3.7730281 -5.496537 -5.765309
0003c0 fa 5b a2 c0 4f 45 b4 c0 ff 72 80 c0 6f 40 9a c0
       -5.0737276 -5.6334605 -4.0140376 -4.8203654
0003d0 e9 17 b6 c0 1f 87 a3 c0 2f b7 98 c0 60 35 94 c0
       -5.6904187 -5.1102443 -4.7723613 -4.6315155
0003e0 58 83 4c c0 74 0e ad c0 fb a9 95 c0 4b b9 fe bf
       -3.1955166 -5.4080143 -4.6769996 -1.9900297
0003f0 05 25 9f c0 91 16 70 c0 44 23 dd c0 5a 26 a0 c0
       -4.973269 -3.7513773 -6.910555 -5.0046816

fc3.bias f4 [17]
000000 62 91 e5 c0 47 6d f6 c0 1e b7 0a c1 9b 96 0b c1
       -7.173997 -7.7008395 -8.669706 -8.724269
000010 47 da 53 c0 f3 e5 05 c1 81 37 0f c1 d6 43 0f c1
       -3.3101976 -8.36864 -8.951051 -8.9540615
000020 06 3f 0f c1 f2 76 0d c1 d8 9b 07 c1 4b a2 0b c1
       -8.952887 -8.841539 -8.475548 -8.727122
000030 db 9b 0a c1 4c d9 1a c1 56 39 08 c1 9b d9 0d c1
       -8.663051 -9.678051 -8.513998 -8.865626
000040 cb 36 00 c1
       -8.013377

output.weight f4 [1, 17]
000000 dd 9c 8e 40 e8 7e 89 40 46 d3 7c 40 5d b9 6a 40
       4.4566483 4.2967415 3.950395 3.6675637
000010 56 77 06 40 10 52 7c 40 77 55 67 40 72 f0 6a 40
       2.1010337 3.9425087 3.6145914 3.6709256
000020 2f 4d 6e 40 d9 3f 73 40 49 fe 82 40 cf d7 79 40
       3.723461 3.800772 4.0935407 3.903797
000030 1b f2 7c 40 1f 00 4a 40 b8 f6 81 40 c8 60 73 40
       3.952277 3.1562574 4.061367 3.802782
000040 00 c5 81 40
       4.055298
