training_nn/model/order3_dynamiclr/Theta_net_ep5.pth (torch, 25366 bytes, 7 tensors)

fc1.weight f4 [70, 35]
0	0xc0a379ae	-5.1086035
1	0x401a4de1	2.4110034
2	0xbd5010bc	-0.05079721
3	0xbd953f01	-0.07287408
4	0xbfcdca07	-1.6077279
5	0xbd3dc126	-0.04632678
6	0x3d3e8524	0.04651369
7	0xbe2f48b2	-0.17117575
8	0xbe095d3d	-0.13414474
9	0x3d81250a	0.06305893
10	0x41668ba7	14.409095
11	0xbe541355	-0.207105
12	0x3e16192b	0.14658038
13	0x3da77a38	0.08177608
14	0x3dc3b6d1	0.09556354
15	0x3db06170	0.08612335
16	0xbd680eb4	-0.056654647
17	0x3ba33c55	0.0049815574
18	0xbd227ba6	-0.0396687
19	0x3d828cf9	0.06374545
20	0x3f8cd2b0	1.1001797
21	0xbded4d4e	-0.1158701
22	0xbda68898	-0.08131522
23	0x3e09614d	0.13416024
24	0xbd916618	-0.07099551
25	0x3da968bc	0.082719296
26	0xbfb3bf02	-1.4042666
27	0x3e147473	0.14497547
28	0xbdee9ff4	-0.116516024
29	0xbdf9c687	-0.12196069
30	0xbf142662	-0.5787107
31	0xbd8a7e8f	-0.067624204
32	0xbd283bf0	-0.041072786
33	0x3e20320d	0.15644093
34	0x3f88b703	1.0680851
35	0xc0a22235	-5.0666757
36	0x40b960d4	5.79307
37	0xbea8646f	-0.32889125
38	0xbde834cd	-0.11338196
39	0xc07b750d	-3.9290192
40	0x3df0b5b1	0.11753405
41	0x3c3ae364	0.011406753
42	0x3d042295	0.032259542
43	0x3b943cbf	0.004523843
44	0x3c8bf362	0.017083827
45	0x418f30f2	17.8989
46	0xbf6509c6	-0.8946804
47	0xbd9fcabc	-0.078023404
48	0x3f220702	0.63291943
49	0x3c97e201	0.018540384
50	0x3d9b2bc5	0.07576708
51	0x3ee36621	0.44413856
52	0xbdaaea5b	-0.08345481
53	0xbdd11f8b	-0.102110945
54	0xbb213a73	-0.002460149
55	0x3fbdfee3	1.484341
56	0xbe5bcbaa	-0.2146441
57	0x3d1bf837	0.038078513
58	0x3e0d4707	0.13796626
59	0xbdeb1b96	-0.11479871
60	0x3bb4c4e1	0.005516634
61	0xc0165d6c	-2.349452
62	0xbd025100	-0.03181553
63	0xbe1883f6	-0.14894089
64	0xbdce9818	-0.10087603
65	0xbf363456	-0.7117361
66	0x3e30a88e	0.17251799
67	0xbeb4da1f	-0.35322663
68	0x3f458116	0.77150095
69	0x40199f12	2.400334
70	0xc068a99b	-3.635352
71	0xc15b5882	-13.709108
72	0xbd3f3444	-0.046680704
73	0x3e3f36c0	0.18673229
74	0x416a6b59	14.651208
75	0x40272e51	2.612202
76	0xbdef7e0a	-0.11693962
77	0xc09a94fa	-4.8306856
78	0xbe0b173b	-0.1358308
79	0x3dc2da8c	0.09514341
80	0x4253f4e7	52.989162
81	0xc17c427f	-15.766234
82	0x3e4b220c	0.19837207
83	0x4160706e	14.027449
84	0x3e300652	0.17189911
85	0xbdcd64e4	-0.10029009
86	0x40bca435	5.895045
87	0x3de0ef25	0.10983113
88	0xbdb19877	-0.086716585
89	0x3dee81f4	0.1164588
90	0x3e875e9b	0.26439366
91	0xbe07f9c5	-0.13278873
92	0x3e19ef2b	0.15032642
93	0xbfff6c69	-1.9954959
94	0x3d46af61	0.048507098
95	0x3ee25e83	0.44212732
96	0xc130d13b	-11.051082
97	0x3e7bf683	0.24605756
98	0xbe8f0fd3	-0.2794176
99	0xbdc74336	-0.09729616
100	0x403a0e8e	2.9071383
101	0x3eb93992	0.36176735
102	0x4008a141	2.1348422
103	0x40d0fa8d	6.530585
104	0x41012830	8.072311
105	0xc09b0b21	-4.8451085
106	0x4086788a	4.2022142
107	0xbea2fb60	-0.3183241
108	0xbd1ffaee	-0.039057665
109	0xbfe89cd4	-1.817286
110	0x3f1bc93e	0.60853946
111	0xbde7b95d	-0.11314652
112	0xbebbbcac	-0.36667383
113	0x3de3e8fc	0.111284226
114	0xbe15622f	-0.14588235
115	0x41badd56	23.358074
116	0xc0481880	-3.1264954
117	0x3df9488d	0.12172041
118	0x40082a89	2.1275961
119	0xbcbab70b	-0.02279236
120	0x3dffed2b	0.12496408
121	0x3fd42788	1.6574564
122	0x3de94626	0.11390333
123	0x3d47f2f2	0.048815675
124	0xbd6bf4a4	-0.057606354
125	0x3fa6b228	1.3023119
126	0xbda0dfd8	-0.07855195
127	0xbdce299d	-0.10066531
128	0x3d9c9f3e	0.076475605
129	0xbe01a3c4	-0.12660128
130	0x3e5479da	0.20749608
131	0xc08fdfba	-4.4960604
132	0x3dae1cc4	0.0850158
133	0xbcd22af0	-0.02565524
134	0x3e0627df	0.13101147
135	0x3eb1216f	0.3459582
136	0x3e426e20	0.18987322
137	0xbeac7990	-0.33686495
138	0x3fc03be6	1.501828
139	0x4074f8ad	3.827678
140	0xc0a5afae	-5.1776953
141	0x3f4c4e42	0.7980691
142	0xbe144aeb	-0.14481704
143	0x3c1e0e46	0.009646958
144	0x3ec1871e	0.377984
145	0x3ced5bd4	0.028974451
146	0xbd589b67	-0.05288258
147	0xbe13c1c9	-0.14429392
148	0xbd27a332	-0.04092712
149	0x3d593deb	0.053037565
150	0x3f9915dd	1.1959797
151	0x3e5712c7	0.21003257
152	0xbe113d84	-0.14183623
153	0xbd74fc8f	-0.05981117
154	0xbdc336a9	-0.0953191
155	0xbdf174db	-0.117898665
156	0xbea18933	-0.31549987
157	0xbd99c9e3	-0.0750921
158	0xbaa238ea	-0.0012376581
159	0xbe231947	-0.15927611
160	0x3fbbcad5	1.4671274
161	0x3dcc210b	0.0996724
162	0x3dd39b78	0.10332388
163	0xbd335371	-0.043780748
164	0xbd3643d9	-0.0444983
165	0x3df94296	0.121709034
166	0x3e9e170e	0.30876964
167	0xbd883202	-0.06650163
168	0x3dbb9b23	0.09160449
169	0xbdce57d8	-0.100753486
170	0xc02e3dd7	-2.7225244
171	0x3da4fd83	0.08056166
172	0x3e933b6f	0.28756282
173	0xbe17f15d	-0.14838167
174	0x3e9343d6	0.28762692
175	0xbfee2bb3	-1.8607086
176	0xc190e727	-18.112867
177	0x3ff9cd4d	1.9515778
178	0x3e7ebf58	0.2487768
179	0x419afabc	19.372429
180	0x4046875e	3.1020122
181	0x3da6b970	0.08140838
182	0xbfb38902	-1.4026186
183	0x3d8bf821	0.06834436
184	0x3cd6bd0b	0.02621319
185	0x428568a5	66.704384
186	0xc1d85668	-27.04219
187	0x3e076c82	0.13224986
188	0x41c67052	24.804844
189	0x3e0629c3	0.13101868
190	0xbe363752	-0.1779454
191	0x41133118	9.199486
192	0x3bfd8163	0.0077363714
193	0x3e22936b	0.15876548
194	0x3def319a	0.116793826
195	0x3df8d8dd	0.121507384
196	0xc0e338f1	-7.100701
197	0xbe07b990	-0.1325438
198	0xc0f46dcc	-7.638403
199	0xbc3ba375	-0.011452545
200	0x3f564767	0.837027
201	0xc169d381	-14.614137
202	0x3e6155b4	0.2200535
203	0xbf66284c	-0.8990524
204	0xbe046e7a	-0.12932768
205	0x4060ca7c	3.5123587
206	0x4086446b	4.195852
207	0x4140fe6d	12.062116
208	0x4121474b	10.0799055
209	0x4107ef70	8.495956
210	0xc027cc91	-2.6218607
211	0xc1919af6	-18.200665
212	0x3f51ef15	0.82005435
213	0x3de05609	0.1095391
214	0x418f56a2	17.917301
215	0x40476f95	3.1161854
216	0xbe1dd73d	-0.15414138
217	0xc085a154	-4.1759434
218	0xbd63d505	-0.055623073
219	0xbcc4c294	-0.024018563
220	0x4279cc54	62.44954
221	0xc1a16a52	-20.176914
222	0x3e42f3a0	0.19038248
223	0x41938653	18.440588
224	0x3de04f99	0.10952682
225	0xbd532416	-0.051548086
226	0x40e25dee	7.073966
227	0xbe6dc134	-0.23218232
228	0xbd2a05c6	-0.041509412
229	0xbd043246	-0.032274507
230	0x3ee4333f	0.44570348
231	0xc02de1ec	-2.7169142
232	0x3e19e59a	0.15028992
233	0xc095f143	-4.685701
234	0x3db4c0f8	0.08825868
235	0x3f32a79a	0.6978699
236	0xc1483b9b	-12.514552
237	0x3eb2ea57	0.34944412
238	0xbf0824ac	-0.53180957
239	0xbe64dd2f	-0.2235
240	0x4036e0a3	2.8574607
241	0x3fc1c272	1.5137465
242	0x40c1a72a	6.051656
243	0x4102f74c	8.185375
244	0x410b7820	8.716827
245	0xbf99750d	-1.1988846
246	0xc19834cc	-19.02578
247	0x41799c40	15.600647
248	0x3c6ad408	0.014332779
249	0x41a647ed	20.78512
250	0xc1858da8	-16.694168
251	0x3eca00cb	0.3945373
252	0xc111bc15	-9.108418
253	0xbe2598ba	-0.16171542
254	0x3ecbb71c	0.3978814
255	0xc25eff17	-55.74911

fc1.bias f4 [70]
0	0xc09dfacf	-4.9368663
1	0xc097f590	-4.748726
2	0xc06d5330	-3.7082024
3	0xc096a606	-4.7077665
4	0xc0a0e45c	-5.027876
5	0xbffdd181	-1.982956
6	0xc01d7c50	-2.4607124
7	0xbf85ca28	-1.0452318
8	0xc0a60169	-5.187672
9	0xbfd31dec	-1.6493506
10	0xc09267a5	-4.575152
11	0xc09ee70d	-4.9657044
12	0xc092f338	-4.59219
13	0xc0a0a504	-5.0201435
14	0xc0a98b83	-5.2982802
15	0xc0a0ad08	-5.021122
16	0xc098812e	-4.765769
17	0xc095e254	-4.683878
18	0xc0929ae0	-4.5814056
19	0xc0a4052e	-5.1256323
20	0xbffc5e46	-1.971627
21	0xc08dbcf3	-4.429315
22	0xc024995f	-2.571861
23	0xc0a26795	-5.0751443
24	0xbfcff17a	-1.6245568
25	0xbfdad745	-1.7096945
26	0xbfe2f8a9	-1.7732135
27	0xc09d4ed3	-4.915872
28	0xc0a1e409	-5.0590863
29	0xc09a3c5f	-4.8198695
30	0xc0a73646	-5.225375
31	0xc09902c3	-4.781587
32	0xc0a32b93	-5.099069
33	0xc0a6e7d1	-5.215798
34	0xc0a558da	-5.167096
35	0xbfbdb1e4	-1.4819913
36	0xbf8987fd	-1.0744625
37	0xc08e564e	-4.4480352
38	0xc0a1cbb6	-5.056117
39	0xc098d593	-4.776071
40	0xc0a56fde	-5.1699057
41	0xc094df45	-4.6522546
42	0xc0a03e95	-5.0076394
43	0xbfe87c99	-1.8163024
44	0xc0a44c8b	-5.1343436
45	0xc081ed3c	-4.0602093
46	0xc0a3852e	-5.1100073
47	0xc0a08f3f	-5.017486
48	0xbfe963dc	-1.82336
49	0xc0a1d3ca	-5.057103
50	0xc09f8e93	-4.986154
51	0xc08c0ccd	-4.3765626
52	0xc0a0dc81	-5.026917
53	0xc0a78398	-5.2348137
54	0xc0a5224a	-5.1604357
55	0xc0a4c5c5	-5.149142
56	0xc09a4166	-4.820483
57	0xbfda539d	-1.7056767
58	0xc0a53422	-5.162614
59	0xc0a7eac3	-5.2474074
60	0xc0a07438	-5.014187
61	0xc0947803	-4.63965
62	0xc0a374dc	-5.108015
63	0xc08da481	-4.426331
64	0xbfdc0c58	-1.7191267
65	0xc0a30647	-5.0945163
66	0xc0a7007f	-5.2188106
67	0xc092c550	-4.586586
68	0xc09c1914	-4.8780613
69	0xc0861112	-4.189584

fc2.weight f4 [35, 70]
0	0xbf12cceb	-0.5734393
1	0xbf2a1067	-0.6643128
2	0xc02af858	-2.6714077
3	0xbf4dce54	-0.80392957
4	0xbf2e0d69	-0.6798921
5	0xc05069ea	-3.2564645
6	0xc048383e	-3.1284328
7	0xc083ffa3	-4.1249557
8	0xbed4496d	-0.4146227
9	0xc071671f	-3.771919
10	0xbfb50df9	-1.4144889
11	0xbf2c99f4	-0.67422414
12	0xbff00b18	-1.8753386
13	0xbf4a45c7	-0.7901272
14	0xbf1b1698	-0.6058135
15	0xbf01c2c7	-0.5068783
16	0xbf88318c	-1.064012
17	0xbf8021b9	-1.0010291
18	0xbf489b11	-0.7836161
19	0xbeb59bae	-0.35470337
20	0xc052a3b5	-3.291242
21	0xc0014534	-2.0198488
22	0xc03a30f5	-2.909238
23	0xbed02afe	-0.406578
24	0xc0663442	-3.5969396
25	0xc053eddd	-3.311393
26	0xc064cc81	-3.574982
27	0xbf1ff2ea	-0.6248003
28	0xbf3989ea	-0.72476065
29	0xbf7e74fb	-0.9939725
30	0xbec37bb6	-0.3818032
31	0xbf267d48	-0.65034914
32	0xbef0761b	-0.46965107
33	0xbed6d67d	-0.41960517
34	0xbeb21259	-0.34779623
35	0xc0263ac0	-2.5973358
36	0xc0951880	-4.6592407
37	0xbfe9ca82	-1.8264925
38	0xbf37f3a6	-0.71856153
39	0xbf0b4211	-0.54397684
40	0xbedc9928	-0.430856
41	0xbf69df7b	-0.9135663
42	0xbf2ccffe	-0.6750487
43	0xc05bf029	-3.4365332
44	0xbe9e78cb	-0.30951533
45	0xc01b5251	-2.4268992
46	0xbea491e5	-0.3214256
47	0xbf3edb1a	-0.7455307
48	0xc061ea15	-3.5299122
49	0xbec25d3f	-0.37961766
50	0xbea7214d	-0.32642594
51	0xc008aeb1	-2.1356623
52	0xbf34ff2f	-0.7070188
53	0xbe9e34e8	-0.3089974
54	0xbe9d3789	-0.30706432
55	0xbf36db3b	-0.7142827
56	0xbf0b954e	-0.54524696
57	0xc0523326	-3.2843719
58	0xbf00531f	-0.5012683
59	0xbeaea97e	-0.34113687
60	0xbf166b50	-0.58757496
61	0xbf8be323	-1.0928692
62	0xbf309d96	-0.6899046
63	0xbffa8460	-1.9571648
64	0xc05f0f4b	-3.4853084
65	0xbed31264	-0.41224968
66	0xbedd815a	-0.4326275
67	0xbfe85e33	-1.8153747
68	0xbf0b2919	-0.54359585
69	0xc0143ea6	-2.3163238
70	0xbf3f7b70	-0.74797726
71	0xbf6d33a8	-0.92656946
72	0xc04a64f3	-3.1624115
73	0xbf7ca4fa	-0.98689234
74	0xbf4c1998	-0.7972655
75	0xc0933048	-4.5996437
76	0xc07b808d	-3.929721
77	0xc0604d7a	-3.5047288
78	0xbee693fc	-0.45034778
79	0xc0a8c068	-5.273487
80	0xbfa59204	-1.2935185
81	0xbf6e695d	-0.9312952
82	0xbfe95527	-1.8229111
83	0xbf57028e	-0.83988273
84	0xbf1eaba5	-0.6198066
85	0xbeae004c	-0.33984601
86	0xbf829d45	-1.0204245
87	0xbf838278	-1.0274191
88	0xbf801221	-1.0005533
89	0xbea1f387	-0.3163111
90	0xc092d957	-4.5890307
91	0xc00431d3	-2.065541
92	0xc0698fc0	-3.6493988
93	0xbe8aec6d	-0.27133504
94	0xc0a2b380	-5.0844116
95	0xc092655f	-4.5748744
96	0xc09bccbc	-4.868742
97	0xbf303d96	-0.6884397
98	0xbf28dfbc	-0.6596639
99	0xbf76eb72	-0.9645301
100	0xbee4e878	-0.4470861
101	0xbf57d02f	-0.8430204
102	0xbf23f606	-0.64047277
103	0xbec2e5c8	-0.38065934
104	0xbe9d3bf5	-0.30709806
105	0xc01a0737	-2.4066904
106	0xc081b2c8	-4.053074
107	0xc00dbaf0	-2.2145348
108	0xbf76013f	-0.9609565
109	0xbf75c3b8	-0.9600177
110	0xbf0bc70d	-0.546006
111	0xbf58dc56	-0.84711206
112	0xbf2aa7d1	-0.6666232
113	0xc098ae89	-4.7713056
114	0xbebb987c	-0.36639774
115	0xc0340269	-2.812647
116	0xbecb49d4	-0.39704764
117	0xbf62d7ba	-0.8861042
118	0xc09aafeb	-4.8339744
119	0xbea89d93	-0.3293272
120	0xbe92ef65	-0.2869827
121	0xc00d58aa	-2.2085366
122	0xbf70da2c	-0.94082904
123	0xbee0492f	-0.43805835
124	0xbe946d32	-0.2898956
125	0xbf6f230e	-0.93412864
126	0xbf89a578	-1.0753622
127	0xc087fa2d	-4.249289
128	0xbedaffb0	-0.427732
129	0xbea195f2	-0.31559712
130	0xbf1eef6f	-0.62084097
131	0xbf8c8a09	-1.0979625
132	0xbf383b12	-0.71965134
133	0xc0011ecb	-2.0175045
134	0xc09c2687	-4.879703
135	0xbf1309fa	-0.574371
136	0xbee4eac1	-0.44710353
137	0xbfeccee6	-1.850064
138	0xbf887244	-1.0659871
139	0xc02f8f9c	-2.7431402
140	0xbf2ea9ad	-0.68227655
141	0xbf4663aa	-0.77495825
142	0xc023dc28	-2.5603123
143	0xbf3fa921	-0.74867445
144	0xbf427c4e	-0.75970924
145	0xc04b6486	-3.1780105
146	0xc0318076	-2.7734656
147	0xc087ba3a	-4.2414827
148	0xbf06628e	-0.5249413
149	0xc05147e9	-3.270014
150	0xbf9d7fac	-1.2304587
151	0xbf367c89	-0.71283776
152	0xbfdb363a	-1.7125924
153	0xbf3a45a6	-0.72762525
154	0xbf1c276b	-0.6099765
155	0xbef9085f	-0.486392
156	0xbf64129a	-0.89090884
157	0xbf832fd9	-1.0248977
158	0xbf870ad9	-1.0550185
159	0xbe8767b4	-0.26446307
160	0xc04556c0	-3.0834198
161	0xbfeab0d2	-1.8335211
162	0xc031864d	-2.773822
163	0xbeaa8dad	-0.33311215
164	0xc05283e3	-3.2892997
165	0xc0402199	-3.0020506
166	0xc056a1cf	-3.353626
167	0xbf256b7d	-0.6461714
168	0xbf4935ef	-0.7859792
169	0xbf943e7d	-1.158157
170	0xbedd21a8	-0.4318974
171	0xbf468e7b	-0.7756116
172	0xbf121d62	-0.57076085
173	0xbf017b72	-0.5057899
174	0xbe8e1646	-0.27751368
175	0xc02f307c	-2.7373343
176	0xc0933456	-4.6001387
177	0xbfef5ace	-1.8699586
178	0xbf44610c	-0.7671058
179	0xbf1d63bb	-0.614803
180	0xbecebeef	-0.40380046
181	0xbf89d2da	-1.0767472
182	0xbf0d4927	-0.55189747
183	0xc043d540	-3.0598907
184	0xbec730bf	-0.38904378
185	0xc01ace82	-2.4188542
186	0xbea82728	-0.32842374
187	0xbf1772a4	-0.591593
188	0xc04c675d	-3.1938088
189	0xbed29b82	-0.41134268
190	0xbe9818b9	-0.29706362
191	0xbff59084	-1.9184728
192	0xbf182181	-0.5942612
193	0xbeffd4cd	-0.49967042
194	0xbea57fcb	-0.3232406
195	0xbf194260	-0.59866905
196	0xbf127268	-0.5720582
197	0xc03ccdf0	-2.9500694
198	0xbecadd6d	-0.3962206
199	0xbeb20efa	-0.3477705
200	0xbf34bd0f	-0.7060098
201	0xbfa10b4e	-1.2581575
202	0xbf2d62b2	-0.6772872
203	0xbfe8860c	-1.8165908
204	0xc04aee73	-3.1708038
205	0xbed402df	-0.4140844
206	0xbe84a6db	-0.2590855
207	0xbfe34c6c	-1.7757697
208	0xbf48565e	-0.78256786
209	0xc0161506	-2.3450332
210	0xbf171fcd	-0.590329
211	0xbf21d39d	-0.6321352
212	0xbfaec7c4	-1.3654714
213	0xbf1fbdda	-0.62399065
214	0xbefcbae5	-0.4936134
215	0xbf867d12	-1.0506918
216	0xbfc5bbd4	-1.5447946
217	0xc0ef54c1	-7.479096
218	0xbebaac18	-0.36459422
219	0xbe5417ac	-0.20712155
220	0xbf4cd920	-0.80018806
221	0xbf0dd795	-0.5540708
222	0xbf8e99fd	-1.1140743
223	0xbf26fc1c	-0.6522844
224	0xbf046ba1	-0.5172673
225	0xbe93861d	-0.28813258
226	0xbf199bd2	-0.6000339
227	0xbf2d132e	-0.6760739
228	0xbf32def9	-0.6987148
229	0xbe795dfe	-0.24352261
230	0xbf67ca3e	-0.9054297
231	0xbfa805a2	-1.3126719
232	0xbfba0815	-1.4533716
233	0xbe814ae6	-0.25252455
234	0xbf15bc83	-0.5849077
235	0xbf789694	-0.97104764
236	0xbed2357e	-0.41056436
237	0xbf0f4540	-0.5596504
238	0xbf18b391	-0.59648997
239	0xbf294ecb	-0.66135854
240	0xbe6e3507	-0.23262416
241	0xbf1a45c5	-0.6026271
242	0xbf00fa9c	-0.503824
243	0xbea4cf38	-0.32189345
244	0xbe79d349	-0.24397005
245	0xc08c5c2d	-4.386252
246	0xc101fc1e	-8.124052
247	0xbf9a130a	-1.203706
248	0xbf135683	-0.5755388
249	0xbf1052d7	-0.56376404
250	0xbe9a6a27	-0.30159113
251	0xbf326343	-0.6968271
252	0xbf12738d	-0.57207566
253	0xbf4f99b3	-0.810939
254	0xbe68e9fc	-0.22745508
255	0xbfc4fec0	-1.5390244

fc2.bias f4 [35]
0	0xc104fb22	-8.311312
1	0xc107d239	-8.488824
2	0xc103ed17	-8.245383
3	0xc0a26a34	-5.0754642
4	0xc1078680	-8.470337
5	0xc07f5f73	-3.9902008
6	0xc0a59093	-5.173898
7	0xc10512d7	-8.3171
8	0xc095a178	-4.6759605
9	0xbf8b55b6	-1.0885532
10	0xc106e2f2	-8.430407
11	0xc02b2795	-2.674291
12	0xc108eb75	-8.557485
13	0xc10780f5	-8.468984
14	0xc1068829	-8.408242
15	0xc0369628	-2.8529148
16	0xc01caa34	-2.4478884
17	0xc08588af	-4.172935
18	0xc077e2cb	-3.8732173
19	0xc03d9ee9	-2.962824
20	0xc04f1723	-3.2357872
21	0xc10960ab	-8.586101
22	0xc109a161	-8.601899
23	0xc08c0d1b	-4.3766
24	0xc1020d36	-8.128225
25	0xc099b7b0	-4.803673
26	0xc1096efb	-8.589595
27	0xc108802c	-8.531292
28	0xc0d01fe4	-6.503893
29	0xc0e88e52	-7.267373
30	0xc1070dcd	-8.440869
31	0xc07e5b1c	-3.9743109
32	0xc086c07d	-4.210997
33	0xc104f782	-8.310427
34	0xc106a35b	-8.414882

fc3.weight f4 [17, 35]
0	0xc0c64d09	-6.1969037
1	0xc0bd3641	-5.912873
2	0xc0b1d83a	-5.557645
3	0xc089a9e8	-4.3019905
4	0xc0ce4a8c	-6.4466
5	0xc0bb636f	-5.855888
6	0xc034513b	-2.817458
7	0xc0c27960	-6.0773163
8	0xc09643eb	-4.695791
9	0xc1088028	-8.531288
10	0xc0bdb019	-5.9277463
11	0xc0e6576c	-7.1981716
12	0xc0b8a7da	-5.7704897
13	0xc0d28bfd	-6.5795884
14	0xc0d7f00a	-6.7480516
15	0xc0e41d98	-7.1286125
16	0xc0ec381d	-7.38185
17	0xc0ace736	-5.403224
18	0xc0d7c80f	-6.743171
19	0xc0dcc56b	-6.899099
20	0xc0e2f925	-7.092913
21	0xc0aa91f9	-5.330319
22	0xc0bc0e9a	-5.8767824
23	0xc09af12b	-4.8419394
24	0xc0c05b14	-6.011118
25	0xc0637369	-3.553919
26	0xc0ba72c5	-5.82651
27	0xc09a2e6e	-4.8181677
28	0xc0d26158	-6.574383
29	0xc0ebb44e	-7.36576
30	0xc0c47ed2	-6.140481
31	0xc0dd93ee	-6.924308
32	0xc09e555f	-4.9479213
33	0xc0b95500	-5.791626
34	0xc0d8cc87	-6.7749667
35	0xc0c29720	-6.080948
36	0xc0be853c	-5.953764
37	0xc0b16a01	-5.54419
38	0xc0861828	-4.1904488
39	0xc0c865e9	-6.26244
40	0xc0ad670d	-5.4188294
41	0xc02e29c5	-2.7212994
42	0xc0bd9e08	-5.925541
43	0xc0911e7c	-4.534971
44	0xc104b021	-8.293
45	0xc0bac33e	-5.8363333
46	0xc0e18db3	-7.0485473
47	0xc0b41c3e	-5.6284475
48	0xc0cc581c	-6.3857555
49	0xc0ddd01c	-6.931654
50	0xc0e027c6	-7.004855
51	0xc0e37ee3	-7.109239
52	0xc0a5ec7f	-5.185119
53	0xc0d14702	-6.539918
54	0xc0d4ce44	-6.650179
55	0xc0d3c05a	-6.6172304
56	0xc0aad098	-5.337963
57	0xc0b40fcb	-5.626928
58	0xc09b4074	-4.851618
59	0xc0b9022f	-5.7815166
60	0xc0542c92	-3.3152204
61	0xc0b0fc57	-5.530803
62	0xc090c15a	-4.5236025
63	0xc0d306ef	-6.5945964
64	0xc0e6d42a	-7.213399
65	0xc0c2b367	-6.0843997
66	0xc0d5b727	-6.6786075
67	0xc0937172	-4.6075983
68	0xc0b2e0d5	-5.5899453
69	0xc0d6824f	-6.703407
70	0xc062af91	-3.5419657
71	0xc065f207	-3.5928972
72	0xc0478ca0	-3.117958
73	0xc02775e3	-2.6165702
74	0xc055d8b5	-3.3413517
75	0xc09a96dc	-4.8309155
76	0xbfa38a65	-1.277661
77	0xc05b5d5a	-3.4275727
78	0xc01bdd17	-2.4353693
79	0xc09c2538	-4.8795433
80	0xc05c5cbf	-3.4431608
81	0xc0d03a1f	-6.507095
82	0xc04e0b78	-3.21945
83	0xc0696962	-3.647057
84	0xc0751de5	-3.8299496
85	0xc0d3722a	-6.607686
86	0xc0cf1071	-6.470757
87	0xc08e6315	-4.449595
88	0xc0271ef7	-2.611265
89	0xc0c74572	-6.227227
90	0xc0b66f95	-5.701121
91	0xc03cf950	-2.9527168
92	0xc05d4474	-3.457303
93	0xc075904a	-3.8369317
94	0xc049a2ac	-3.1505537
95	0xbfda262b	-1.7042898
96	0xc055f0b8	-3.3428173
97	0xc02f6ea1	-2.7411273
98	0xc0773ffc	-3.8632803
99	0xc06a02f7	-3.656431
100	0xc0674905	-3.6138318
101	0xc077d527	-3.8723848
102	0xc08b9e0f	-4.3630443
103	0xc03f035f	-2.9845808
104	0xc069c0b1	-3.652386
105	0xc0a29271	-5.080376
106	0xc09ef144	-4.9669514
107	0xc0939863	-4.612352
108	0xc05ae3d3	-3.4201553
109	0xc0b483c8	-5.6410866
110	0xc0a12d94	-5.0368137
111	0xc005cfb5	-2.0908024
112	0xc0a1642a	-5.043477
113	0xc05e5dd7	-3.4744775
114	0xc0ddc0db	-6.929792
115	0xc09ec11f	-4.9610744
116	0xc0d1fbee	-6.562003
117	0xc0912142	-4.53531
118	0xc0a779e8	-5.233631
119	0xc0beffc4	-5.9687214
120	0xc0c0a0e0	-6.019638
121	0xc0d3bf46	-6.617099
122	0xc0893535	-4.287745
123	0xc0a85f56	-5.2616377
124	0xc0afcd7e	-5.4938345
125	0xc0b8672b	-5.7625937
126	0xc088fae3	-4.280626
127	0xc09435d0	-4.631569
128	0xc081d506	-4.057254
129	0xc098c310	-4.7738113
130	0xc0225f7f	-2.5370786
131	0xc09510d4	-4.658304
132	0xc0833bd4	-4.101053
133	0xc0b2c355	-5.5863442
134	0xc0c34dfd	-6.10327
135	0xc0a20a2f	-5.063743
136	0xc0b9caa8	-5.8059883
137	0xc0868811	-4.2041097
138	0xc09836d9	-4.7566953
139	0xc0bc7133	-5.8888183
140	0xbf510000	-0.81640625
141	0xbe22c952	-0.1589711
142	0xbf7c4563	-0.98543376
143	0xc047ac74	-3.1199007
144	0xbef54010	-0.47900438
145	0xbfda7e5a	-1.706981
146	0xc044245f	-3.06472
147	0xbf601f65	-0.87547904
148	0xc05332fc	-3.2999868
149	0x4085d398	4.1820793
150	0xbd9c295d	-0.07625077
151	0xc0174219	-2.3634093
152	0xbf12b193	-0.57302207
153	0xbe8c716e	-0.2743029
154	0xbf12d5ea	-0.57357657
155	0xc03b6689	-2.9281332
156	0xc012bf26	-2.2929168
157	0xc007fbdc	-2.1247473
158	0xc05165af	-3.2718313
159	0xc01d9506	-2.4622207
160	0xbfe5e8ce	-1.7961671
161	0xbf19a69e	-0.6001986
162	0xbeb8c2b4	-0.36086047
163	0xc0382451	-2.8772166
164	0xbf8cadfc	-1.0990596
165	0xc04f629a	-3.2403932
166	0xbe817cbe	-0.25290483
167	0xbf4fd840	-0.81189346
168	0x3fa546aa	1.291219
169	0xbfd61c16	-1.6727321
170	0xbf257d4a	-0.646443
171	0x4038b30b	2.885928
172	0xbffa040e	-1.9532487
173	0xbf70cf6f	-0.9406652
174	0xbf110870	-0.566535
175	0xc0b43278	-5.6311607
176	0xc0b3482f	-5.6025615
177	0xc0a066eb	-5.012563
178	0xc065961a	-3.5872865
179	0xc0bff787	-5.9989657
180	0xc09ea5bc	-4.9577312
181	0xc01385db	-2.305045
182	0xc0b4564f	-5.6355357
183	0xc085c4d6	-4.180278
184	0xc0f04826	-7.508807
185	0xc0ae04b4	-5.438074
186	0xc0d4a57c	-6.6452007
187	0xc0a069e6	-5.012927
188	0xc0bb6813	-5.8564544
189	0xc0cc6869	-6.3877454
190	0xc0d1e8a9	-6.559651
191	0xc0d78ccc	-6.735937
192	0xc0956a5a	-4.6692324
193	0xc0bddfa4	-5.93355
194	0xc0c8ab6c	-6.2709255
195	0xc0bd69d2	-5.9191675
196	0xc096fc78	-4.718319
197	0xc0a76a0a	-5.231694
198	0xc08cd751	-4.4012837
199	0xc0af5919	-5.479626
200	0xc0322807	-2.783693
201	0xc0a92979	-5.2863126
202	0xc08a3b26	-4.3197203
203	0xc0bf2e12	-5.974374
204	0xc0d4bc5f	-6.6479945
205	0xc0ad2c62	-5.411668
206	0xc0c2591f	-6.073379
207	0xc08b8a45	-4.3606286
208	0xc09febdc	-4.9975414
209	0xc0c7df74	-6.246027
210	0xc0a3fdf8	-5.124752
211	0xc09b7dd3	-4.8591094
212	0xc08dc7d2	-4.430642
213	0xc0552347	-3.3302782
214	0xc0a85fa5	-5.2616754
215	0xc097ed38	-4.7477074
216	0xbff72ec8	-1.9311152
217	0xc0a01b45	-5.003329
218	0xc05a21db	-3.4083164
219	0xc0df077c	-6.9696636
220	0xc09b60cc	-4.855566
221	0xc0cb052e	-6.3443823
222	0xc092a739	-4.582913
223	0xc0adf9af	-5.436729
224	0xc0bae94e	-5.8409796
225	0xc0c1324c	-6.0373898
226	0xc0c595dc	-6.1745434
227	0xc08e5d51	-4.448891
228	0xc0a07722	-5.0145426
229	0xc0b1f51e	-5.5611715
230	0xc0b20983	-5.563661
231	0xc090040f	-4.5004954
232	0xc090c0dd	-4.523543
233	0xc07b5353	-3.9269607
234	0xc0935503	-4.6041274
235	0xc023e70d	-2.5609772
236	0xc0956585	-4.6686425
237	0xc071777d	-3.772918
238	0xc0afe1c7	-5.4963107
239	0xc0b87bc9	-5.7651105
240	0xc0a25bc9	-5.0737042
241	0xc0b4425e	-5.6331015
242	0xc0807775	-4.014582
243	0xc09a400a	-4.8203173
244	0xc0b617bb	-5.690397
245	0xc0a386d6	-5.1102095
246	0xc098b6f7	-4.7723346
247	0xc09434f6	-4.631465
248	0xc04c899f	-3.1958997
249	0xc0ad0e47	-5.407993
250	0xc095a372	-4.676202
251	0xbffec58a	-1.9904034
252	0xc09f24b8	-4.9732323
253	0xc0702309	-3.7521384
254	0xc0dd1aee	-6.9095373
255	0xc0a02621	-5.0046544

fc3.bias f4 [17]
0	0xc0e61b84	-7.190859
1	0xc0f6f41b	-7.717298
2	0xc10af326	-8.684362
3	0xc10bd172	-8.738634
4	0xc053d904	-3.3101206
5	0xc10623f4	-8.383778
6	0xc10f7036	-8.964895
7	0xc10f7d4b	-8.968089
8	0xc10f775d	-8.966641
9	0xc10db0e4	-8.855686
10	0xc107d94b	-8.49055
11	0xc10bdd2d	-8.741498
12	0xc10ad7d0	-8.677689
13	0xc11b01ec	-9.687969
14	0xc10876be	-8.52899
15	0xc10e12d2	-8.879595
16	0xc100788b	-8.029429

output.weight f4 [1, 17]
0	0x408e1175	4.439631
1	0x4088f7e1	4.2802587
2	0x407beb66	3.9362426
3	0x4069d53f	3.6536405
4	0x4006687b	2.100127
5	0x407b5aa6	3.9274077
6	0x40667cd0	3.601368
7	0x406a16d7	3.657644
8	0x406d72d8	3.7101345
9	0x40725e8f	3.7870214
10	0x4082860b	4.0788627
11	0x4078f2ca	3.8898187
12	0x407c0a1e	3.9381175
13	0x404966a9	3.1468909
14	0x40817f04	4.046755
15	0x40728198	3.7891598
16	0x4081433e	4.0394583
