training_nn/model/order3_dynamiclr/Theta_net_ep18.pth (torch, 25366 bytes, 7 tensors)

fc1.weight f4 [70, 35]
-5.108085 2.411002 -0.050796036 -0.07287408 -1.6080818 -0.046326105 0.04651369 -0.171175
-0.13414474 0.06305893 14.409095 -0.207105 0.14658038 0.081776336 0.09556354 0.08612335
-0.056654334 0.0049815574 -0.0396687 0.06374545 1.100167 -0.11588436 -0.08131525 0.13414738
-0.0709955 0.082719356 -1.4042666 0.14497547 -0.116516024 -0.12196069 -0.5782774 -0.06761739
-0.0410708 0.15644065 1.068004 -5.0624833 5.7930646 -0.32889128 -0.11338196 -3.9299314
0.117534965 0.011406733 0.032315627 0.0045237974 0.017083792 17.8989 -0.8946804 -0.078023404
0.63291943 0.018540384 0.07576708 0.44413856 -0.08345481 -0.102110945 -0.0024601526 1.485225
-0.21466282 0.038078416 0.13792646 -0.114798635 0.0055180904 -2.349452 -0.03181553 -0.14894089
-0.10087603 -0.7108678 0.1725284 -0.35322475 0.77150095 2.4002197 -3.6503506 -13.714827
-0.04647287 0.18673272 14.648617 2.6121867 -0.11693936 -4.83064 -0.13583045 0.09514011
52.988014 -15.766234 0.1983721 14.027449 0.17189907 -0.10029158 5.895045 0.10983113
-0.08671685 0.11645877 0.2716717 -0.13544545 0.15030836 -1.9988662 0.048544656 0.44216403
-11.050703 0.24602115 -0.2794454 -0.097308524 2.9087381 0.36353686 2.1356752 6.5303864
8.06701 -4.8408346 4.202409 -0.31832355 -0.03905767 -1.819069 0.60853994 -0.11314652
-0.36667117 0.11128422 -0.14588235 23.358074 -3.1264954 0.12172041 2.1275961 -0.02279236
0.12496408 1.6574564 0.11390333 0.048815675 -0.057606354 1.3025877 -0.07860689 -0.10066555
0.07639897 -0.12660116 0.20749642 -4.4960604 0.0850158 -0.02565567 0.13101147 0.3471386
0.1899052 -0.3368525 1.501828 3.827432 -5.1780586 0.7980602 -0.14481704 0.009646958
0.3779053 0.028974557 -0.05288258 -0.14429392 -0.04092712 0.053037565 1.1959745 0.21003257
-0.14183623 -0.05981104 -0.0953191 -0.117898665 -0.31549987 -0.0750921 -0.0012376587 -0.15927611
1.4672687 0.09967676 0.10332388 -0.043773927 -0.0444983 0.121709034 0.30877015 -0.06650163
0.09160449 -0.100753486 -2.7224998 0.08056156 0.28756282 -0.14838167 0.28761998 -1.8708925
-18.099655 1.9749005 0.24928768 19.460737 3.0706677 0.08118633 -1.2276665 0.06939543
0.02284427 66.69923 -27.026375 0.13274452 24.793215 0.13032128 -0.17643952 9.202965
0.0077872565 0.15790099 0.117064714 0.11159869 -7.315223 -0.13489534 -7.7995186 -0.007020012
0.8399178 -14.62612 0.21135612 -0.9030026 -0.13090831 3.475194 4.3377976 12.1558695
10.040249 8.425304 -2.6369479 -18.239153 0.8243507 0.109605774 17.949324 3.110505
-0.15416394 -4.1397643 -0.05542277 -0.02478403 62.43621 -20.175776 0.19038562 18.440805
0.10943665 -0.05124553 7.0746627 -0.23218611 -0.041693263 -0.032219972 0.45730284 -2.7655203
0.15006901 -4.7344913 0.08904498 0.69864607 -12.514891 0.34798592 -0.5326123 -0.22390524
2.8106508 1.5438917 6.0710254 8.177778 8.681365 -1.2013055 -18.842564 15.71975
0.015794702 20.867691 -16.912754 0.39860052 -9.416822 -0.16199015 0.4101877 -55.72965
00000000: 6f75 a3c0 db4d 1a40 810f 50bd 013f 95bd
00000010: a0d5 cdbf 71c0 3dbd 2485 3e3d 8048 2fbe
00000020: 3d5d 09be 0a25 813d a78b 6641 5513 54be
00000030: 2b19 163e 5a7a a73d d1b6 c33d 7061 b03d
00000040: 600e 68bd 553c a33b a67b 22bd f98c 823d
00000050: 46d2 8c3f c854 edbd 9c88 a6bd ee5d 093e
00000060: 1766 91bd c468 a93d 02bf b3bf 7374 143e
00000070: f49f eebd 87c6 f9bd fd09 14bf fc7a 8abd
00000080: db39 28bd fa31 203e 5bb4 883f ddff a1c0
00000090: c960 b940 7064 a8be cd34 e8bd ff83 7bc0
000000a0: 2cb6 f03d 4ee3 3a3c 645d 043d 5d3c 943b
000000b0: 4ff3 8b3c f230 8f41 c609 65bf bcca 9fbd
000000c0: 0207 223f 01e2 973c c52b 9b3d 2166 e33e
000000d0: 5bea aabd 8b1f d1bd 833a 21bb da1b be3f
000000e0: 92d0 5bbe 1df8 1b3d 983c 0d3e 8c1b ebbd
000000f0: 19d1 b43b 6c5d 16c0 0051 02bd f683 18be
00000100: 1898 cebd 6ffb 35bf 49ab 303e e0d9 b4be
00000110: 1681 453f 339d 1940 589f 69c0 ee6f 5bc1
00000120: 565a 3ebd dd36 3f3e bc60 6a41 112e 2740
00000130: e77d efbd 9a94 9ac0 2317 0bbe d1d8 c23d
00000140: baf3 5342 7f42 7cc1 0e22 4b3e 6e70 6041
00000150: 4f06 303e ac65 cdbd 35a4 bc40 25ef e03d
00000160: 9b98 b1bd f081 ee3d 8e18 8b3e 36b2 0abe
00000170: 6fea 193e d9da ffbf c3d6 463d 5363 e23e
00000180: aecf 30c1 f8ec 7b3e 7813 8fbe b149 c7bd
00000190: c428 3a40 8121 ba3e e7ae 0840 edf8 d040
000001a0: 7912 0141 1ee8 9ac0 227a 8640 4efb a2be
000001b0: effa 1fbd 41d7 e8bf 46c9 1b3f 5db9 e7bd
000001c0: 53bc bbbe fbe8 e33d 2f62 15be 56dd ba41
000001d0: 8018 48c0 8d48 f93d 892a 0840 0bb7 babc
000001e0: 2bed ff3d 8827 d43f 2646 e93d f2f2 473d
000001f0: a4f4 6bbd 32bb a63f a6fc a0bd bd29 cebd
00000200: 1077 9c3d bca3 01be f179 543e badf 8fc0
00000210: c41c ae3d d72b d2bc df27 063e 27bc b13e
00000220: 8276 423e ee77 acbe e63b c03f a5f4 7440
00000230: a8b2 a5c0 ac4d 4c3f eb4a 14be 460e 1e3c
00000240: ce7c c13e 0d5c ed3c 679b 58bd c9c1 13be
00000250: 32a3 27bd eb3d 593d b115 993f c712 573e
00000260: 843d 11be 6cfc 74bd a936 c3bd db74 f1bd
00000270: 3389 a1be e3c9 99bd ef38 a2ba 4719 23be
00000280: 76cf bb3f 5423 cc3d 789b d33d 4a4c 33bd
00000290: d943 36bd 9642 f93d 1f17 9e3e 0232 88bd
000002a0: 239b bb3d d857 cebd 703d 2ec0 76fd a43d
000002b0: 6f3b 933e 5df1 17be ed42 933e 6879 efbf
000002c0: 18cc 90c1 8ac9 fc3f 4545 7f3e 97af 9b41
000002d0: d285 4440 0545 a63d 2d24 9dbf 311f 8e3d
000002e0: e823 bb3c 0166 8542 0436 d8c1 2eee 073e
000002f0: 8158 c641 f172 053e 90ac 34be 583f 1341
00000300: 3e2c ff3b ccb0 213e a0bf ef3d db8d e43d
00000310: 4f16 eac0 0122 0abe a895 f9c0 2108 e6bb
00000320: da04 573f 9604 6ac1 bd6d 583e 2e2b 67bf
00000330: d40c 06be 9469 5e40 3dcf 8a40 717e 4241
00000340: dca4 2041 0cce 0641 c1c3 28c0 c9e9 91c1
00000350: a608 533f fe78 e03d 3798 8f41 8412 4740
00000360: 27dd 1dbe f378 84c0 fd02 63bd e107 cbbc
00000370: aebe 7942 fd67 a1c1 73f4 423e c586 9341
00000380: 5320 e03d d5e6 51bd a363 e240 32c2 6dbe
00000390: 8ec6 2abd 17f9 03bd 9923 ea3e 49fe 30c0
000003a0: b1ab 193e f480 97c0 375d b63d 78da 323f
000003b0: fe3c 48c1 362b b23e 4859 08bf 6a47 65be
000003c0: b4e1 3340 3e9e c53f d745 c240 2ed8 0241
000003d0: dfe6 0a41 61c4 99bf 92bd 96c1 1984 7b41
000003e0: e463 813c 08f1 a641 524d 87c1 5e15 cc3e
000003f0: 4eab 16c1 bfe0 25be 1f04 d23e 29eb 5ec2

fc1.bias f4 [70]
-4.936348 -4.7445335 -3.723201 -4.7034926 -5.0282393 -1.99314 -2.4757996 -1.0476527
-5.187638 -1.6509107 -4.576506 -4.963319 -4.5966377 -5.02048 -5.298366 -5.0210657
-4.7640586 -4.6831303 -4.5791545 -5.125614 -1.9828254 -4.4351397 -2.5871289 -5.075058
-1.6270707 -1.7173177 -1.7797915 -4.9147253 -5.0575814 -4.8190794 -5.225266 -4.77618
-5.0987062 -5.215647 -5.166936 -1.4600174 -1.0850054 -4.4539776 -5.0566106 -4.7691994
-5.1696258 -4.651759 -5.006658 -1.8231784 -5.1344657 -4.074055 -5.1100183 -5.0155997
-1.8320116 -5.0569816 -4.9861364 -4.38211 -5.025681 -5.2347736 -5.160389 -5.149204
-4.813055 -1.7112975 -5.16274 -5.247214 -5.013968 -4.6397824 -5.1083174 -4.431864
-1.7239279 -5.0942993 -5.218714 -4.590206 -4.8743644 -4.1994877
00000000: 90f6 9dc0 38d3 97c0 ed48 6ec0 0383 96c0
00000010: 56e7 a0c0 361f ffbf 8073 1ec0 7c19 86bf
00000020: 2101 a6c0 0b51 d3bf bd72 92c0 82d3 9ec0
00000030: a817 93c0 c6a7 a0c0 378c a9c0 92ac a0c0
00000040: 2b73 98c0 34dc 95c0 6f88 92c0 0805 a4c0
00000050: 39cd fdbf aaec 8dc0 8593 25c0 e066 a2c0
00000060: da43 d0bf 11d1 dbbf 35d0 e3bf 6e45 9dc0
00000070: b5d7 a1c0 e635 9ac0 6135 a7c0 77d6 98c0
00000080: 9a28 a3c0 95e6 a6c0 8a57 a5c0 dae1 babf
00000090: 75e1 8abf fc86 8ec0 c1cf a1c0 489d 98c0
000000a0: 936d a5c0 36db 94c0 8b36 a0c0 e95d e9bf
000000b0: 8b4d a4c0 a95e 82c0 4585 a3c0 cb7f a0c0
000000c0: 5b7f eabf cbd2 a1c0 6e8e 9fc0 3f3a 8cc0
000000d0: 61d2 a0c0 4483 a7c0 e821 a5c0 47c6 a4c0
000000e0: 8c04 9ac0 cc0b dbbf 2b35 a5c0 2de9 a7c0
000000f0: 6d72 a0c0 1979 94c0 5677 a3c0 d4d1 8dc0
00000100: aba9 dcbf 8004 a3c0 b5ff a6c0 f8e2 92c0
00000110: cbfa 9bc0 3462 86c0

fc2.weight f4 [35, 70]
-0.5734393 -0.6643128 -2.6714077 -0.80392957 -0.6798921 -3.2564657 -3.128313 -4.1184306
-0.4146227 -3.771987 -1.4144889 -0.67422414 -1.8753386 -0.7901272 -0.6058135 -0.5068783
-1.064012 -1.0010291 -0.7836161 -0.35470337 -3.2911022 -2.0198488 -2.9091778 -0.406578
-3.597121 -3.3115423 -3.5750184 -0.6248003 -0.72476065 -0.9939725 -0.3818032 -0.65034914
-0.46965107 -0.41960517 -0.34779623 -2.5885732 -4.6539426 -1.8264925 -0.71856153 -0.54397684
-0.430856 -0.9135663 -0.6750487 -3.4366353 -0.30951533 -2.4268992 -0.3214256 -0.7455307
-3.5298874 -0.37961766 -0.32642594 -2.1356623 -0.7070188 -0.3089974 -0.30706432 -0.7142827
-0.54524696 -3.2846363 -0.5012683 -0.34113687 -0.58757496 -1.0928692 -0.6899046 -1.9571648
-3.485491 -0.41224968 -0.4326275 -1.8153747 -0.54359585 -2.3163238 -0.74797726 -0.92656946
-3.1624115 -0.98689234 -0.7972655 -4.5995097 -3.9297175 -3.4987679 -0.45034778 -5.2732835
-1.2935185 -0.9312952 -1.8229111 -0.83988273 -0.6198066 -0.33984601 -1.0204245 -1.0274191
-1.0005533 -0.3163111 -4.588935 -2.065541 -3.6493971 -0.27133504 -5.0842643 -4.574681
-4.868556 -0.6884397 -0.6596639 -0.9645301 -0.4470861 -0.8430204 -0.64047277 -0.38065934
-0.30709806 -2.399989 -4.0482845 -2.2145348 -0.9609565 -0.9600177 -0.546006 -0.84711206
-0.6666232 -4.7711325 -0.36639774 -2.812647 -0.39704764 -0.8861042 -4.8337603 -0.3293272
-0.2869827 -2.2085366 -0.94082904 -0.43805835 -0.2898956 -0.93412864 -1.0753622 -4.249128
-0.427732 -0.31559712 -0.62084097 -1.0979625 -0.71965134 -2.0175045 -4.879516 -0.574371
-0.44710353 -1.850064 -1.0659871 -2.7431402 -0.68227655 -0.77495825 -2.5603123 -0.74867445
-0.75970924 -3.1781573 -2.77333 -4.235291 -0.5249413 -3.2699833 -1.2304587 -0.71283776
-1.7125924 -0.72762525 -0.6099765 -0.486392 -0.89090884 -1.0248977 -1.0550185 -0.26446307
-3.0833783 -1.8335211 -2.7736957 -0.33311215 -3.289533 -3.0021856 -3.3535266 -0.6461714
-0.7859792 -1.158157 -0.4318974 -0.7756116 -0.57076085 -0.5057899 -0.27751368 -2.7286172
-4.5952654 -1.8699586 -0.7671058 -0.614803 -0.40380046 -1.0767472 -0.55189747 -3.059938
-0.38904378 -2.4188542 -0.32842374 -0.591593 -3.1937783 -0.41134268 -0.29706362 -1.9184728
-0.5942612 -0.49967042 -0.3232406 -0.59866905 -0.5720582 -2.9502945 -0.3962206 -0.3477705
-0.7060098 -1.2581575 -0.6772872 -1.8165908 -3.1709518 -0.4140844 -0.2590855 -1.7757697
-0.78256786 -2.3450332 -0.59013903 -0.6317796 -1.365526 -0.62354565 -0.49356535 -1.0582004
-1.5498164 -7.513235 -0.36450234 -0.18533531 -0.7998494 -0.55379677 -1.1138308 -0.65221465
-0.5172018 -0.28802213 -0.5996583 -0.6757424 -0.6983364 -0.24344699 -0.9024062 -1.3124217
-1.4577183 -0.25243643 -0.57827425 -0.9765465 -0.39648584 -0.5594327 -0.5962604 -0.66101116
-0.23255043 -0.60218364 -0.50366944 -0.32176638 -0.24389552 -4.446273 -8.143251 -1.2034484
-0.57546496 -0.56333953 -0.30152273 -0.6965113 -0.5718506 -0.8056603 -0.22735585 -1.5389581
00000000: ebcc 12bf 6710 2abf 58f8 2ac0 54ce 4dbf
00000010: 690d 2ebf ef69 50c0 4836 48c0 2fca 83c0
00000020: 6d49 d4be 3c68 71c0 f90d b5bf f499 2cbf
00000030: 180b f0bf c745 4abf 9816 1bbf c7c2 01bf
00000040: 8c31 88bf b921 80bf 119b 48bf ae9b b5be
00000050: 6ba1 52c0 3445 01c0 f82f 3ac0 fe2a d0be
00000060: 3b37 66c0 4ff0 53c0 1acd 64c0 eaf2 1fbf
00000070: ea89 39bf fb74 7ebf b67b c3be 487d 26bf
00000080: 1b76 f0be 7dd6 d6be 5912 b2be 2fab 25c0
00000090: 19ed 94c0 82ca e9bf a6f3 37bf 1142 0bbf
000000a0: 2899 dcbe 7bdf 69bf fecf 2cbf d5f1 5bc0
000000b0: cb78 9ebe 5152 1bc0 e591 a4be 1adb 3ebf
000000c0: ade9 61c0 3f5d c2be 4d21 a7be b1ae 08c0
000000d0: 2fff 34bf e834 9ebe 8937 9dbe 3bdb 36bf
000000e0: 4e95 0bbf 7b37 52c0 1f53 00bf 7ea9 aebe
000000f0: 506b 16bf 23e3 8bbf 969d 30bf 6084 fabf
00000100: 4912 5fc0 6412 d3be 5a81 ddbe 335e e8bf
00000110: 1929 0bbf a63e 14c0 707b 3fbf a833 6dbf
00000120: f364 4ac0 faa4 7cbf 9819 4cbf 2f2f 93c0
00000130: 7e80 7bc0 d0eb 5fc0 fc93 e6be bdbe a8c0
00000140: 0492 a5bf 5d69 6ebf 2755 e9bf 8e02 57bf
00000150: a5ab 1ebf 4c00 aebe 459d 82bf 7882 83bf
00000160: 2112 80bf 87f3 a1be 8ed8 92c0 d331 04c0
00000170: b98f 69c0 6dec 8abe 4bb2 a2c0 c963 92c0
00000180: 36cb 9bc0 963d 30bf bcdf 28bf 72eb 76bf
00000190: 78e8 e4be 2fd0 57bf 06f6 23bf c8e5 c2be
000001a0: f53b 9dbe 6b99 19c0 8c8b 81c0 f0ba 0dc0
000001b0: 3f01 76bf b8c3 75bf 0dc7 0bbf 56dc 58bf
000001c0: d1a7 2abf 1ead 98c0 7c98 bbbe 6902 34c0
000001d0: d449 cbbe bad7 62bf 2aae 9ac0 939d a8be
000001e0: 65ef 92be aa58 0dc0 2cda 70bf 2f49 e0be
000001f0: 326d 94be 0e23 6fbf 78a5 89bf dbf8 87c0
00000200: b0ff dabe f295 a1be 6fef 1ebf 098a 8cbf
00000210: 123b 38bf cb1e 01c0 ff24 9cc0 fa09 13bf
00000220: c1ea e4be e6ce ecbf 4472 88bf 9c8f 2fc0
00000230: ada9 2ebf aa63 46bf 28dc 23c0 21a9 3fbf
00000240: 4e7c 42bf ee66 4bc0 3d7e 31c0 8187 87c0
00000250: 8e62 06bf 6847 51c0 ac7f 9dbf 897c 36bf
00000260: 3a36 dbbf a645 3abf 6b27 1cbf 5f08 f9be
00000270: 9a12 64bf d92f 83bf d90a 87bf b467 87be
00000280: 1256 45c0 d2b0 eabf 3b84 31c0 ad8d aabe
00000290: b587 52c0 cf23 40c0 2ea0 56c0 7d6b 25bf
000002a0: ef35 49bf 7d3e 94bf a821 ddbe 7b8e 46bf
000002b0: 621d 12bf 727b 01bf 4616 8ebe aaa1 2ec0
000002c0: 6a0c 93c0 ce5a efbf 0c61 44bf bb63 1dbf
000002d0: efbe cebe dad2 89bf 2749 0dbf 06d6 43c0
000002e0: bf30 c7be 82ce 1ac0 2827 a8be a472 17bf
000002f0: dd66 4cc0 829b d2be b918 98be 8490 f5bf
00000300: 8121 18bf cdd4 ffbe cb7f a5be 6042 19bf
00000310: 6872 12bf a0d1 3cc0 6ddd cabe fa0e b2be
00000320: 0fbd 34bf 4e0b a1bf b262 2dbf 0c86 e8bf
00000330: e0f0 4ac0 df02 d4be dba6 84be 6c4c e3bf
00000340: 5e56 48bf 0615 16c0 5a13 17bf 4fbc 21bf
00000350: 8ec9 aebf b0a0 1fbf 99b4 fcbe 1c73 87bf
00000360: 6260 c6bf 6c6c f0c0 0da0 babe 8ac8 3dbe
00000370: eec2 4cbf a0c5 0dbf 0292 8ebf 8af7 26bf
00000380: 5667 04bf a377 93be 3583 19bf 74fd 2cbf
00000390: 2dc6 32bf 2b4a 79be 1804 67bf 6ffd a7bf
000003a0: 8396 babf 593f 81be c809 14bf f4fe 79bf
000003b0: 3100 cbbe fb36 0fbf 86a4 18bf 0738 29bf
000003c0: b321 6ebe b528 1abf 7bf0 00bf 90be a4be
000003d0: bfbf 79be de47 8ec0 c24a 02c1 990a 9abf
000003e0: ac51 13bf 0537 10bf 3061 9abe 914e 32bf
000003f0: cd64 12bf c13f 4ebf f9cf 68be 94fc c4bf

fc2.bias f4 [35]
-8.297652 -8.471705 -8.233711 -5.0575733 -8.455413 -4.0029383 -5.1599503 -8.303695
-4.6514807 -1.0759963 -8.414748 -2.6804347 -8.541696 -8.452746 -8.392458 -2.8540637
-2.4532235 -4.1642437 -3.8376393 -2.970207 -3.2421396 -8.571179 -8.58653 -4.3538046
-8.115167 -4.783868 -8.572666 -8.517346 -6.499752 -7.258664 -8.426654 -3.978844
-4.2064123 -8.296736 -8.3989525
00000000: 2fc3 04c1 1b8c 07c1 48bd 03c1 a4d7 a1c0
00000010: 5f49 07c1 1218 80c0 501e a5c0 efdb 04c1
00000020: eed8 94c0 3fba 89bf cfa2 06c1 3e8c 2bc0
00000030: c9aa 08c1 733e 07c1 8247 06c1 fba8 36c0
00000040: 9d01 1dc0 7c41 85c0 e29b 75c0 df17 3ec0
00000050: 377f 4fc0 8d23 09c1 6d62 09c1 5e52 8bc0
00000060: b9d7 01c1 7215 99c0 a429 09c1 0d47 08c1
00000070: f8fd cfc0 fa46 e8c0 93d3 06c1 61a5 7ec0
00000080: ee9a 86c0 6ebf 04c1 1c62 06c1

fc3.weight f4 [17, 35]
-6.197725 -5.913812 -5.558418 -4.298207 -6.4474144 -5.8463626 -2.814456 -6.0781856
-4.6888485 -8.5296 -5.9286137 -7.170149 -5.771355 -6.580405 -6.748851 -7.087517
-7.3561845 -5.397082 -6.7275586 -6.867373 -7.087475 -5.331167 -5.8776355 -4.833311
-6.012005 -3.548514 -5.8274436 -4.819092 -6.5768485 -7.3667107 -6.1412597 -6.9293733
-4.9436865 -5.7924957 -6.7757673 -6.081535 -5.954402 -5.544785 -4.187929 -6.263037
-5.413338 -2.7193382 -5.9261746 -4.530587 -8.291502 -5.8369527 -7.0283847 -5.6291003
-6.386353 -6.9322615 -6.9746814 -7.0907426 -5.180594 -6.529188 -6.627295 -6.613964
-5.338591 -5.627525 -4.8458567 -5.7821116 -3.3115833 -5.53144 -4.52423 -6.595889
-7.214119 -6.0850234 -6.681578 -4.604441 -5.5905967 -6.704016 -3.542205 -3.5931008
-3.1182127 -2.6154017 -3.3415422 -4.829974 -1.2766013 -3.4278226 -2.4333773 -4.876262
-3.4433575 -6.501266 -3.2196662 -3.647253 -3.8301523 -6.5981717 -6.465188 -4.4473634
-2.6064906 -6.220674 -5.699329 -2.9529305 -3.4574964 -3.8343184 -3.1508222 -1.7025675
-3.3430164 -2.741371 -3.8636906 -3.6566463 -3.6140342 -3.8732655 -4.361419 -2.9848452
-3.6525862 -5.080447 -4.967011 -4.612447 -3.4192045 -5.6411333 -5.038195 -2.0901654
-5.043553 -3.4727447 -6.9280334 -4.961132 -6.563317 -4.5353637 -5.23368 -5.968779
-6.019217 -6.61871 -4.2861276 -5.2576556 -5.4944086 -5.763069 -4.2806797 -4.6316166
-4.0555716 -4.773947 -2.5358188 -4.6583614 -4.101132 -5.5868473 -6.1036744 -5.0638027
-5.8070393 -4.2031584 -4.756792 -5.8888764 -0.8230194 -0.1688214 -0.9917582 -3.14047
-0.486342 -1.6941698 -3.080054 -0.88232803 -3.3283446 4.1888156 -0.08533282 -2.35268
-0.58129555 -0.28258458 -0.58095497 -2.9210548 -2.282548 -2.1385727 -3.3163874 -2.4511135
-1.7915311 -0.6083653 -0.3694632 -2.905525 -1.1059432 -3.2626224 -0.26274654 -0.81980807
1.2785666 -1.6788018 -0.6534763 2.87981 -1.961858 -0.9479555 -0.5740717 -5.6314054
-5.6027308 -5.01281 -3.5858393 -5.999119 -4.956705 -2.3038926 -5.635786 -4.1780934
-7.507175 -5.4382434 -6.6379175 -5.0131035 -5.856609 -6.3879266 -6.5472007 -6.7295218
-4.6666665 -5.9276276 -6.2628245 -5.9182353 -4.7184954 -5.231842 -4.3983793 -5.4799466
-2.7817824 -5.286476 -4.3199444 -5.974922 -6.648327 -5.411846 -6.074886 -4.3591137
-4.9978075 -6.2462087 -5.124787 -4.859136 -4.4306903 -3.329647 -5.261696 -4.7494564
-1.9304717 -5.0033665 -3.4070182 -6.9682536 -4.8555913 -6.3480945 -4.582938 -5.4367514
-5.841002 -6.0404515 -6.1784363 -4.447657 -5.011357 -5.564464 -5.564512 -4.5005207
-4.5235634 -3.9252458 -4.604186 -2.5599492 -4.6686673 -3.7730477 -5.496682 -5.7653403
-5.0737276 -5.633788 -4.013605 -4.8203654 -5.6904187 -5.1102443 -4.7723613 -4.6315155
-3.1952686 -5.4080143 -4.677705 -1.9897451 -4.973269 -3.7508063 -6.9080973 -5.0046816
00000000: c353 c6c0 f33d bdc0 8fde b1c0 e98a 89c0
00000010: 3851 cec0 6715 bbc0 0c20 34c0 7f80 c2c0
00000020: 0c0b 96c0 3e79 08c1 34b7 bdc0 dc71 e5c0
00000030: f1ae b8c0 ae92 d2c0 96f6 d7c0 f0cc e2c0
00000040: dd65 ebc0 e5b4 acc0 2948 d7c0 85c1 dbc0
00000050: 98cc e2c0 ec98 aac0 9715 bcc0 7caa 9ac0
00000060: 5862 c0c0 da1a 63c0 6b7a bac0 0036 9ac0
00000070: 8b75 d2c0 18bc ebc0 3385 c4c0 6dbd ddc0
00000080: ae32 9ec0 205c b9c0 16d3 d8c0 ef9b c2c0
00000090: 768a bec0 e16e b1c0 8403 86c0 cd6a c8c0
000000a0: 113a adc0 a309 2ec0 39a3 bdc0 92fa 90c0
000000b0: fea9 04c1 51c8 bac0 87e8 e0c0 9721 b4c0
000000c0: 015d ccc0 16d5 ddc0 9730 dfc0 5de7 e2c0
000000d0: 6dc7 a5c0 1cef d0c0 cd12 d4c0 98a5 d3c0
000000e0: bdd5 aac0 af14 b4c0 4211 9bc0 0f07 b9c0
000000f0: fbf0 53c0 8e01 b1c0 7ec6 90c0 8611 d3c0
00000100: 10da e6c0 83b8 c2c0 7dcf d5c0 9557 93c0
00000110: 2be6 b2c0 4d87 d6c0 7db3 62c0 5df5 65c0
00000120: cc90 47c0 be62 27c0 d4db 55c0 268f 9ac0
00000130: ac67 a3bf 7261 5bc0 74bc 1bc0 570a 9cc0
00000140: f85f 5cc0 5f0a d0c0 030f 4ec0 986c 69c0
00000150: 3721 75c0 3924 d3c0 d2e2 cec0 cd50 8ec0
00000160: bed0 26c0 c30f c7c0 e760 b6c0 d0fc 3cc0
00000170: 9f47 5dc0 7965 75c0 12a7 49c0 bbed d9bf
00000180: fbf3 55c0 9f72 2fc0 b546 77c0 7e06 6ac0
00000190: 564c 67c0 95e3 77c0 bf90 8bc0 b407 3fc0
000001a0: f9c3 69c0 0693 a2c0 c1f1 9ec0 2a99 93c0
000001b0: 3fd4 5ac0 2a84 b4c0 e538 a1c0 45c5 05c0
000001c0: c964 a1c0 7341 5ec0 73b2 ddc0 98c1 9ec0
000001d0: b106 d2c0 b321 91c0 4e7a a7c0 3d00 bfc0
000001e0: 6d9d c0c0 79cc d3c0 f527 89c0 b73e a8c0
000001f0: 32d2 afc0 106b b8c0 54fb 88c0 3436 94c0
00000200: 3ec7 81c0 2cc4 98c0 db4a 22c0 4c11 95c0
00000210: 793c 83c0 74c7 b2c0 4d51 c3c0 ac0a a2c0
00000220: 44d3 b9c0 4680 86c0 a437 98c0 ad71 bcc0
00000230: 66b1 52bf 84df 2cbe dee3 7dbf 76fd 48c0
00000240: d201 f9be 8eda d8bf 9b1f 45c0 40e0 61bf
00000250: 9903 55c0 c70a 8640 f9c2 aebd 4f92 16c0
00000260: c9cf 14bf edae 90be 77b9 14bf 90f2 3ac0
00000270: 4415 12c0 60de 08c0 b13f 54c0 0bdf 1cc0
00000280: e450 e5bf d4bd 1bbf 482a bdbe 1ff4 39c0
00000290: 8c8f 8dbf cece 50c0 b786 86be f1de 51bf
000002a0: 12a8 a33f fae2 d6bf 394a 27bf cf4e 3840
000002b0: 2a1e fbbf 36ad 72bf 5df6 12bf 7934 b4c0
000002c0: 9249 b3c0 f168 a0c0 647e 65c0 c8f8 bfc0
000002d0: 549d 9ec0 fa72 13c0 5c58 b4c0 f1b2 85c0
000002e0: c73a f0c0 1706 aec0 d269 d4c0 586b a0c0
000002f0: 5769 bbc0 e569 ccc0 ab82 d1c0 3e58 d7c0
00000300: 5555 95c0 20af bdc0 0f69 c8c0 2f62 bdc0
00000310: eafd 96c0 406b a7c0 86bf 8cc0 b95b afc0
00000320: b908 32c0 d02a a9c0 fc3c 8ac0 9032 bfc0
00000330: 18bf d4c0 d82d adc0 7765 c2c0 dc7d 8bc0
00000340: 0aee 9fc0 f1e0 c7c0 41fe a3c0 0b7e 9bc0
00000350: 37c8 8dc0 f018 55c0 d05f a8c0 8cfb 97c0
00000360: b219 f7bf 941b a0c0 960c 5ac0 effb dec0
00000370: 0161 9bc0 9723 cbc0 6ea7 92c0 def9 adc0
00000380: 7de9 bac0 614b c1c0 c0b5 c5c0 3553 8ec0
00000390: 095d a0c0 1710 b2c0 7b10 b2c0 4404 90c0
000003a0: 08c1 90c0 3a37 7bc0 7e55 93c0 35d6 23c0
000003b0: b965 95c0 9d79 71c0 d2e4 afc0 ab7d b8c0
000003c0: fa5b a2c0 fe47 b4c0 746f 80c0 6f40 9ac0
000003d0: e917 b6c0 1f87 a3c0 2fb7 98c0 6035 94c0
000003e0: 487f 4cc0 740e adc0 c2af 95c0 f8af febf
000003f0: 0525 9fc0 360d 70c0 220f ddc0 5a26 a0c0

fc3.bias f4 [17]
-7.158485 -7.6857324 -8.656055 -8.711095 -3.3093352 -8.35454 -8.938543 -8.94143
-8.939877 -8.828469 -8.461359 -8.713611 -8.649425 -9.6686735 -8.499992 -8.852348
-7.998581
00000000: 4f12 e5c0 85f1 f5c0 347f 0ac1 a560 0bc1
00000010: 26cc 53c0 32ac 05c1 4604 0fc1 1910 0fc1
00000020: bc09 0fc1 6941 0dc1 ba61 07c1 f36a 0bc1
00000030: 0b64 0ac1 e3b2 1ac1 f8ff 07c1 38a3 0dc1
00000040: 60f4 ffc0

output.weight f4 [1, 17]
4.471767 4.311474 3.9637723 3.6805468 2.1023571 3.9564424 3.626872 3.6833153
3.735915 3.8136103 4.10739 3.916969 3.9656997 3.16495 4.075275 3.8157103
4.0695195
00000000: b718 8f40 98f7 8940 72ae 7d40 148e 6b40
00000010: 058d 0640 5a36 7d40 ac1e 6840 70bb 6b40
00000020: 3b19 6f40 3112 7440 bd6f 8340 9faf 7a40
00000030: 06ce 7d40 8a8e 4a40 a768 8240 9934 7440
00000040: 8139 8240
