training_nn/model/Phi_net.pth (torch, 25366 bytes, 7 tensors)

fc1.weight f4 [70, 35]
000000 5c b5 90 c0 38 a3 ce bf f7 02 aa bf 96 95 f4 3c
       -4.5221386 -1.614356 -1.3282155 0.029856484
000010 83 3b 5e c0 7f 81 15 3f a0 14 22 3e 72 6d a0 be
       -3.4723823 0.5840072 0.1582818 -0.313335
000020 4e be 39 3c c8 63 b8 3c 66 91 91 40 44 52 1c 3f
       0.011336876 0.022508517 4.548999 0.6106303
000030 ba 47 17 3e 8b f4 24 bf b1 ea 9d bc e8 3f b9 3d
       0.14773455 -0.6443564 -0.019276949 0.09045392
000040 d1 72 8c bf 9b 3f 05 3e d1 85 f2 3c cb 82 df 3d
       -1.0972539 0.13012545 0.029604824 0.10913619
000050 a9 28 5d 3f 50 2a 37 bf 5b 8d 47 bd a8 13 1f 3f
       0.8639017 -0.7154894 -0.04871879 0.6213937
000060 54 31 13 3e 97 2f b8 3d 75 83 58 3e 83 e1 38 3c
       0.14374286 0.08993452 0.21143897 0.011284235
000070 6a 54 13 be 41 52 4b 3c ef 11 8f bf 91 e0 70 3e
       -0.1438767 0.012409748 -1.1177348 0.23523165
000080 04 6d e9 3d c4 70 ea 3c 4f 58 22 3f f6 d0 88 c0
       0.11397746 0.028618224 0.63416 -4.275508
000090 0d 67 a1 c1 67 05 e5 3f 8d 7e fa bc 6a 2b df 41
       -20.175318 1.7892274 -0.030577922 27.896198
0000a0 ae 0c 1f be e3 a0 bb 3d 0d 48 17 bf 4a 3f 94 3d
       -0.1553218 0.09161546 -0.59094316 0.07238634
0000b0 79 7d f7 3d cd ad 90 bf 64 ee a4 bf 0b f9 96 bd
       0.12084479 -1.130304 -1.2885251 -0.0737172
0000c0 0e fa bb 3f 2f 25 24 3d 54 2e 1f bd fd 1a 2e 40
       1.4685686 0.040074524 -0.03886254 2.7203972
0000d0 0a 65 29 bd 5f 9f 59 bd 38 3b bd bd 52 50 18 3f
       -0.041356124 -0.053130504 -0.09239811 0.5949756
0000e0 47 6f 80 40 f0 8d 44 bd ea 60 bc bf 17 80 af bc
       4.0135837 -0.047986925 -1.4717076 -0.021423383
0000f0 e3 ea 07 3e 61 04 ed bd ec d8 d5 3d b9 ea b8 3b
       0.13273196 -0.11573101 0.10441765 0.0056432155
000100 2c 99 03 bd 8f e5 5b bf cd 90 a5 bf 47 e0 37 3f
       -0.032128498 -0.85897154 -1.2934815 0.71826595
000110 86 d9 00 be cb be 30 bf 63 71 88 c0 cd 7b fb c1
       -0.12582979 -0.69041127 -4.263841 -31.43545
000120 c9 b8 db 40 3b 78 42 be 9f 37 0b 42 dd cf b3 3e
       6.866307 -0.18991177 34.804317 0.35119525
000130 9c d6 3c bd 5c 02 80 bf 81 9c 62 be ef 47 41 3e
       -0.046103105 -1.000072 -0.22130014 0.18875097
000140 b1 ed 19 c0 b1 76 c4 c0 13 ac e1 3d 21 30 98 40
       -2.4051325 -6.1394887 0.11019149 4.755875
000150 77 61 ad 3d 6d a1 89 3c 0f ef 77 41 dd 75 35 be
       0.084658556 0.016800607 15.495864 -0.17720743
000160 13 6c f1 bc 25 8d a3 bd ac e4 c9 3f dd e0 ef 40
       -0.02947048 -0.079859056 1.577291 7.496199
000170 5c 4b 96 be f3 0b 9b be 93 54 29 be 4b db 0a 3e
       -0.2935437 -0.30282554 -0.16536169 0.13560216
000180 77 f5 30 bf da 9d 7f 3e f2 04 61 bd e9 08 c9 be
       -0.6912455 0.2496256 -0.054936357 -0.3926461
000190 69 06 60 bf c3 e4 67 c0 9f 00 1f 3f c6 cd 9f bf
       -0.8750978 -3.6233375 0.6211032 -1.2484672
0001a0 a1 4d ef bf d0 99 90 c0 f0 c1 aa c1 6e e4 ed 3f
       -1.8695565 -4.518776 -21.344696 1.8585336
0001b0 d9 7b 88 3d bf ee de 41 79 5d 4b be 0d c9 06 be
       0.06664247 27.866575 -0.19859876 -0.13162632
0001c0 5d 0e a2 be 98 5e 49 b9 b9 12 b5 bd 06 82 a4 bf
       -0.31651583 -0.00019204093 -0.08841462 -1.285218
0001d0 a0 23 ae bf 35 11 6f 3d a7 53 bc 3f 94 4e f7 bd
       -1.3604622 0.05836602 1.4713029 -0.120755345
0001e0 1b ba 3c bd ad 4e 30 40 57 15 09 be fd 29 db 3d
       -0.04607592 2.754802 -0.13387047 0.10701368
0001f0 37 eb fc bd f8 3c f8 3e ce f0 88 40 74 74 4e 3d
       -0.12349551 0.48484015 4.279395 0.050404027
000200 ed 88 c8 bf a9 ab fc 3c c7 e5 70 3c 6b ec 9c bd
       -1.5666786 0.030843573 0.014703221 -0.07662281
000210 5d 6c 92 bc 14 36 1a 3e 81 65 f9 bd 05 02 ea be
       -0.017873937 0.15059692 -0.121775635 -0.45704666
000220 6d 30 96 bf 2b 02 0a 3f 3a 7d 59 be ce b6 21 bf
       -1.1733528 0.5390956 -0.21239176 -0.6316956
000230 89 27 99 c0 1d 5e d6 c0 26 5d aa bc 98 84 5f bd
       -4.786076 -6.6989884 -0.02079637 -0.05456981
000240 ae 81 21 41 13 1f 83 3e a0 29 23 3e 57 01 0c bf
       10.09416 0.25609645 0.15933847 -0.54689544
000250 cf 4e 79 3d 21 60 85 bd c8 85 e0 be 2f 00 0c 3e
       0.060866173 -0.06512476 -0.43852067 0.13671945
000260 cb 6b cb bc 38 aa 9a bd ab be 0e be a2 d7 c7 3d
       -0.024831673 -0.07551998 -0.13939922 0.097579256
000270 1e 8c a3 3d a8 29 17 be 4f 1e 62 bc 7a 52 dd bd
       0.079857096 -0.14761984 -0.013801171 -0.10806747
000280 39 62 b4 3e c0 d6 73 3f 21 ef f6 bd 57 be 17 bf
       0.35231188 0.9524956 -0.12057329 -0.5927481
000290 a0 2b b6 3d 8e 84 8e bd 75 c7 8e 3d 31 0c dc bd
       0.088950396 -0.069588766 0.06971637 -0.10744513
0002a0 d5 c5 11 3d 58 8e ad bd 16 87 f0 be 80 d8 d7 be
       0.035589058 -0.084744155 -0.46978062 -0.42157364
0002b0 e3 68 5c 3e 37 4f 98 bc e4 3b b4 3d 66 b7 8b c0
       0.21524386 -0.01859246 0.08800486 -4.3661375
0002c0 f7 0a bb c1 97 ba 47 40 bd 9d 54 3d 88 2c f5 41
       -23.380354 3.1207635 0.051908243 30.646744
0002d0 94 86 34 be e2 be 0e be 6b 2c 06 bf 5b 7f 1d be
       -0.17629462 -0.13940004 -0.52411526 -0.15380614
0002e0 fd fe 58 3d 8c 96 d0 bf 2a e3 0e c0 05 c1 27 be
       0.05297755 -1.6295943 -2.232615 -0.16382225
0002f0 6d 3f 08 40 6d 55 d1 bc cc c3 c2 3d c6 1b 91 40
       2.1288712 -0.02555343 0.095100015 4.5346403
000300 a2 4b af bc 85 0f a7 3d 23 9f e3 bc bf 67 26 3f
       -0.02139837 0.08157257 -0.027785843 0.65002054
000310 67 9f a1 40 bd cb 2e be be 76 94 bf 8a 2d b7 3c
       5.0507083 -0.17069907 -1.1598737 0.022360582
000320 2c 0b 9e bd 28 03 55 3d 31 0f c1 39 6d c8 bd bd
       -0.077169746 0.052004963 0.00036823147 -0.09266744
000330 6b 55 86 be 94 bf 54 bf 9c b0 de bf 64 48 48 3f
       -0.26237044 -0.83104825 -1.7397647 0.7823546
000340 bd 1d 14 bf e1 6b a2 bf 34 c8 8f c0 54 04 77 c1
       -0.57857877 -1.2689172 -4.493189 -15.438557
000350 65 c8 3b 3f 0d 6f 68 3d e0 83 a5 41 69 bb 23 bd
       0.7335265 0.05674653 20.689392 -0.03997365
000360 ad b2 bb bc 1b 09 de be 6d a5 81 bd dc 67 08 3e
       -0.022912348 -0.43366322 -0.063303806 0.13320869
000370 60 bd 09 bf 06 15 0c bf 4f 3a 23 3e 40 15 00 3f
       -0.5380459 -0.5471958 0.15940212 0.50032425
000380 d1 90 01 3e ef 84 e2 3d ac 95 38 3f 30 8a 13 be
       0.126529 0.11060511 0.7210338 -0.14408183
000390 8e 96 cb 3d 53 c9 1b bd bc 77 c7 3e 09 29 1c 40
       0.099408254 -0.038033795 0.38958538 2.4400046
0003a0 21 f2 3a be e1 3c b1 bf 96 80 f6 3d 09 ad 68 bd
       -0.18256427 -1.3846704 0.120362446 -0.056805644
0003b0 8b 2b 3f 3c b8 14 06 3e a4 a0 ca bd 8a 97 7f bd
       0.011668096 0.13093841 -0.09893921 -0.06240038
0003c0 30 3f bc be df d2 5b bf 30 19 04 3f 66 1d 18 be
       -0.36766958 -0.8586864 0.51600933 -0.14854965
0003d0 6a e5 81 be 68 5d 9d c0 d1 1a 48 c0 7e b4 81 bd
       -0.25370342 -4.917652 -3.1266367 -0.06333254
0003e0 88 03 26 3d 35 26 21 40 60 58 b9 bc ba 8f 21 3e
       0.04053071 2.517957 -0.022625148 0.15777484
0003f0 57 4e d3 bd 6f 50 17 be 37 64 05 bd 53 79 d2 3e
       -0.103176765 -0.14776777 -0.032566275 0.41108188

fc1.bias f4 [70]
000000 0a 2c 94 c0 a8 cc 90 c0 59 07 87 c0 63 52 8b c0
       -4.630376 -4.5249825 -4.219647 -4.353807
000010 4a 69 93 c0 5b c8 8d c0 6d 3a 8b c0 1e 00 96 c0
       -4.6066027 -4.4307075 -4.350882 -4.6875143
000020 5f f0 8f c0 ec 44 91 c0 6f 9c 97 c0 ff 01 8f c0
       -4.498092 -4.5396633 -4.737846 -4.4689937
000030 ae b7 9a c0 06 5a 96 c0 0f a4 8b c0 50 72 99 c0
       -4.834922 -4.698489 -4.3637767 -4.795204
000040 b3 06 99 c0 be 52 90 c0 a1 82 85 c0 04 a1 98 c0
       -4.782068 -4.5101004 -4.172196 -4.769655
000050 c8 4d 8f c0 21 0e 98 c0 c0 08 99 c0 47 fa 91 c0
       -4.478245 -4.7517247 -4.782318 -4.5618014
000060 4b 4d 9b c0 03 ef 89 c0 16 ea 8d c0 ea 0c 90 c0
       -4.853185 -4.310426 -4.434825 -4.5015764
000070 21 57 90 c0 bf 22 91 c0 3f 75 9b c0 6e a3 95 c0
       -4.510636 -4.5354915 -4.8580623 -4.6762
000080 18 66 95 c0 66 cd 80 c0 f3 24 89 c0 c6 aa 94 c0
       -4.6687126 -4.025073 -4.2857604 -4.6458464
000090 51 5b 47 c0 b1 b1 96 c0 14 be 98 c0 17 97 94 c0
       -3.1149485 -4.709191 -4.773203 -4.6434436
0000a0 32 31 a6 be 85 cc 9a c0 07 97 96 c0 d3 29 98 c0
       -0.32459408 -4.837466 -4.705936 -4.7551055
0000b0 a2 7c 98 bf 41 ae 8a c0 fd 73 9b c0 77 92 59 bf
       -1.1913035 -4.333771 -4.8579087 -0.8498911
0000c0 c2 42 8f c0 a4 0a 92 c0 e1 9f 93 c0 ae 0f 93 c0
       -4.476899 -4.563799 -4.6132665 -4.595664
0000d0 2f 9a 8c c0 ff fb 92 c0 57 17 89 c0 94 1a 90 c0
       -4.3938212 -4.5932612 -4.284099 -4.5032444
0000e0 41 36 8e c0 f7 73 89 c0 06 eb 98 c0 3c 7c 91 c0
       -4.444123 -4.295406 -4.7786894 -4.5464153
0000f0 7d e8 97 c0 81 e3 91 c0 03 39 88 c0 58 9e 88 c0
       -4.74713 -4.5590215 -4.2569594 -4.269329
000100 ed 3d 99 c0 9d 5a 8e c0 cb cd 94 c0 9b 44 8b c0
       -4.7888093 -4.448561 -4.650121 -4.3521247
000110 de 04 8e c0 85 a6 8a c0
       -4.438094 -4.332827

fc2.weight f4 [35, 70]
000000 cd cd b5 be fe 3d d9 3e d2 59 a8 3f 9f ff ed 3e
       -0.35508576 0.4243011 1.3152411 0.46484086
000010 6b 44 e7 3d 19 94 0c 3f 59 6a 63 3d ad bc c0 bd
       0.112923466 0.5491348 0.055521343 -0.09410987
000020 8d f3 33 3f 77 39 74 3f 43 5e 8d bd ec 3b 1e 3f
       0.70293504 0.95400184 -0.069027446 0.61810184
000030 8b ed 76 bd 8f 8f 9d be e3 71 86 3e b1 ba 12 3e
       -0.060285132 -0.3077359 0.26258764 0.1432903
000040 9c 8c 0c be f9 3d 39 3e 0d 7c 1c 3f aa 25 17 be
       -0.13725513 0.18090047 0.61126786 -0.14760461
000050 72 52 6c 3d 1f 52 d2 be cb fd 43 bc cc 9c 37 3e
       0.057695813 -0.41078278 -0.011962364 0.17930907
000060 4c b0 b1 bd 89 cc 64 3f ba d7 ff 3c cc 8e 4d 3e
       -0.08676204 0.89374596 0.031230796 0.20074004
000070 53 9d 27 3d e9 77 ac 3d e5 64 bc bd 0e f7 cb bc
       0.04092152 0.084213085 -0.091989316 -0.024898078
000080 ea a0 f6 3c 55 be e3 3f 0f bd dd 3e aa bf 0c 3e
       0.030106027 1.779246 0.43308303 0.13744989
000090 f1 2d 99 3f 4a a4 d3 bd c5 8b 0a be 0c ac 50 3d
       1.1967145 -0.1033407 -0.1352988 0.050945327
0000a0 40 73 ae c0 d8 93 cc bd 6d 20 20 3e 33 43 08 3e
       -5.4515686 -0.099891365 0.1563737 0.13306884
0000b0 5f 15 68 40 40 3b 47 3e 70 95 30 3d 0b 00 a3 3e
       3.6263044 0.19456196 0.043111265 0.3183597
0000c0 ed 1e b1 bc 48 2b 0e 3e dd f1 c5 3d 00 5e 61 bc
       -0.021621192 0.13883698 0.096652724 -0.0137553215
0000d0 7d 18 8e 3e 4e 62 99 3d 07 bf 76 3d 77 d5 16 3e
       0.27753058 0.07489453 0.06024077 0.14729868
0000e0 ba a3 c9 3d d3 10 53 3e a4 e4 bb bd b5 6d cf bc
       0.098456815 0.20611887 -0.09174469 -0.025320867
0000f0 1e 90 6c bc 1b 6d 3d 3d 6d 67 8a 3f e7 61 c5 3e
       -0.014438657 0.04624663 1.0812813 0.38551256
000100 ae 50 5a 3d 8d 51 8c 3f 29 c0 db be af dd 34 3f
       0.0532996 1.0962387 -0.42920044 0.7065076
000110 a6 37 30 3e fb d3 9f 3d a6 34 94 bf df 72 3e c0
       0.17208728 0.07804104 -1.1578567 -2.9757612
000120 3d 9e a4 c0 8e be 41 c0 0e 75 f1 be 27 3c 68 c0
       -5.144316 -3.0272555 -0.47159618 -3.6286714
000130 c8 ec 0b c0 fb 9c d8 be 4b 0b 6d c0 82 9d 96 c0
       -2.186327 -0.42307267 -3.7038143 -4.706727
000140 a4 6c 89 be 4a ec 6a c0 7e f0 a9 be 44 5c 0a bf
       -0.268407 -3.670672 -0.33191293 -0.54047036
000150 d0 2f 2a c0 b0 37 d4 be be f1 31 bf 51 7d 59 bf
       -2.6591682 -0.41448736 -0.69509494 -0.8495684
000160 32 03 62 c0 c0 7d c4 be cb 7f 9c bf e7 5c 9b bf
       -3.531445 -0.3837719 -1.2226499 -1.2137727
000170 2c 44 2b be 54 13 72 bf 3a c1 c0 be 4d dd 87 c0
       -0.16725224 -0.9456074 -0.3764742 -4.2457643
000180 cc 5f 94 bf fc af 0c c0 47 db 86 bf 42 23 3f bf
       -1.1591735 -2.1982412 -1.0535668 -0.74663174
000190 29 82 a9 be fe 52 d0 be 6e 40 2c bf 84 87 de c0
       -0.33107117 -0.40688318 -0.6728581 -6.9540424
0001a0 c8 e8 38 c0 db a8 1c bf e8 e2 1f c1 73 41 8c be
       -2.8892078 -0.61195153 -9.992897 -0.27393684
0001b0 a1 dd 21 be 86 8e d1 be 60 d0 72 40 eb 36 8a be
       -0.15807201 -0.4092905 3.7939682 -0.26995024
0001c0 0c 0a 24 bf 63 47 c2 be 62 11 2f c1 8c e7 f5 bf
       -0.6407783 -0.3794509 -10.941744 -1.9211287
0001d0 c3 00 4d be b1 da 55 c1 8e 86 70 bf 94 11 ba bf
       -0.20019822 -13.365891 -0.93955314 -1.4536614
0001e0 64 80 ba be d1 78 08 bf ed 93 31 c0 40 77 0b bf
       -0.3642608 -0.5330935 -2.7746537 -0.54478836
0001f0 c0 8a 04 c0 35 71 10 c0 20 a2 73 bf e3 8e 18 c0
       -2.0709686 -2.2569096 -0.9516926 -2.383721
000200 54 43 ac be 0d a5 80 bf 12 d0 64 be 4c 15 95 bf
       -0.33645117 -1.005037 -0.22344998 -1.1647124
000210 e3 cd 90 c0 e9 18 30 c0 eb 77 ea be 4f 8d 90 c0
       -4.5251327 -2.7515204 -0.45794615 -4.5172496
000220 cb 56 8b bf cb f7 71 c0 9f ab 67 bf 9d b3 ce bf
       -1.0885862 -3.780749 -0.9049625 -1.6148564
000230 38 9a ef be 28 d0 e3 3e f1 f7 a9 3f 9e 43 cb 3e
       -0.46797347 0.44494748 1.3278791 0.39700025
000240 38 bb bd bd 39 28 32 3f b8 a9 8c 3e 1e 37 1c be
       -0.09264225 0.69592625 0.27473235 -0.152554
000250 92 68 63 3f f9 4a 91 3f 30 cd 2c be 51 cb 37 3f
       0.88831437 1.1351005 -0.16875148 0.7179461
000260 6b 1c 85 be d0 b0 14 be 90 77 c4 3e 57 b5 b5 3d
       -0.25998244 -0.14520574 0.3837247 0.088724785
000270 a2 a6 64 be 40 4b 1e 3d e1 f7 4f 3f e4 4b 5d be
       -0.2232919 0.038645983 0.8123761 -0.21610981
000280 d4 63 30 3e bf 7b 94 be f9 30 82 bd 90 0a c4 3d
       0.17225581 -0.2900066 -0.06356997 0.09572327
000290 8a ce 40 be 8a 7b 87 3f 69 f9 f5 3b 5e 1a 93 3e
       -0.18828788 1.0584576 0.0075065386 0.28731054
0002a0 0f 62 d2 3d 6a 1d c0 3d 8d 85 05 be 40 ab c2 3d
       0.102726094 0.0938061 -0.13039227 0.095053196
0002b0 89 d3 4e bd d6 c2 de 3f 55 8c ad 3e 86 68 04 bd
       -0.050494704 1.7403209 0.33896127 -0.032326244
0002c0 2b 50 c3 3f b2 f9 ae bd a1 12 10 be c2 b0 0a 3b
       1.525884 -0.08543719 -0.14069606 0.0021162485
0002d0 2f c7 a5 c0 22 f6 5e bd 40 fb ed 3d 8b 95 51 3d
       -5.1805644 -0.05443395 0.11620188 0.051168006
0002e0 ef 74 45 40 38 58 85 3e 6f 21 4d 3a 9e 03 ce 3f
       3.085262 0.26043868 0.00078251114 1.6094854
0002f0 54 1d 3a 3e f4 0d 41 3e c9 36 8f bd 9a a3 df 3d
       0.1817525 0.18852979 -0.06992871 0.109198764
000300 7f b6 85 3e fb a9 ab 3d 34 2d d1 3d 86 f6 f0 3d
       0.26115796 0.083820306 0.102137 0.117657706
000310 5d d2 83 3d c5 92 d9 3d cb 99 8b bd 1a c2 c1 3d
       0.06436608 0.10623697 -0.06816443 0.0946085
000320 53 09 12 bd af f8 ec 3d a9 a2 81 3f e9 d5 db 3e
       -0.035653424 0.1157087 1.0127765 0.42936638
000330 99 a7 82 bd b6 7d 96 3f c3 d8 74 be 98 9e 4d 3f
       -0.06379623 1.1757114 -0.23910813 0.8032012
000340 e8 f1 e5 3d 74 e5 d3 3c 53 5c 36 bf 34 0f 24 bf
       0.112277806 0.025866248 -0.71234626 -0.640857
000350 e5 44 34 bf 4c 31 32 bf 44 c5 6a bd 04 95 40 bf
       -0.70417625 -0.6960647 -0.057317033 -0.7522738
000360 2e 0e 8d be 3a ac 0a be dd ca 4c bf a3 29 4b bf
       -0.2754988 -0.13542262 -0.79997045 -0.7936041
000370 0b 66 92 bd 25 6c 31 bf 6b f8 1f be e0 2a 95 be
       -0.071483694 -0.6930564 -0.15622108 -0.29134274
000380 c6 95 d4 be 6f ab 06 be 3b 58 2b be b2 2c 4f be
       -0.41520518 -0.13151334 -0.16732876 -0.20231894
000390 b1 d3 51 bf 94 de 4e bd 45 bc 55 be ec 54 09 bf
       -0.8196364 -0.050505236 -0.208726 -0.53645205
0003a0 6b 88 19 be 09 df da bd 40 1e 57 be 33 5b 34 bf
       -0.14993446 -0.10687072 -0.21007633 -0.7045166
0003b0 23 f9 4c 3b e8 9e b8 be be 89 e9 bc 30 0c 57 bd
       0.0031276427 -0.36058736 -0.028508063 -0.052501857
0003c0 d3 5a 11 be 4d 29 2a be 92 e0 10 be 18 b7 60 bf
       -0.14194803 -0.16617317 -0.14148167 -0.8777938
0003d0 52 73 f5 be 62 2d a7 3c 1c a5 7e bf df 7a 19 be
       -0.47939545 0.020407382 -0.99470687 -0.14988278
0003e0 40 67 3a bc 27 b9 96 3a b5 ee 83 c0 d6 ee 42 bd
       -0.011377156 0.0011499271 -4.122889 -0.047591053
0003f0 1b 2b d4 ba a2 95 c1 bd f5 c9 92 3c 3d fd a8 be
       -0.0016187163 -0.09452368 0.017918566 -0.33005705

fc2.bias f4 [35]
000000 92 72 52 c0 9e f1 96 c0 18 a3 5d c0 28 fd bb c0
       -3.2882428 -4.7169943 -3.4630795 -5.874653
000010 9f f1 39 c0 5b 44 08 c1 2f 1d 09 c1 cd 93 4f c0
       -2.9053724 -8.516688 -8.569625 -3.243396
000020 2a 08 4d c0 78 e1 09 c1 fb 66 44 c0 bc 98 09 c1
       -3.2036233 -8.617546 -3.0687854 -8.599789
000030 b2 bb 09 c1 73 e6 08 c1 e7 db 77 c0 30 e8 08 c1
       -8.608324 -8.556262 -3.8727968 -8.556686
000040 ef 6b 1a bf fa 9c 08 c1 6b 43 06 c1 fb 96 08 c1
       -0.60320944 -8.538324 -8.391459 -8.53686
000050 2d 80 08 c1 c6 23 08 c1 e8 4f 09 c1 08 e8 08 c1
       -8.531293 -8.508734 -8.582008 -8.556648
000060 f4 65 44 c0 e5 5a 10 c0 71 55 4e c0 d6 a4 09 c1
       -3.0687227 -2.2555478 -3.223965 -8.602743
000070 68 55 5e c0 f4 b8 0a c1 6b 03 31 c0 b5 be 09 c1
       -3.4739628 -8.670155 -2.7658336 -8.609059
000080 e4 4f 09 c1 7e cd 44 c0 51 1a 09 c1
       -8.582005 -3.0750422 -8.568925

fc3.weight f4 [17, 35]
000000 15 2d a3 c0 9e 5c 51 bf 2a b2 b0 c0 a7 36 f4 bf
       -5.099253 -0.8178195 -5.5217485 -1.9079179
000010 d8 71 da c0 61 6c 94 bf 96 07 b2 bf 64 e3 e1 c0
       -6.826397 -1.1595575 -1.3908565 -7.0590076
000020 24 39 d2 c0 26 5d bd bf 1f e7 ca c0 4e b4 ae bf
       -6.569475 -1.4794052 -6.340713 -1.3648775
000030 e3 89 8e bf 9e b1 ab bf 34 f1 a0 c0 f8 6e a4 bf
       -1.113583 -1.341358 -5.0294437 -1.2846365
000040 57 4c b6 c0 61 b5 83 bf cc 35 e5 bf 6e 16 9f bf
       -5.696819 -1.0289727 -1.7907043 -1.242872
000050 e9 80 b3 bf 13 00 92 bf 78 61 bb bf 92 da 98 bf
       -1.4023715 -1.1406273 -1.463912 -1.1941702
000060 c0 df df c0 93 58 d6 c0 88 6c d4 c0 c0 e8 c6 bf
       -6.996063 -6.6983123 -6.6382484 -1.553978
000070 45 88 bd c0 35 62 e8 bf 92 56 e0 c0 99 ad cd bf
       -5.9228845 -1.815497 -7.0105677 -1.6068603
000080 cf 8a bf bf 92 67 de c0 7b 28 91 bf 26 90 a6 c0
       -1.4964236 -6.950143 -1.1340479 -5.2050962
000090 1c 33 48 bf 11 d0 a9 c0 1e 9a fb bf 12 c5 d9 c0
       -0.78202987 -5.3066487 -1.9656408 -6.8053064
0000a0 b9 a5 93 bf b7 00 9b bf a4 b9 e4 c0 e7 60 d2 c0
       -1.153495 -1.2109593 -7.147661 -6.574329
0000b0 11 a7 d3 bf ea f8 c4 c0 21 87 81 bf 45 fe 9f bf
       -1.653536 -6.155385 -1.0119363 -1.2499472
0000c0 82 41 c0 bf 40 57 9a c0 b7 70 a4 bf b4 ce b7 c0
       -1.5019991 -4.8231506 -1.2846898 -5.7439823
0000d0 b1 d7 8e bf 98 1a e3 bf 43 d8 b1 bf b6 68 a4 bf
       -1.1159574 -1.7742491 -1.3894123 -1.2844455
0000e0 65 b9 9b bf a1 af a4 bf 39 f4 a0 bf ad 7e de c0
       -1.2165953 -1.2866098 -1.2574531 -6.9529634
0000f0 64 b8 da c0 d5 14 d7 c0 df 1e ac bf 8d 4f bd c0
       -6.8350086 -6.721293 -1.3446921 -5.915961
000100 0a f2 ce bf d2 96 d7 c0 db e0 c3 bf 70 f9 aa bf
       -1.6167614 -6.7371607 -1.5302995 -1.3357372
000110 53 40 dc c0 43 19 98 bf 42 3a 7b c0 d3 eb 20 be
       -6.882852 -1.1882709 -3.9254308 -0.1571496
000120 bd e3 81 c0 8e 4d d9 bf ff 06 ac c0 b7 0b ec bd
       -4.05905 -1.6976793 -5.375854 -0.11525672
000130 5a 47 2d bf 54 47 a4 c0 0e 31 a6 c0 f6 33 e6 be
       -0.67687 -5.133707 -5.193488 -0.44961518
000140 6a 63 9e c0 b0 1e 2f bf 20 96 24 bf f1 b6 a7 be
       -4.9496355 -0.684062 -0.6429157 -0.3275676
000150 2b 2d 58 c0 35 61 2c bf 72 22 8e c0 85 c2 2a bf
       -3.3777568 -0.67335826 -4.4417048 -0.66703063
000160 c2 18 47 bf 65 05 9c be 10 c3 f5 be a9 b9 fa be
       -0.7777215 -0.30472866 -0.48000383 -0.48969772
000170 39 06 1c bf 14 6a 1b bf bf 23 ad c0 f4 05 ad c0
       -0.60946995 -0.6070874 -5.4106135 -5.4069767
000180 7c b4 9f c0 d1 28 bf be 60 17 81 c0 93 67 f7 be
       -4.990782 -0.37335828 -4.0341034 -0.48321208
000190 d0 78 af c0 18 50 1f bf 8b b2 8e be b4 1a a9 c0
       -5.4834976 -0.6223159 -0.27870592 -5.2845097
0001a0 2a fc 2a bf 1d fb cc c0 ab c4 61 3f 7b bf d6 c0
       -0.6679102 -6.4056535 0.88190717 -6.710874
0001b0 c4 ca eb bf f7 05 e9 c0 f4 26 b1 bf cc f4 94 bf
       -1.8421254 -7.281978 -1.3840013 -1.1637206
0001c0 d9 f5 00 c1 40 8e e6 c0 3d 7f bc bf 1f 4f e1 c0
       -8.060021 -7.2048645 -1.472633 -7.0409083
0001d0 a8 2f ab bf 29 dc 88 bf 8d b5 93 bf ae 4e ce c0
       -1.3373919 -1.0692188 -1.153978 -6.4471045
0001e0 ed 1b a0 bf 0a 15 d5 c0 ac 8d 6d bf 22 84 b7 bf
       -1.2508522 -6.6588182 -0.927943 -1.4337199
0001f0 51 76 a8 bf 89 af ac bf bc e2 a0 bf 3e ce 9a bf
       -1.3161107 -1.3491069 -1.2569194 -1.209419
000200 48 b6 98 bf 37 40 f4 c0 57 bc ed c0 58 13 f4 c0
       -1.1930628 -7.6328387 -7.4292407 -7.6273613
000210 cc f4 c2 bf 38 26 e4 c0 57 81 ca bf 52 bf ee c0
       -1.5230956 -7.1296654 -1.5820721 -7.4608545
000220 e8 76 95 bf c5 f8 a6 bf f7 90 fc c0 bf 7a ae bf
       -1.1676912 -1.3044668 -7.892696 -1.3631209
000230 06 a7 af c0 7a bf 20 bf f3 77 ae c0 8f 43 02 c0
       -5.4891386 -0.6279217 -5.4521422 -2.0353734
000240 b2 c9 d6 c0 d6 44 4c bf 50 e5 8a bf c2 64 e4 c0
       -6.712121 -0.79792535 -1.0851231 -7.1372995
000250 04 fb d0 c0 55 07 9c bf 17 4e c9 c0 5c 0d 80 bf
       -6.5306416 -1.2189738 -6.2907825 -1.0004077
000260 a3 0f b1 bf 05 c5 94 bf bb e5 a4 c0 bd 27 9f bf
       -1.3832897 -1.1622626 -5.1530433 -1.2434002
000270 d0 43 b9 c0 44 e4 84 bf 94 8c 8a bf a9 99 80 bf
       -5.789528 -1.0382161 -1.0824151 -1.0046893
000280 5d c3 50 bf 68 97 92 bf 19 c0 9b bf 67 0f a1 bf
       -0.815481 -1.1452456 -1.2167999 -1.2582825
000290 65 b8 dc c0 f5 f6 e0 c0 e4 b1 d1 c0 7e 0e 78 bf
       -6.897509 -7.030146 -6.552965 -0.96897113
0002a0 6e bf ca c0 20 a7 89 bf 87 2d e1 c0 d8 c8 91 bf
       -6.335868 -1.0754128 -7.0368075 -1.1389418
0002b0 13 70 a5 bf e1 88 e6 c0 15 46 96 bf 55 27 a1 c0
       -1.2924827 -7.204209 -1.1740137 -5.0360513
0002c0 cd d6 0b bf 32 9c a8 c0 06 80 f0 bf f0 fd d1 c0
       -0.54624635 -5.269067 -1.878907 -6.562248
0002d0 c2 6a 46 bf 6c 8c 8a bf 35 86 df c0 44 d7 c5 c0
       -0.7750665 -1.0824103 -6.9851327 -6.1825275
0002e0 0e 4c a1 bf ef b1 c4 c0 c9 c2 8b bf d5 dc 94 bf
       -1.2601335 -6.1467204 -1.0918819 -1.1629893
0002f0 0d f5 89 bf 8a cd 9d c0 7b 99 9b bf cf 6e b3 c0
       -1.0777909 -4.93134 -1.2156214 -5.6072764
000300 9b 67 94 bf 55 fc 8b bf 3b bc 76 bf e0 50 71 bf
       -1.1594118 -1.0936381 -0.96380967 -0.9426403
000310 84 c5 97 bf 23 2a 98 bf 2a 4b 85 bf dc f7 dd c0
       -1.1857152 -1.1887859 -1.0413563 -6.9365063
000320 cf 69 d4 c0 dc a8 d1 c0 62 c3 79 bf 87 54 c2 c0
       -6.637916 -6.5518627 -0.97563756 -6.0728183
000330 b2 d6 a8 bf d8 4e d8 c0 77 b7 88 bf db 23 97 bf
       -1.319052 -6.7596245 -1.0680989 -1.1807817
000340 7e 81 de c0 68 d1 8a bf ed 55 b7 c0 44 03 b9 be
       -6.953307 -1.0845156 -5.729239 -0.36135304
000350 6e e5 ba c0 b9 a6 0d c0 50 da dd c0 83 d8 4e bf
       -5.8405066 -2.213301 -6.9328995 -0.8079912
000360 10 27 a2 bf 35 b0 ee c0 cd 30 d4 c0 aa c1 81 bf
       -1.2668171 -7.4590096 -6.630957 -1.0137227
000370 db aa cb c0 4a 01 91 bf 91 f7 91 bf 76 1d 90 bf
       -6.3646064 -1.1328518 -1.1403676 -1.1258991
000380 2b 53 ac c0 5d a7 86 bf 2c 2d c1 c0 d4 e5 99 bf
       -5.3851523 -1.0519825 -6.036764 -1.2023263
000390 61 23 63 bf 64 bd 7e bf fd 3a 5f bf 1d 42 8a bf
       -0.8872586 -0.9950774 -0.87199384 -1.0801426
0003a0 b0 7c 99 bf 63 3e a5 bf fc 75 e1 c0 23 f6 e0 c0
       -1.1991177 -1.2909664 -7.0456524 -7.030046
0003b0 f2 50 d7 c0 cc 86 81 bf 6e 03 cf c0 27 49 6c bf
       -6.728631 -1.0119262 -6.4691687 -0.9229912
0003c0 af 5f e6 c0 78 b2 9b bf 79 5d a4 bf 91 0f eb c0
       -7.19918 -1.2163839 -1.2841026 -7.34565
0003d0 5b ce 94 bf f1 83 93 c0 56 bc 1a be 22 3d 98 c0
       -1.1625475 -4.609856 -0.15110907 -4.7574625
0003e0 e9 4b da bf 6b 60 c7 c0 9b ba ad be c1 fc 17 bf
       -1.7054416 -6.23052 -0.3393143 -0.59370047
0003f0 90 bd cb c0 6d 51 be c0 c4 a2 10 bf 1c b7 b8 c0
       -6.36689 -5.9474397 -0.5649836 -5.772352

fc3.bias f4 [17]
000000 20 f6 f2 c0 a5 38 f4 c0 06 cc 13 c1 16 8b cb c0
       -7.5925446 -7.6319146 -9.23731 -6.3607283
000010 04 a9 ef c0 86 50 f7 c0 a2 3b e8 c0 36 b8 04 c1
       -7.489382 -7.7285795 -7.2572794 -8.294973
000020 3a 00 72 c0 91 d1 b3 c0 5f 6c 02 c1 e4 e7 f0 c0
       -3.7812638 -5.619332 -8.151458 -7.528307
000030 76 c2 ef c0 b2 8d b2 c0 cd ab f0 c0 0c 2f 10 c1
       -7.492488 -5.579797 -7.520972 -9.011486
000040 97 22 0a c1
       -8.633445

output.weight f4 [1, 17]
000000 e3 06 b7 3f 8e be b5 3f 52 5d 75 3f 17 3b ec 3f
       1.4298977 1.4198778 0.9584552 1.8455533
000010 06 7e bc 3f 1e 7a b3 3f f7 65 c7 3f a5 23 9d 3f
       1.4725959 1.4021642 1.5577992 1.2276503
000020 8d 17 dd 3f 28 0b 04 40 e6 37 a3 3f a5 f1 ba 3f
       1.7272812 2.063181 1.2751434 1.4604994
000030 7d 55 bc 3f d4 8c 03 40 45 1b bb 3f be 22 82 3f
       1.4713589 2.0554705 1.4617697 1.0166852
000040 c9 6c 8f 3f
       1.1205074
