training_nn/model/Theta_net_ep18.pth (torch, 6844 bytes, 3 tensors)

fc1.weight f4 [35, 35]
000000 f2 7a 3a c0 64 ec 22 bf 6e d6 0e 40 32 f6 66 3e
       -2.913754 -0.63641953 2.2318377 0.22554854
000010 23 20 85 41 f4 7d 2b be a0 db 20 bf d3 e2 ed 41
       16.640692 -0.16747266 -0.6283512 29.735754
000020 6a e7 24 be 39 73 68 bf 85 40 22 42 78 90 39 c2
       -0.16103902 -0.90800816 40.563007 -46.391083
000030 78 ec fd 3f 17 41 86 42 71 8e 3a bf 2d 60 56 be
       1.983779 67.12713 -0.728736 -0.20935126
000040 8f 65 b9 c1 9e f0 1b bf 3d 76 41 3f e8 86 09 c0
       -23.17459 -0.6091403 0.7557104 -2.148859
000050 8c 3a 29 3d 62 1b 32 3e f1 75 56 bf 83 d4 84 c1
       0.0413156 0.17393258 -0.83773714 -16.603765
000060 cd 0c c9 be b1 d8 fb 3f 2a 53 66 c1 03 42 3a 40
       -0.3926758 1.9675504 -14.395304 2.910279
000070 6a 19 db c0 91 91 53 3f c2 8d 01 40 4a ae a6 bf
       -6.8468523 0.8264399 2.0242772 -1.3021939
000080 1a b9 c3 41 2c fc cc 41 4a 79 91 40 e4 5f da c0
       24.465382 25.62313 4.546056 -6.8242054
000090 fd 28 96 c0 07 05 44 be 59 35 bc 3c 36 3b f8 40
       -4.6925035 -0.19142543 0.022974657 7.757228
0000a0 fa 92 79 bf 8e a4 a7 3d 52 60 04 be dd 13 8a 3d
       -0.97489893 0.08185683 -0.12927368 0.0674207
0000b0 4e 59 f8 bc e9 51 60 c1 c4 87 3b 41 05 7d 03 bd
       -0.030316021 -14.019998 11.720646 -0.03210165
0000c0 a6 1f 19 c1 32 54 30 bd b1 9a 30 3e 58 42 a3 c0
       -9.570227 -0.043049045 0.1724651 -5.1018486
0000d0 eb 27 1c 3d 79 18 b9 3d 55 3d 85 be 99 ca 51 3f
       0.038124006 0.09037871 -0.26023355 0.81949764
0000e0 a1 4b de 3e 37 d6 49 be f4 0d ab bf d5 10 b3 3e
       0.43417075 -0.19710623 -1.3363633 0.3497378
0000f0 0f 89 86 be 56 85 82 40 fc 6c 01 bf 3b bf 95 3e
       -0.26276442 4.0787764 -0.5055692 0.2924746
000100 d1 b0 ba 3e 77 7f 11 c0 99 c6 da be 33 12 aa 3f
       0.36463025 -2.2734048 -0.42729643 1.3286804
000110 0a 9d 80 c0 2b 7f 3c c0 7d 20 d4 c0 61 db a2 c0
       -4.01917 -2.9452617 -6.628966 -5.0892797
000120 06 ec 08 be f4 d9 3c be 47 02 0c 41 54 75 66 bf
       -0.13371286 -0.18442518 8.750556 -0.9002278
000130 56 28 69 3e fd 49 64 be f1 ec 23 3d 1d a7 ff 3d
       0.22769293 -0.2229385 0.040020887 0.12483046
000140 9d ce 75 c1 ed 81 5c 41 88 a9 b7 be 34 d2 33 c1
       -15.362943 13.78172 -0.3587153 -11.238819
000150 eb ea 4c be a3 66 08 3b 44 b5 be c0 18 d9 ea bd
       -0.20011489 0.002081313 -5.959627 -0.114671886
000160 b6 95 42 3e c3 9c c6 bd 89 d3 42 3f 68 7f 21 3f
       0.19002423 -0.09697869 0.7610403 0.6308503
000170 61 e7 2d be 49 d0 bb bf 38 38 cb 3d 5d 00 ab be
       -0.16982795 -1.4672939 0.09922832 -0.33398715
000180 58 a9 90 40 b4 8d 6d bf 1f b4 19 3f a3 97 d4 3e
       4.520672 -0.92794347 0.6004047 0.4152194
000190 fa b9 02 c0 b0 26 81 be 9c 90 bb 3f 82 d4 9b c0
       -2.042601 -0.2522483 1.4653506 -4.869691
0001a0 93 85 50 c0 26 c2 d4 c0 16 7f d3 bf df 3e 50 bf
       -3.2581527 -6.6486998 -1.6523159 -0.81345934
0001b0 aa 23 07 3e af 3a 8e 40 0c 69 06 40 66 a6 7a bd
       0.13197199 4.4446635 2.1001616 -0.061193846
0001c0 da 14 19 c0 b7 72 98 bd 26 30 cd 3c 7a 8f 63 41
       -2.3918977 -0.07443755 0.025047373 14.222528
0001d0 bd 14 1a c1 0e 91 98 3e ab 64 ec 40 1b ef 4f bd
       -9.630063 0.29798168 7.3872886 -0.050765138
0001e0 c7 62 d9 bd 76 8b 28 40 fc a4 09 3e 71 c5 35 be
       -0.106145434 2.633512 0.13441843 -0.17751099
0001f0 a4 3c b8 3c 70 94 fe 3e 57 48 1f 3f e6 a6 dd 3d
       0.022489853 0.49722624 0.62219757 0.10822849
000200 c8 9d 08 3d e5 9c 63 be c7 30 98 3e dd 52 67 c0
       0.033353597 -0.2222782 0.29724714 -3.6144326
000210 af 97 00 3f 55 77 ae be 93 5d bc be 29 ca 2e be
       0.5023145 -0.34075418 -0.3679014 -0.17069305
000220 33 10 a1 be 5b 6c 00 be e6 18 7c 40 66 eb 24 40
       -0.31457672 -0.12541334 3.9390197 2.5768676
000230 41 f2 db c0 77 58 78 bf 9f 0e 2b bf 76 d3 1f 3e
       -6.873322 -0.97009987 -0.66819185 0.1560801
000240 75 f3 3d 40 6e 23 b7 3f f1 3e c2 3c 43 e3 d8 bf
       2.9679844 1.4307687 0.023711653 -1.6944355
000250 59 ac 9a 3c 12 6c 46 3e 89 2c 2c 41 59 da d4 c0
       0.01888101 0.19377163 10.760873 -6.651654
000260 f7 5b 8b 3e 7a ad 91 40 04 6a 3d bc de 76 07 3c
       0.272186 4.5524263 -0.011560921 0.008268086
000270 1d ba b1 3f 04 c4 1c 3d 96 56 15 3e 75 3a 93 3e
       1.3884922 0.038272873 0.14583811 0.28755537
000280 1c a8 1a 3f 9e 1b 02 3f 72 60 27 3e 08 0a 55 3e
       0.60412765 0.5082339 0.16345385 0.20804608
000290 c6 73 82 be 6a 96 b6 3e 98 75 27 c0 8e 01 d2 3e
       -0.25478953 0.35661632 -2.6165524 0.4101681
0002a0 cb f1 8a bd 54 c4 26 be 9c e7 b8 be 66 f2 26 3b
       -0.067843996 -0.1628583 -0.36114204 0.002547407
0002b0 fb 98 11 be 39 69 33 40 b6 63 eb 3f 6f 32 e7 c0
       -0.14218514 2.8032973 1.8389804 -7.2249064
0002c0 17 7b d7 be 5c 54 37 bf 6e 80 d9 3d 70 e7 15 40
       -0.42086098 -0.716131 0.10620199 2.3422508
0002d0 64 a9 96 3f a7 99 b9 bd e5 a7 a8 bf da 8d 69 3c
       1.1770444 -0.0906251 -1.3176237 0.014255011
0002e0 3f 57 92 bd 5b 09 fe 40 75 68 98 c0 64 5a 07 3d
       -0.07145547 7.938642 -4.762751 0.033045188
0002f0 bd c0 32 40 4a 18 c2 3d e2 04 1a 3e 24 4d 79 3f
       2.7930138 0.09477289 0.15040925 0.9738333
000300 d0 72 54 3d 31 4e 18 be e9 73 2c 3e 70 52 1f 3f
       0.051867306 -0.14873578 0.16841091 0.62235165
000310 28 3e 9c 3e 67 37 b3 3e 83 d8 9c 3e 60 f2 72 be
       0.3051617 0.35003206 0.30633935 -0.23725271
000320 12 57 5e 3e 56 8a d4 bf ee a5 08 3e 6a ed 90 3d
       0.21712902 -1.6604717 0.13344547 0.07076533
000330 b7 6c 52 bd 3c 73 29 bf fb a2 cf bc 7b b0 34 be
       -0.05137321 -0.6619146 -0.02534627 -0.17645447
000340 bd e0 00 40 84 a5 bc 3f 78 e7 3a c0 40 06 68 bf
       2.013717 1.4738011 -2.9203777 -0.90634537
000350 72 ed 04 42 1a 2e e1 3d 4a 4e a2 41 0a a6 29 c2
       33.23188 0.10995121 20.288227 -42.412148
000360 46 45 e0 3e 7b 9c 75 40 81 fb 30 3f 67 0c ab 3e
       0.4380285 3.8376758 0.69133765 0.334079
000370 38 7f 07 c2 b7 e2 d4 41 9b 25 c8 bf 62 9f 5f c2
       -33.874237 26.6107 -1.5636476 -55.905647
000380 37 e9 6c 3f 84 0b a4 3d 54 d6 75 c2 30 90 92 3f
       0.9254336 0.08010009 -61.459305 1.1450253
000390 84 ca 31 3f e4 fa 25 40 bf 58 91 3e 4b 62 01 41
       0.6944964 2.5934381 0.2838802 8.086497
0003a0 58 ec 19 c0 61 1d ab c1 11 0c a0 3f 7d c7 28 3e
       -2.4050503 -21.389345 1.2503682 0.16482349
0003b0 e4 c3 f4 40 b5 10 35 c0 0d 6c b5 40 99 7b 52 40
       7.6489124 -2.8291447 5.66944 3.2887938
0003c0 1f 23 09 c0 ce ee 53 41 3e 2e 38 c1 7f 19 b2 c1
       -2.1427686 13.245802 -11.51129 -22.26245
0003d0 dd 84 55 c1 1b 36 ae c0 87 25 b8 bf 45 88 1f bf
       -13.344937 -5.4441047 -1.4386452 -0.62317306
0003e0 e2 17 c3 bc 6d af 4b 41 be fa 7a 40 a8 cb c3 bb
       -0.0238151 12.730329 3.921554 -0.0059752055
0003f0 52 58 60 c0 4b 24 22 be 80 93 35 3e 24 da 13 42
       -3.5053906 -0.15834157 0.17732048 36.963028

fc1.bias f4 [35]
000000 8d 1d 40 c0 04 c3 d5 c0 9c 6e d7 c0 d5 4b dc c0
       -3.0018036 -6.6800556 -6.732252 -6.884257
000010 a5 85 e0 c0 65 60 df c0 25 03 3a c0 b0 87 a7 c0
       -7.016314 -6.980517 -2.906442 -5.2353134
000020 dd f5 d2 c0 d0 d1 30 c0 50 92 e6 c0 f9 28 c5 c0
       -6.5925126 -2.762806 -7.2053604 -6.1612515
000030 a3 5e d4 c0 5e 0d 34 c0 68 fb c3 c0 0a 10 4c c0
       -6.6365523 -2.8133159 -6.1244392 -3.188479
000040 d7 99 8d c0 e5 20 da c0 0d cd c2 c0 63 8c a2 c0
       -4.4250293 -6.8165154 -6.0875306 -5.079637
000050 32 6c 9b c0 06 4a d9 c0 21 be 74 c0 2a f7 e6 c0
       -4.8569574 -6.790286 -3.8241045 -7.2176714
000060 c8 9b c1 c0 f8 a6 e9 c0 71 f0 c4 c0 e1 54 30 c0
       -6.0502663 -7.301632 -6.1543508 -2.7551806
000070 2a c6 e4 c0 79 9d e2 c0 51 33 d2 c0 eb c4 34 c0
       -7.14919 -7.0817227 -6.568764 -2.824519
000080 92 14 55 c0 c7 c4 e5 c0 94 36 5e c0
       -3.3293805 -7.1802707 -3.4720812

output.weight f4 [1, 35]
000000 eb c1 22 c0 e0 74 8f 3f f1 f0 97 3f 54 05 91 bf
       -2.5430858 1.1207542 1.1870404 -1.1329751
000010 1a 78 6b bf 5e 1d 31 bf e4 24 29 40 d0 f8 d8 bf
       -0.91980135 -0.69185436 2.6428766 -1.6950932
000020 76 c3 a1 3f 6e 8b 2a c0 4a 38 cc 3e 11 98 c3 bf
       1.2637775 -2.66476 0.39886695 -1.5280782
000030 d8 7d a6 3f 2a 48 2c 40 21 84 c5 bf 03 65 18 c0
       1.3007154 2.6919045 -1.5430948 -2.3811653
000040 8f 8a f5 bf 75 1a 98 bf af ca c0 bf 6e 0d dc bf
       -1.918291 -1.1883074 -1.5061854 -1.7191598
000050 74 5e e0 bf eb 7e 88 3f f4 5e 05 40 97 da 2c 3e
       -1.7528825 1.0663732 2.0839205 0.1688026
000060 ae bc bd 3f c5 53 8b be 05 91 bf 3f 89 df 32 40
       1.4823205 -0.2721235 1.4966131 2.7948935
000070 8d 02 0f 3f da 84 3d 3f e1 ad 9b 3f 33 3f 2a c0
       0.5586327 0.7403084 1.2162439 -2.6601074
000080 ff ab 1a 40 7e 1e 1f 3f e3 ba 13 c0
       2.4167478 0.621559 -2.3082817
