training_nn/model/Theta_net_ep10.pth (torch, 6844 bytes, 3 tensors)

fc1.weight f4 [35, 35]
0	0xc03a782f	-2.9135854
1	0xbf231dd9	-0.6371742
2	0x400e8988	2.2271442
3	0x3e66f985	0.22556122
4	0x4185218b	16.641378
5	0xbe29a30b	-0.16566102
6	0xbf20d847	-0.62830013
7	0x41eddb7b	29.732168
8	0xbe24da29	-0.16098846
9	0xbf686a23	-0.9078695
10	0x4222512e	40.579277
11	0xc239907a	-46.39109
12	0x3ffdec70	1.983778
13	0x42864116	67.12712
14	0xbf3a8ee5	-0.7287429
15	0xbe569361	-0.20954658
16	0xc1b95ba0	-23.169739
17	0xbf1bf057	-0.60913604
18	0x3f41766a	0.7557131
19	0xc00986d3	-2.148854
20	0x3d2ed7a0	0.042686105
21	0x3e340482	0.17579845
22	0xbf562b79	-0.83660084
23	0xc184cf26	-16.601147
24	0xbec92af1	-0.39290574
25	0x3ffbdd14	1.9676843
26	0xc166553b	-14.395808
27	0x403a42b3	2.910321
28	0xc0db1978	-6.846859
29	0x3f537ced	0.82612497
30	0x400174e1	2.0227587
31	0xbfa76b4a	-1.3079617
32	0x41c3b696	24.464153
33	0x41ccfe7a	25.624256
34	0x4091a8f2	4.551873
35	0xc0da5ed9	-6.824078
36	0xc0962904	-4.692507
37	0xbe440502	-0.19142535
38	0x3cbc3559	0.022974657
39	0x40f83b2f	7.7572246
40	0xbf7992fa	-0.97489893
41	0x3da7a48e	0.08185683
42	0xbe04604c	-0.1292736
43	0x3d8a13dd	0.0674207
44	0xbcf8594e	-0.030316021
45	0xc16051ee	-14.020002
46	0x413b87c4	11.720646
47	0xbd037d05	-0.03210165
48	0xc1191fa6	-9.570227
49	0xbd305432	-0.043049045
50	0x3e309ab1	0.1724651
51	0xc0a34258	-5.1018486
52	0x3d1c27eb	0.038124006
53	0x3db91879	0.09037871
54	0xbe853d55	-0.26023355
55	0x3f51c369	0.819388
56	0x3ede4ba1	0.43417075
57	0xbe49d637	-0.19710623
58	0xbfab0df4	-1.3363633
59	0x3eb310d5	0.3497378
60	0xbe86890f	-0.26276442
61	0x40828556	4.0787764
62	0xbf016cfc	-0.5055692
63	0x3e95bf3b	0.2924746
64	0x3ebab0d1	0.36463025
65	0xc0117f76	-2.2734046
66	0xbedac699	-0.42729643
67	0x3faa1233	1.3286804
68	0xc0809d0a	-4.01917
69	0xc03c7f2b	-2.9452617
70	0xc0d41f80	-6.628845
71	0xc0a2db6d	-5.0892854
72	0xbe08ebfd	-0.13371272
73	0xbe3cd9f4	-0.18442518
74	0x410c0244	8.750553
75	0xbf667554	-0.9002278
76	0x3e692856	0.22769293
77	0xbe6449f3	-0.22293834
78	0x3d23ecf1	0.040020887
79	0x3dffa71d	0.12483046
80	0xc175cea5	-15.36295
81	0x415c81ed	13.78172
82	0xbeb7a988	-0.3587153
83	0xc133d234	-11.238819
84	0xbe4ceaeb	-0.20011489
85	0x3b086670	0.002081301
86	0xc0beb544	-5.959627
87	0xbdead918	-0.114671886
88	0x3e4295b6	0.19002423
89	0xbdc69cc3	-0.09697869
90	0x3f42cbb8	0.760921
91	0x3f217f68	0.6308503
92	0xbe2de761	-0.16982795
93	0xbfbbd049	-1.4672939
94	0x3dcb3838	0.09922832
95	0xbeab005d	-0.33398715
96	0x4090a958	4.520672
97	0xbf6d8db4	-0.92794347
98	0x3f19b41f	0.6004047
99	0x3ed497a3	0.4152194
100	0xc002b9e4	-2.0425959
101	0xbe8126b0	-0.2522483
102	0x3fbb909c	1.4653506
103	0xc09bd482	-4.869691
104	0xc0508593	-3.2581527
105	0xc0d4c452	-6.648965
106	0xbfd37f08	-1.6523142
107	0xbf503edf	-0.81345934
108	0x3e0723aa	0.13197199
109	0x408e3aaf	4.4446635
110	0x4006690c	2.1001616
111	0xbd7aa666	-0.061193846
112	0xc01914da	-2.3918977
113	0xbd9872b7	-0.07443755
114	0x3ccd3026	0.025047373
115	0x41638f7a	14.222528
116	0xc11a14bd	-9.630063
117	0x3e98910e	0.29798168
118	0x40ec64ab	7.3872886
119	0xbd4fef1b	-0.050765138
120	0xbdd962c7	-0.106145434
121	0x40288b76	2.633512
122	0x3e09a4fc	0.13441843
123	0xbe35c571	-0.17751099
124	0x3cb83ca4	0.022489853
125	0x3efe9ec1	0.49730495
126	0x3f1f4857	0.62219757
127	0x3ddda6e6	0.10822849
128	0x3d089ded	0.033353735
129	0xbe639ce5	-0.2222782
130	0x3e9830c7	0.29724714
131	0xc06752dd	-3.6144326
132	0x3f0097af	0.5023145
133	0xbeae7755	-0.34075418
134	0xbebc5d93	-0.3679014
135	0xbe2ed012	-0.1707156
136	0xbea11033	-0.31457672
137	0xbe006c5b	-0.12541334
138	0x407c18e6	3.9390197
139	0x4024eb66	2.5768676
140	0xc0dbf280	-6.873352
141	0xbf78585e	-0.9700984
142	0xbf2b0e9f	-0.66819185
143	0x3e1fd376	0.1560801
144	0x403df375	2.9679844
145	0x3fb7236e	1.4307687
146	0x3cc23ef1	0.023711653
147	0xbfd8e343	-1.6944355
148	0x3c9aac59	0.01888101
149	0x3e466c12	0.19377163
150	0x412c2c89	10.760873
151	0xc0d4da59	-6.651654
152	0x3e8b5bf7	0.272186
153	0x4091ad7a	4.5524263
154	0xbc3d6a04	-0.011560921
155	0x3c0776de	0.008268086
156	0x3fb1ba1d	1.3884922
157	0x3d1cc404	0.038272873
158	0x3e155696	0.14583811
159	0x3e933a75	0.28755537
160	0x3f1aad9c	0.60421157
161	0x3f021b9e	0.5082339
162	0x3e276072	0.16345385
163	0x3e550a0c	0.20804614
164	0xbe8273c6	-0.25478953
165	0x3eb6966a	0.35661632
166	0xc0277598	-2.6165524
167	0x3ed2018e	0.4101681
168	0xbd8af1cb	-0.067843996
169	0xbe26c454	-0.1628583
170	0xbeb8eab5	-0.36116567
171	0x3b26eb6b	0.002546991
172	0xbe1198fb	-0.14218514
173	0x40336939	2.8032973
174	0x3feb63b6	1.8389804
175	0xc0e732cb	-7.2249503
176	0xbed77af3	-0.4208599
177	0xbf37545c	-0.716131
178	0x3dd9806e	0.10620199
179	0x4015e770	2.3422508
180	0x3f96a964	1.1770444
181	0xbdb999a7	-0.0906251
182	0xbfa8a7e5	-1.3176237
183	0x3c698dda	0.014255011
184	0xbd92573f	-0.07145547
185	0x40fe095b	7.938642
186	0xc0986875	-4.762751
187	0x3d075a64	0.033045188
188	0x4032c0bd	2.7930138
189	0x3dc2184a	0.09477289
190	0x3e1a04e2	0.15040925
191	0x3f794d24	0.9738333
192	0x3d5472d0	0.051867306
193	0xbe184e31	-0.14873578
194	0x3e2c73e9	0.16841091
195	0x3f1f56ea	0.62241995
196	0x3e9c3e28	0.3051617
197	0x3eb33767	0.35003206
198	0x3e9cd883	0.30633935
199	0xbe72f260	-0.23725271
200	0x3e5e5712	0.21712902
201	0xbfd48a56	-1.6604717
202	0x3e08a5ee	0.13344547
203	0x3d90ed6a	0.07076533
204	0xbd526cb7	-0.05137321
205	0xbf297348	-0.6619153
206	0xbccfa306	-0.02534629
207	0xbe34b07b	-0.17645447
208	0x4000e0bd	2.013717
209	0x3fbca584	1.4738011
210	0xc03ae5cf	-2.9202764
211	0xbf67ec63	-0.9059507
212	0x4204eddb	33.23228
213	0x3de0f7fd	0.109848
214	0x41a25148	20.289688
215	0xc229a5b6	-42.411827
216	0x3ee03f65	0.43798366
217	0x4075110b	3.8291652
218	0x3f30f82a	0.6912867
219	0x3eab1220	0.33412266
220	0xc2079224	-33.892715
221	0x41d4e485	26.611582
222	0xbfc827b8	-1.5637121
223	0xc25f9f09	-55.905308
224	0x3f6ce4a1	0.9253636
225	0x3da4a685	0.080395736
226	0xc275d5aa	-61.458656
227	0x3f928cf4	1.1449265
228	0x3f31c377	0.6943888
229	0x4025f8b4	2.5933046
230	0x3e90b2dd	0.28261462
231	0x41015f4d	8.085767
232	0xc019ee58	-2.4051723
233	0xc1ab1f46	-21.39027
234	0x3fa00ab7	1.250327
235	0x3e28a1ee	0.16468021
236	0x40f4fe7f	7.6560664
237	0xc0351206	-2.829225
238	0x40b56bcb	5.6694083
239	0x40527899	3.2886107
240	0xc0090189	-2.1407187
241	0x4153eefa	13.245844
242	0xc13819cc	-11.506298
243	0xc1b21f05	-22.265146
244	0xc1558e0f	-13.347182
245	0xc0ae30c0	-5.443451
246	0xbfb824a4	-1.4386182
247	0xbf1f8867	-0.6231751
248	0xbcc317be	-0.023815032
249	0x414bb04b	12.73054
250	0x407afabe	3.921554
251	0xbbc3c91a	-0.005974901
252	0xc0605852	-3.5053906
253	0xbe22244b	-0.15834157
254	0x3e359380	0.17732048
255	0x4213da24	36.963028

fc1.bias f4 [35]
0	0xc0401aca	-3.001635
1	0xc0d5c1f9	-6.6799283
2	0xc0d76d9f	-6.7321315
3	0xc0dc4e01	-6.884522
4	0xc0e085e4	-7.016344
5	0xc0df60c1	-6.980561
6	0xc03a017c	-2.9063406
7	0xc0a78255	-5.2346597
8	0xc0d2f5ae	-6.59249
9	0xc030d0a2	-2.762734
10	0xc0e6922f	-7.2053447
11	0xc0c52787	-6.161075
12	0xc0d45e64	-6.6365223
13	0xc0340b5e	-2.8131938
14	0xc0c3fa2f	-6.12429
15	0xc04c09bb	-3.188094
16	0xc08d9381	-4.424256
17	0xc0da2312	-6.816781
18	0xc0c2cd54	-6.0875645
19	0xc0a2863b	-5.0788856
20	0xc09b658e	-4.856147
21	0xc0d949de	-6.790267
22	0xc074b3c6	-3.8234725
23	0xc0e6f721	-7.217667
24	0xc0c19a1d	-6.0500627
25	0xc0e9a70a	-7.3016405
26	0xc0c4ef5d	-6.154219
27	0xc03057e5	-2.7553647
28	0xc0e4c556	-7.149089
29	0xc0e29d43	-7.081697
30	0xc0d232d5	-6.568705
31	0xc034c413	-2.8244674
32	0xc0551232	-3.3292356
33	0xc0e5c420	-7.180191
34	0xc05e2e86	-3.4715896

output.weight f4 [1, 35]
0	0xc022c55b	-2.5432956
1	0x3f8f71ec	1.1206641
2	0x3f97ec3e	1.186897
3	0xbf90fe86	-1.1327674
4	0xbf6b6d71	-0.9196387
5	0xbf311885	-0.6917804
6	0x402926bc	2.6429892
7	0xbfd90e9c	-1.6957583
8	0x3fa1beae	1.2636316
9	0xc02a8d31	-2.6648676
10	0x3ecc33ad	0.39883175
11	0xbfc39ac6	-1.5281608
12	0x3fa67984	1.3005834
13	0x402c4aba	2.692061
14	0xbfc5865c	-1.5431628
15	0xc0186b7d	-2.3815606
16	0xbff5a6f2	-1.9191573
17	0xbf981435	-1.1881167
18	0xbfc0c98f	-1.5061511
19	0xbfdc2626	-1.7199142
20	0xbfe07876	-1.7536762
21	0x3f887c40	1.0662918
22	0x4005692f	2.084545
23	0x3e2cd683	0.16878705
24	0x3fbdbd90	1.4823475
25	0xbe8b4fa4	-0.27209198
26	0x3fbf904a	1.4965909
27	0x4032dcd0	2.7947273
28	0x3f0eff65	0.5585845
29	0x3f3d7fee	0.7402333
30	0x3f9ba958	1.2161055
31	0xc02a408b	-2.6601894
32	0x401aaea6	2.4169097
33	0x3f1f1a20	0.6214924
34	0xc013c2e0	-2.3087692
