training_nn/model/Theta_net_ep10.pth (torch, 25366 bytes, 7 tensors)

fc1.weight f4 [70, 35]
-5.1082625 2.411002 -0.050796036 -0.07287408 -1.6080818 -0.046326105 0.04651369 -0.171175
-0.13414474 0.06305893 14.409095 -0.207105 0.14658038 0.081776336 0.09556354 0.08612335
-0.056654334 0.0049815574 -0.0396687 0.06374545 1.100175 -0.11588434 -0.08131525 0.13414738
-0.0709955 0.082719356 -1.4042666 0.14497547 -0.116516024 -0.12196069 -0.5782778 -0.06761739
-0.0410708 0.15644065 1.068004 -5.0627966 5.7930646 -0.32889128 -0.11338196 -3.9299314
0.117534965 0.011406733 0.032315627 0.0045237974 0.017083792 17.8989 -0.8946804 -0.078023404
0.63291943 0.018540384 0.07576708 0.44413856 -0.08345481 -0.102110945 -0.0024601526 1.485286
-0.2146628 0.038078416 0.13792646 -0.114798635 0.005518089 -2.349452 -0.03181553 -0.14894089
-0.10087603 -0.71087134 0.1725284 -0.35322475 0.77150095 2.4002197 -3.6500099 -13.71485
-0.04647765 0.18673272 14.648622 2.6121867 -0.11693936 -4.83064 -0.13583045 0.09514011
52.988014 -15.766234 0.1983721 14.027449 0.17189907 -0.10029158 5.895045 0.10983113
-0.08671685 0.11645877 0.27189207 -0.1353475 0.15030845 -1.9988269 0.048544135 0.44216394
-11.050703 0.24602115 -0.2794454 -0.097308524 2.9081256 0.36351803 2.1356745 6.5303864
8.067032 -4.8412037 4.202409 -0.31832355 -0.03905767 -1.819069 0.60853994 -0.11314652
-0.36667117 0.11128422 -0.14588235 23.358074 -3.1264954 0.12172041 2.1275961 -0.02279236
0.12496408 1.6574564 0.11390333 0.048815675 -0.057606354 1.3027484 -0.07860628 -0.10066555
0.07639928 -0.12660116 0.20749642 -4.4960604 0.0850158 -0.02565567 0.13101147 0.34709254
0.1899052 -0.3368525 1.501828 3.827432 -5.1780586 0.7980602 -0.14481704 0.009646958
0.3779053 0.028974557 -0.05288258 -0.14429392 -0.04092712 0.053037565 1.1959745 0.21003257
-0.14183623 -0.05981104 -0.0953191 -0.117898665 -0.31549987 -0.0750921 -0.0012376587 -0.15927611
1.4672687 0.09967676 0.10332388 -0.043773927 -0.0444983 0.121709034 0.30877015 -0.06650163
0.09160449 -0.100753486 -2.7224998 0.08056156 0.28756282 -0.14838167 0.28761998 -1.8704542
-18.101759 1.974245 0.24928023 19.458586 3.070892 0.08118443 -1.2317535 0.06939158
0.022926666 66.69917 -27.026375 0.13274424 24.793215 0.13032144 -0.17643858 9.202965
0.007786189 0.15790102 0.11706482 0.11261033 -7.3085876 -0.13479397 -7.794968 -0.007161416
0.83980733 -14.625334 0.21149987 -0.9029535 -0.13089034 3.4751449 4.3349304 12.154121
10.040545 8.429285 -2.636474 -18.239807 0.8242816 0.10960569 17.948353 3.1105072
-0.15416372 -4.139768 -0.05542289 -0.024779897 62.436012 -20.175776 0.19038562 18.440805
0.10943667 -0.05124532 7.0746627 -0.23218611 -0.041693244 -0.032219972 0.45767823 -2.7639704
0.1500755 -4.733391 0.089023404 0.6986317 -12.5150175 0.34798738 -0.53261167 -0.22390571
2.8110993 1.5433239 6.070802 8.177779 8.683124 -1.2010204 -18.846277 15.72114
0.015749902 20.864782 -16.91154 0.39854753 -9.411129 -0.16202424 0.40998828 -55.730988
00000000: e376 a3c0 db4d 1a40 810f 50bd 013f 95bd
00000010: a0d5 cdbf 71c0 3dbd 2485 3e3d 8048 2fbe
00000020: 3d5d 09be 0a25 813d a78b 6641 5513 54be
00000030: 2b19 163e 5a7a a73d d1b6 c33d 7061 b03d
00000040: 600e 68bd 553c a33b a67b 22bd f98c 823d
00000050: 89d2 8c3f c554 edbd 9c88 a6bd ee5d 093e
00000060: 1766 91bd c468 a93d 02bf b3bf 7374 143e
00000070: f49f eebd 87c6 f9bd 040a 14bf fc7a 8abd
00000080: db39 28bd fa31 203e 5bb4 883f 6e02 a2c0
00000090: c960 b940 7064 a8be cd34 e8bd ff83 7bc0
000000a0: 2cb6 f03d 4ee3 3a3c 645d 043d 5d3c 943b
000000b0: 4ff3 8b3c f230 8f41 c609 65bf bcca 9fbd
000000c0: 0207 223f 01e2 973c c52b 9b3d 2166 e33e
000000d0: 5bea aabd 8b1f d1bd 833a 21bb da1d be3f
000000e0: 91d0 5bbe 1df8 1b3d 983c 0d3e 8c1b ebbd
000000f0: 16d1 b43b 6c5d 16c0 0051 02bd f683 18be
00000100: 1898 cebd aafb 35bf 49ab 303e e0d9 b4be
00000110: 1681 453f 339d 1940 c399 69c0 0770 5bc1
00000120: 595f 3ebd dd36 3f3e c160 6a41 112e 2740
00000130: e77d efbd 9a94 9ac0 2317 0bbe d1d8 c23d
00000140: baf3 5342 7f42 7cc1 0e22 4b3e 6e70 6041
00000150: 4f06 303e ac65 cdbd 35a4 bc40 25ef e03d
00000160: 9b98 b1bd f081 ee3d 7035 8b3e 8998 0abe
00000170: 75ea 193e 8fd9 ffbf 37d6 463d 5063 e23e
00000180: aecf 30c1 f8ec 7b3e 7813 8fbe b149 c7bd
00000190: bb1e 3a40 091f ba3e e4ae 0840 edf8 d040
000001a0: 9012 0141 24eb 9ac0 227a 8640 4efb a2be
000001b0: effa 1fbd 41d7 e8bf 46c9 1b3f 5db9 e7bd
000001c0: 53bc bbbe fbe8 e33d 2f62 15be 56dd ba41
000001d0: 8018 48c0 8d48 f93d 892a 0840 0bb7 babc
000001e0: 2bed ff3d 8827 d43f 2646 e93d f2f2 473d
000001f0: a4f4 6bbd 76c0 a63f 54fc a0bd bd29 cebd
00000200: 3a77 9c3d bca3 01be f179 543e badf 8fc0
00000210: c41c ae3d d72b d2bc df27 063e 1db6 b13e
00000220: 8276 423e ee77 acbe e63b c03f a5f4 7440
00000230: a8b2 a5c0 ac4d 4c3f eb4a 14be 460e 1e3c
00000240: ce7c c13e 0d5c ed3c 679b 58bd c9c1 13be
00000250: 32a3 27bd eb3d 593d b115 993f c712 573e
00000260: 843d 11be 6cfc 74bd a936 c3bd db74 f1bd
00000270: 3389 a1be e3c9 99bd ef38 a2ba 4719 23be
00000280: 76cf bb3f 5423 cc3d 789b d33d 4a4c 33bd
00000290: d943 36bd 9642 f93d 1f17 9e3e 0232 88bd
000002a0: 239b bb3d d857 cebd 703d 2ec0 76fd a43d
000002b0: 6f3b 933e 5df1 17be ed42 933e 0b6b efbf
000002c0: 67d0 90c1 0fb4 fc3f 5143 7f3e 2fab 9b41
000002d0: 7f89 4440 0644 a63d 19aa 9dbf 2c1d 8e3d
000002e0: b4d0 bb3c fa65 8542 0436 d8c1 1bee 073e
000002f0: 8158 c641 fc72 053e 51ac 34be 583f 1341
00000300: 4a23 ff3b ceb0 213e aebf ef3d 3fa0 e63d
00000310: f3df e9c0 6e07 0abe 6170 f9c0 50aa eabb
00000320: 9dfd 563f 5e01 6ac1 6c93 583e f627 67bf
00000330: 1e08 06be c668 5e40 c0b7 8a40 4877 4241
00000340: 13a6 2041 5ade 0641 fdbb 28c0 20eb 91c1
00000350: 1e04 533f f378 e03d 3a96 8f41 8d12 4740
00000360: 18dd 1dbe fb78 84c0 1d03 63bd 36ff cabc
00000370: 7abe 7942 fd67 a1c1 73f4 423e c586 9341
00000380: 5520 e03d 9de6 51bd a363 e240 32c2 6dbe
00000390: 89c6 2abd 17f9 03bd cd54 ea3e e4e4 30c0
000003a0: 64ad 193e f077 97c0 e751 b63d 87d9 323f
000003b0: 833d 48c1 672b b23e 3d59 08bf 8a47 65be
000003c0: 0de9 3340 a38b c53f 0344 c240 2fd8 0241
000003d0: 13ee 0a41 09bb 99bf 2dc5 96c1 ca89 7b41
000003e0: f005 813c 13eb a641 d54a 87c1 6c0e cc3e
000003f0: fc93 16c1 afe9 25be fce9 d13e 88ec 5ec2

fc1.bias f4 [70]
-4.9365253 -4.744847 -3.7228603 -4.7038617 -5.0282393 -1.9927016 -2.4753256 -1.0473676
-5.187638 -1.6508512 -4.5766873 -4.96358 -4.5968227 -5.02048 -5.298366 -5.021112
-4.7643776 -4.683403 -4.579472 -5.125614 -1.9824033 -4.435344 -2.5866632 -5.075058
-1.6269492 -1.7169867 -1.7795601 -4.9149714 -5.0578423 -4.819338 -5.225266 -4.776558
-5.098778 -5.215703 -5.166936 -1.4606467 -1.0843819 -4.454155 -5.0566106 -4.769539
-5.1696258 -4.652017 -5.0069156 -1.8228952 -5.1344686 -4.073862 -5.1100183 -5.0158877
-1.8316758 -5.0569816 -4.9861364 -4.382276 -5.025843 -5.2347736 -5.160389 -5.1492043
-4.8134327 -1.7110493 -5.16274 -5.247214 -5.013968 -4.639961 -5.1083174 -4.4320464
-1.723729 -5.0944414 -5.218714 -4.5904384 -4.8746386 -4.1994
00000000: 04f8 9dc0 c9d5 97c0 5843 6ec0 0986 96c0
00000010: 56e7 a0c0 d910 ffbf bc6b 1ec0 2410 86bf
00000020: 2101 a6c0 184f d3bf 3974 92c0 a6d5 9ec0
00000030: 2c19 93c0 c6a7 a0c0 378c a9c0 f3ac a0c0
00000040: c875 98c0 70de 95c0 098b 92c0 0805 a4c0
00000050: 64bf fdbf 57ee 8dc0 e48b 25c0 e066 a2c0
00000060: df3f d0bf 38c6 dbbf a0c8 e3bf 7247 9dc0
00000070: d8d9 a1c0 0438 9ac0 6135 a7c0 90d9 98c0
00000080: 3029 a3c0 0ae7 a6c0 8a57 a5c0 79f6 babf
00000090: 07cd 8abf 7088 8ec0 c1cf a1c0 10a0 98c0
000000a0: 936d a5c0 53dd 94c0 a738 a0c0 a154 e9bf
000000b0: 914d a4c0 145d 82c0 4585 a3c0 2782 a0c0
000000c0: 5a74 eabf cbd2 a1c0 6e8e 9fc0 9b3b 8cc0
000000d0: b5d3 a0c0 4483 a7c0 e821 a5c0 48c6 a4c0
000000e0: a407 9ac0 aa03 dbbf 2b35 a5c0 2de9 a7c0
000000f0: 6d72 a0c0 8f7a 94c0 5677 a3c0 53d3 8dc0
00000100: 27a3 dcbf aa05 a3c0 b5ff a6c0 dfe4 92c0
00000110: 0afd 9bc0 7c61 86c0

fc2.weight f4 [35, 70]
-0.5734393 -0.6643128 -2.6714077 -0.80392957 -0.6798921 -3.2564657 -3.128313 -4.1185813
-0.4146227 -3.771987 -1.4144889 -0.67422414 -1.8753386 -0.7901272 -0.6058135 -0.5068783
-1.064012 -1.0010291 -0.7836161 -0.35470337 -3.2911022 -2.0198488 -2.9091778 -0.406578
-3.597121 -3.3115423 -3.5750184 -0.6248003 -0.72476065 -0.9939725 -0.3818032 -0.65034914
-0.46965107 -0.41960517 -0.34779623 -2.5887713 -4.6541224 -1.8264925 -0.71856153 -0.54397684
-0.430856 -0.9135663 -0.6750487 -3.4366353 -0.30951533 -2.4268992 -0.3214256 -0.7455307
-3.5298874 -0.37961766 -0.32642594 -2.1356623 -0.7070188 -0.3089974 -0.30706432 -0.7142827
-0.54524696 -3.2846363 -0.5012683 -0.34113687 -0.58757496 -1.0928692 -0.6899046 -1.9571648
-3.485491 -0.41224968 -0.4326275 -1.8153747 -0.54359585 -2.3163238 -0.74797726 -0.92656946
-3.1624115 -0.98689234 -0.7972655 -4.5995097 -3.9297175 -3.4988594 -0.45034778 -5.2732835
-1.2935185 -0.9312952 -1.8229111 -0.83988273 -0.6198066 -0.33984601 -1.0204245 -1.0274191
-1.0005533 -0.3163111 -4.588935 -2.065541 -3.6493971 -0.27133504 -5.0842643 -4.574681
-4.868556 -0.6884397 -0.6596639 -0.9645301 -0.4470861 -0.8430204 -0.64047277 -0.38065934
-0.30709806 -2.4000196 -4.0483174 -2.2145348 -0.9609565 -0.9600177 -0.546006 -0.84711206
-0.6666232 -4.7711325 -0.36639774 -2.812647 -0.39704764 -0.8861042 -4.8337603 -0.3293272
-0.2869827 -2.2085366 -0.94082904 -0.43805835 -0.2898956 -0.93412864 -1.0753622 -4.249128
-0.427732 -0.31559712 -0.62084097 -1.0979625 -0.71965134 -2.0175045 -4.879516 -0.574371
-0.44710353 -1.850064 -1.0659871 -2.7431402 -0.68227655 -0.77495825 -2.5603123 -0.74867445
-0.75970924 -3.1781573 -2.77333 -4.2354975 -0.5249413 -3.2699838 -1.2304587 -0.71283776
-1.7125924 -0.72762525 -0.6099765 -0.486392 -0.89090884 -1.0248977 -1.0550185 -0.26446307
-3.0833783 -1.8335211 -2.7736957 -0.33311215 -3.2895334 -3.0021856 -3.3535266 -0.6461714
-0.7859792 -1.158157 -0.4318974 -0.7756116 -0.57076085 -0.5057899 -0.27751368 -2.7288759
-4.5954876 -1.8699586 -0.7671058 -0.614803 -0.40380046 -1.0767472 -0.55189747 -3.059938
-0.38904378 -2.4188542 -0.32842374 -0.591593 -3.1937783 -0.41134268 -0.29706362 -1.9184728
-0.5942612 -0.49967042 -0.3232406 -0.59866905 -0.5720582 -2.9502945 -0.3962206 -0.3477705
-0.7060098 -1.2581575 -0.6772872 -1.8165908 -3.1709518 -0.4140844 -0.2590855 -1.7757697
-0.78256786 -2.3450332 -0.59013903 -0.6317796 -1.3655778 -0.62354565 -0.49356535 -1.0580974
-1.5497595 -7.512906 -0.36450234 -0.1861939 -0.7998494 -0.55379677 -1.1138308 -0.65221465
-0.5172018 -0.28802213 -0.5996583 -0.6757424 -0.6983364 -0.24344704 -0.9026251 -1.3124217
-1.4576987 -0.25243643 -0.5786302 -0.97649515 -0.39709243 -0.5594327 -0.5962604 -0.66101116
-0.23255047 -0.60218364 -0.50366944 -0.32176638 -0.24389556 -4.4449673 -8.143861 -1.2034484
-0.57546496 -0.56333953 -0.30152273 -0.6965113 -0.5718506 -0.80597514 -0.22735602 -1.5389655
00000000: ebcc 12bf 6710 2abf 58f8 2ac0 54ce 4dbf
00000010: 690d 2ebf ef69 50c0 4836 48c0 6bcb 83c0
00000020: 6d49 d4be 3c68 71c0 f90d b5bf f499 2cbf
00000030: 180b f0bf c745 4abf 9816 1bbf c7c2 01bf
00000040: 8c31 88bf b921 80bf 119b 48bf ae9b b5be
00000050: 6ba1 52c0 3445 01c0 f82f 3ac0 fe2a d0be
00000060: 3b37 66c0 4ff0 53c0 1acd 64c0 eaf2 1fbf
00000070: ea89 39bf fb74 7ebf b67b c3be 487d 26bf
00000080: 1b76 f0be 7dd6 d6be 5912 b2be 6eae 25c0
00000090: 92ee 94c0 82ca e9bf a6f3 37bf 1142 0bbf
000000a0: 2899 dcbe 7bdf 69bf fecf 2cbf d5f1 5bc0
000000b0: cb78 9ebe 5152 1bc0 e591 a4be 1adb 3ebf
000000c0: ade9 61c0 3f5d c2be 4d21 a7be b1ae 08c0
000000d0: 2fff 34bf e834 9ebe 8937 9dbe 3bdb 36bf
000000e0: 4e95 0bbf 7b37 52c0 1f53 00bf 7ea9 aebe
000000f0: 506b 16bf 23e3 8bbf 969d 30bf 6084 fabf
00000100: 4912 5fc0 6412 d3be 5a81 ddbe 335e e8bf
00000110: 1929 0bbf a63e 14c0 707b 3fbf a833 6dbf
00000120: f364 4ac0 faa4 7cbf 9819 4cbf 2f2f 93c0
00000130: 7e80 7bc0 50ed 5fc0 fc93 e6be bdbe a8c0
00000140: 0492 a5bf 5d69 6ebf 2755 e9bf 8e02 57bf
00000150: a5ab 1ebf 4c00 aebe 459d 82bf 7882 83bf
00000160: 2112 80bf 87f3 a1be 8ed8 92c0 d331 04c0
00000170: b98f 69c0 6dec 8abe 4bb2 a2c0 c963 92c0
00000180: 36cb 9bc0 963d 30bf bcdf 28bf 72eb 76bf
00000190: 78e8 e4be 2fd0 57bf 06f6 23bf c8e5 c2be
000001a0: f53b 9dbe ec99 19c0 d18b 81c0 f0ba 0dc0
000001b0: 3f01 76bf b8c3 75bf 0dc7 0bbf 56dc 58bf
000001c0: d1a7 2abf 1ead 98c0 7c98 bbbe 6902 34c0
000001d0: d449 cbbe bad7 62bf 2aae 9ac0 939d a8be
000001e0: 65ef 92be aa58 0dc0 2cda 70bf 2f49 e0be
000001f0: 326d 94be 0e23 6fbf 78a5 89bf dbf8 87c0
00000200: b0ff dabe f295 a1be 6fef 1ebf 098a 8cbf
00000210: 123b 38bf cb1e 01c0 ff24 9cc0 fa09 13bf
00000220: c1ea e4be e6ce ecbf 4472 88bf 9c8f 2fc0
00000230: ada9 2ebf aa63 46bf 28dc 23c0 21a9 3fbf
00000240: 4e7c 42bf ee66 4bc0 3d7e 31c0 3289 87c0
00000250: 8e62 06bf 6a47 51c0 ac7f 9dbf 897c 36bf
00000260: 3a36 dbbf a645 3abf 6b27 1cbf 5f08 f9be
00000270: 9a12 64bf d92f 83bf d90a 87bf b467 87be
00000280: 1256 45c0 d2b0 eabf 3b84 31c0 ad8d aabe
00000290: b787 52c0 cf23 40c0 2ea0 56c0 7d6b 25bf
000002a0: ef35 49bf 7d3e 94bf a821 ddbe 7b8e 46bf
000002b0: 621d 12bf 727b 01bf 4616 8ebe e7a5 2ec0
000002c0: 3c0e 93c0 ce5a efbf 0c61 44bf bb63 1dbf
000002d0: efbe cebe dad2 89bf 2749 0dbf 06d6 43c0
000002e0: bf30 c7be 82ce 1ac0 2827 a8be a472 17bf
000002f0: dd66 4cc0 829b d2be b918 98be 8490 f5bf
00000300: 8121 18bf cdd4 ffbe cb7f a5be 6042 19bf
00000310: 6872 12bf a0d1 3cc0 6ddd cabe fa0e b2be
00000320: 0fbd 34bf 4e0b a1bf b262 2dbf 0c86 e8bf
00000330: e0f0 4ac0 df02 d4be dba6 84be 6c4c e3bf
00000340: 5e56 48bf 0615 16c0 5a13 17bf 4fbc 21bf
00000350: 41cb aebf b0a0 1fbf 99b4 fcbe bc6f 87bf
00000360: 855e c6bf ba69 f0c0 0da0 babe 9da9 3ebe
00000370: eec2 4cbf a0c5 0dbf 0292 8ebf 8af7 26bf
00000380: 5667 04bf a377 93be 3583 19bf 74fd 2cbf
00000390: 2dc6 32bf 2e4a 79be 7012 67bf 6ffd a7bf
000003a0: df95 babf 593f 81be 1c21 14bf 96fb 79bf
000003b0: b34f cbbe fb36 0fbf 86a4 18bf 0738 29bf
000003c0: b621 6ebe b528 1abf 7bf0 00bf 90be a4be
000003d0: c2bf 79be 2c3d 8ec0 414d 02c1 990a 9abf
000003e0: ac51 13bf 0537 10bf 3061 9abe 914e 32bf
000003f0: cd64 12bf 6354 4ebf 04d0 68be d2fc c4bf

fc2.bias f4 [35]
-8.298607 -8.472317 -8.234711 -5.059124 -8.45622 -4.003113 -5.1613126 -8.304743
-4.653187 -1.0761799 -8.415208 -2.6805685 -8.542641 -8.453464 -8.393416 -2.8543198
-2.453413 -4.1654162 -3.8395789 -2.9702857 -3.2424955 -8.572102 -8.587227 -4.3554063
-8.116323 -4.785458 -8.573332 -8.518405 -6.4992003 -7.2596197 -8.427656 -3.9782932
-4.2073693 -8.297763 -8.399905
00000000: 18c7 04c1 9c8e 07c1 60c1 03c1 58e4 a1c0
00000010: ad4c 07c1 8019 80c0 7929 a5c0 3ae0 04c1
00000020: e8e6 94c0 43c0 89bf b1a4 06c1 6f8e 2bc0
00000030: a8ae 08c1 6341 07c1 6f4b 06c1 2dad 36c0
00000040: b804 1dc0 174b 85c0 a9bb 75c0 2919 3ec0
00000050: 0c85 4fc0 5427 09c1 4865 09c1 7d5f 8bc0
00000060: 76dc 01c1 7922 99c0 5e2c 09c1 634b 08c1
00000070: 73f9 cfc0 ce4e e8c0 aed7 06c1 5b9c 7ec0
00000080: c5a2 86c0 a3c3 04c1 0366 06c1

fc3.weight f4 [17, 35]
-6.197725 -5.913812 -5.558418 -4.2979903 -6.4474144 -5.846196 -2.814285 -6.0781856
-4.688602 -8.529627 -5.9286137 -7.1707335 -5.771355 -6.580405 -6.748851 -7.0884004
-7.3566713 -5.3966827 -6.7273517 -6.868065 -7.0871687 -5.331167 -5.8776355 -4.8330736
-6.012005 -3.548372 -5.8274436 -4.819092 -6.57684 -7.3667107 -6.1412597 -6.9291673
-4.9432693 -5.7924957 -6.7757673 -6.081535 -5.954402 -5.544785 -4.1878495 -6.263037
-5.4131246 -2.719186 -5.9261746 -4.5303755 -8.291554 -5.8369527 -7.028623 -5.6291003
-6.386353 -6.9322615 -6.975199 -7.091 -5.180297 -6.5289865 -6.6275845 -6.6135964
-5.338591 -5.627525 -4.8456416 -5.7821116 -3.311437 -5.53144 -4.52423 -6.595889
-7.214119 -6.0850234 -6.681389 -4.6040764 -5.5905967 -6.704016 -3.542205 -3.5931008
-3.1182127 -2.6153834 -3.3415422 -4.829605 -1.2765374 -3.4278226 -2.4332962 -4.876255
-3.4433575 -6.501023 -3.2196662 -3.647253 -3.8301523 -6.5981903 -6.4648824 -4.447149
-2.6063848 -6.2205195 -5.6989493 -2.9529305 -3.4574964 -3.8341959 -3.1508222 -1.7024814
-3.3430164 -2.741371 -3.8636906 -3.6566463 -3.6140342 -3.873154 -4.361165 -2.9848452
-3.6525862 -5.080447 -4.967011 -4.612447 -3.4191947 -5.6411333 -5.0377917 -2.0901554
-5.043553 -3.4727037 -6.9279523 -4.961132 -6.562965 -4.5353637 -5.23368 -5.968779
-6.0189815 -6.6182904 -4.2859445 -5.257621 -5.4940047 -5.762538 -4.2806797 -4.6316166
-4.055562 -4.773947 -2.5357857 -4.6583614 -4.101132 -5.5868473 -6.1036744 -5.0638027
-5.806965 -4.2029157 -4.756792 -5.8888764 -0.82255834 -0.1683171 -0.9912847 -3.1391516
-0.4858884 -1.6942391 -3.0789213 -0.88186616 -3.3267663 4.1889386 -0.084857024 -2.3527653
-0.5808126 -0.28212368 -0.58048105 -2.9211905 -2.2825692 -2.1375256 -3.3142955 -2.4512684
-1.791237 -0.60789114 -0.36900026 -2.9039023 -1.1054096 -3.261252 -0.26225156 -0.8193374
1.2792597 -1.6781625 -0.65301776 2.8803225 -1.9610535 -0.9474499 -0.5735972 -5.6314054
-5.6027308 -5.01281 -3.5857644 -5.999119 -4.956315 -2.3038278 -5.635786 -4.1780787
-7.507227 -5.4382434 -6.6377716 -5.0131035 -5.856609 -6.3879266 -6.547194 -6.7293167
-4.6664333 -5.9274426 -6.2628107 -5.917859 -4.7184954 -5.231842 -4.3983316 -5.4799466
-2.7816827 -5.286476 -4.3199444 -5.974922 -6.648327 -5.411846 -6.0747232 -4.358867
-4.9978075 -6.2462087 -5.124787 -4.859136 -4.4306903 -3.3296442 -5.261696 -4.749118
-1.9304122 -5.0033665 -3.4070091 -6.9681296 -4.8555913 -6.347522 -4.582938 -5.4367514
-5.841002 -6.0401225 -6.177884 -4.4476166 -5.01134 -5.5640182 -5.564074 -4.5005207
-4.5235634 -3.9251637 -4.604186 -2.5599368 -4.6686673 -3.7730477 -5.496682 -5.7653403
-5.0737276 -5.6337485 -4.0135074 -4.8203654 -5.6904187 -5.1102443 -4.7723613 -4.6315155
-3.1952662 -5.4080143 -4.6773934 -1.9896877 -4.973269 -3.7507963 -6.9079695 -5.0046816
00000000: c353 c6c0 f33d bdc0 8fde b1c0 2389 89c0
00000010: 3851 cec0 0a14 bbc0 3f1d 34c0 7f80 c2c0
00000020: 0709 96c0 5a79 08c1 34b7 bdc0 a676 e5c0
00000030: f1ae b8c0 ae92 d2c0 96f6 d7c0 2dd4 e2c0
00000040: da69 ebc0 a0b1 acc0 7746 d7c0 30c7 dbc0
00000050: 16ca e2c0 ec98 aac0 9715 bcc0 8aa8 9ac0
00000060: 5862 c0c0 8718 63c0 6b7a bac0 0036 9ac0
00000070: 7975 d2c0 18bc ebc0 3385 c4c0 bdbb ddc0
00000080: 432f 9ec0 205c b9c0 16d3 d8c0 ef9b c2c0
00000090: 768a bec0 e16e b1c0 dd02 86c0 cd6a c8c0
000000a0: 5138 adc0 2507 2ec0 39a3 bdc0 d6f8 90c0
000000b0: 35aa 04c1 51c8 bac0 7bea e0c0 9721 b4c0
000000c0: 015d ccc0 16d5 ddc0 d534 dfc0 79e9 e2c0
000000d0: fec4 a5c0 75ed d0c0 2c15 d4c0 95a2 d3c0
000000e0: bdd5 aac0 af14 b4c0 7f0f 9bc0 0f07 b9c0
000000f0: 95ee 53c0 8e01 b1c0 7ec6 90c0 8611 d3c0
00000100: 10da e6c0 83b8 c2c0 f0cd d5c0 9854 93c0
00000110: 2be6 b2c0 4d87 d6c0 7db3 62c0 5df5 65c0
00000120: cc90 47c0 7162 27c0 d4db 55c0 208c 9ac0
00000130: 9465 a3bf 7261 5bc0 20bb 1bc0 480a 9cc0
00000140: f85f 5cc0 6108 d0c0 030f 4ec0 986c 69c0
00000150: 3721 75c0 6024 d3c0 51e0 cec0 0b4f 8ec0
00000160: 02cf 26c0 7f0e c7c0 cb5d b6c0 d0fc 3cc0
00000170: 9f47 5dc0 7763 75c0 12a7 49c0 e9ea d9bf
00000180: fbf3 55c0 9f72 2fc0 b546 77c0 7e06 6ac0
00000190: 564c 67c0 c1e1 77c0 aa8e 8bc0 b407 3fc0
000001a0: f9c3 69c0 0693 a2c0 c1f1 9ec0 2a99 93c0
000001b0: 16d4 5ac0 2a84 b4c0 9735 a1c0 1bc5 05c0
000001c0: c964 a1c0 c740 5ec0 c9b1 ddc0 98c1 9ec0
000001d0: cf03 d2c0 b321 91c0 4e7a a7c0 3d00 bfc0
000001e0: 7f9b c0c0 09c9 d3c0 7526 89c0 6e3e a8c0
000001f0: e3ce afc0 b666 b8c0 54fb 88c0 3436 94c0
00000200: 2ac7 81c0 2cc4 98c0 504a 22c0 4c11 95c0
00000210: 793c 83c0 74c7 b2c0 4d51 c3c0 ac0a a2c0
00000220: a8d2 b9c0 497e 86c0 a437 98c0 ad71 bcc0
00000230: 2f93 52bf 515b 2cbe d6c4 7dbf dce7 48c0
00000240: 5dc6 f8be d4dc d8bf 0c0d 45c0 fbc1 61bf
00000250: bde9 54c0 c90b 8640 85c9 adbd b593 16c0
00000260: 22b0 14bf 8472 90be 689a 14bf c9f4 3ac0
00000270: 9d15 12c0 38cd 08c0 6b1d 54c0 95e1 1cc0
00000280: 4147 e5bf c19e 1bbf 9aed bcbe 89d9 39c0
00000290: 107e 8dbf 5ab8 50c0 d645 86be 19c0 51bf
000002a0: c8be a33f 07ce d6bf 2c2c 27bf 3457 3840
000002b0: cd03 fbbf 148c 72bf 44d7 12bf 7934 b4c0
000002c0: 9249 b3c0 f168 a0c0 2a7d 65c0 c8f8 bfc0
000002d0: 229a 9ec0 ea71 13c0 5c58 b4c0 d2b2 85c0
000002e0: 343b f0c0 1706 aec0 a068 d4c0 586b a0c0
000002f0: 5769 bbc0 e569 ccc0 9d82 d1c0 9056 d7c0
00000300: 6c53 95c0 9cad bdc0 f268 c8c0 1a5f bdc0
00000310: eafd 96c0 406b a7c0 22bf 8cc0 b95b afc0
00000320: 1707 32c0 d02a a9c0 fc3c 8ac0 9032 bfc0
00000330: 18bf d4c0 d82d adc0 2264 c2c0 d77b 8bc0
00000340: 0aee 9fc0 f1e0 c7c0 41fe a3c0 0b7e 9bc0
00000350: 37c8 8dc0 e418 55c0 d05f a8c0 c6f8 97c0
00000360: bf17 f7bf 941b a0c0 700c 5ac0 ebfa dec0
00000370: 0161 9bc0 e61e cbc0 6ea7 92c0 def9 adc0
00000380: 7de9 bac0 af48 c1c0 3ab1 c5c0 e052 8ec0
00000390: e65c a0c0 700c b2c0 e50c b2c0 4404 90c0
000003a0: 08c1 90c0 e235 7bc0 7e55 93c0 01d6 23c0
000003b0: b965 95c0 9d79 71c0 d2e4 afc0 ab7d b8c0
000003c0: fa5b a2c0 ab47 b4c0 a76e 80c0 6f40 9ac0
000003d0: e917 b6c0 1f87 a3c0 2fb7 98c0 6035 94c0
000003e0: 3e7f 4cc0 740e adc0 35ad 95c0 16ae febf
000003f0: 0525 9fc0 0c0d 70c0 160e ddc0 5a26 a0c0

fc3.bias f4 [17]
-7.158821 -7.6860447 -8.656297 -8.711173 -3.3089492 -8.354683 -8.938608 -8.941505
-8.9399605 -8.828521 -8.461596 -8.713776 -8.64965 -9.668605 -8.500261 -8.852505
-7.9988647
00000000: 1015 e5c0 14f4 f5c0 3180 0ac1 f760 0bc1
00000010: d3c5 53c0 c8ac 05c1 8a04 0fc1 6810 0fc1
00000020: 140a 0fc1 9f41 0dc1 b262 07c1 a06b 0bc1
00000030: f764 0ac1 9bb2 1ac1 1201 08c1 dca3 0dc1
00000040: b3f6 ffc0

output.weight f4 [1, 17]
4.4714236 4.311166 3.9634585 3.6802497 2.1027007 3.9560893 3.6266026 3.6830492
3.7356791 3.8133261 4.1071243 3.916678 3.9653988 3.1648984 4.0749903 3.815431
4.069208
00000000: e715 8f40 12f5 8940 4ea9 7d40 3689 6b40
00000010: a692 0640 9130 7d40 421a 6840 14b7 6b40
00000020: 5e15 6f40 890d 7440 906d 8340 daaa 7a40
00000030: 18c9 7d40 b28d 4a40 5266 8240 0630 7440
00000040: f436 8240
