training_nn/model/Theta_net_ep12.pth (torch, 6844 bytes, 3 tensors)

fc1.weight f4 [35, 35]
00000000: c779 3ac0 4af7 22bf c8c5 0e40 aaf6 663e
00000010: 6720 8541 720e 2bbe 3fdb 20bf 9ce2 ed41
00000020: f1e2 24be 1272 68bf 8640 2242 7890 39c2
00000030: 78ec fd3f 1741 8642 6f8e 3abf 3861 56be
00000040: 9365 b9c1 95f0 1bbf 4676 413f e886 09c0
00000050: ea8c 2a3d 5193 323e 396a 56bf 78d4 84c1
00000060: 160d c9be a7d9 fb3f 4453 66c1 0e42 3a40
00000070: 6a19 dbc0 4e8f 533f c285 0140 9dd4 a6bf
00000080: e0b8 c341 38fc cc41 0584 9140 6e5f dac0
00000090: fd28 96c0 0705 44be 5935 bc3c 363b f840
000000a0: fa92 79bf 8ea4 a73d 5260 04be dd13 8a3d
000000b0: 4e59 f8bc e951 60c1 c487 3b41 057d 03bd
000000c0: a61f 19c1 3254 30bd b19a 303e 5842 a3c0
000000d0: eb27 1c3d 7918 b93d 553d 85be 9dc7 513f
000000e0: a14b de3e 37d6 49be f40d abbf d510 b33e
000000f0: 0f89 86be 5685 8240 fc6c 01bf 3bbf 953e
00000100: d1b0 ba3e 777f 11c0 99c6 dabe 3312 aa3f
00000110: 0a9d 80c0 2b7f 3cc0 841f d4c0 61db a2c0
00000120: 06ec 08be f4d9 3cbe 4702 0c41 5475 66bf
00000130: 5628 693e fd49 64be f1ec 233d 1da7 ff3d
00000140: 9dce 75c1 ed81 5c41 88a9 b7be 34d2 33c1
00000150: ebea 4cbe 9d66 083b 44b5 bec0 18d9 eabd
00000160: b695 423e c39c c6bd 81cf 423f 687f 213f
00000170: 61e7 2dbe 49d0 bbbf 3838 cb3d 5d00 abbe
00000180: 58a9 9040 b48d 6dbf 1fb4 193f a397 d43e
00000190: fab9 02c0 b026 81be 9c90 bb3f 82d4 9bc0
000001a0: 9385 50c0 6dc2 d4c0 167f d3bf df3e 50bf
000001b0: aa23 073e af3a 8e40 0c69 0640 66a6 7abd
000001c0: da14 19c0 b772 98bd 2630 cd3c 7a8f 6341
000001d0: bd14 1ac1 0e91 983e ab64 ec40 1bef 4fbd
000001e0: c762 d9bd 768b 2840 fca4 093e 71c5 35be
000001f0: a43c b83c 659a fe3e 5748 1f3f e6a6 dd3d
00000200: cc9d 083d e59c 63be c730 983e dd52 67c0
00000210: af97 003f 5577 aebe 935d bcbe efcc 2ebe
00000220: 3310 a1be 5b6c 00be e618 7c40 66eb 2440
00000230: 60f2 dbc0 7758 78bf 9f0e 2bbf 76d3 1f3e
00000240: 75f3 3d40 6e23 b73f f13e c23c 43e3 d8bf
00000250: 59ac 9a3c 126c 463e 892c 2c41 59da d4c0
00000260: f75b 8b3e 7aad 9140 046a 3dbc de76 073c
00000270: 1dba b13f 04c4 1c3d 9656 153e 753a 933e
00000280: 72a9 1a3f 9e1b 023f 7260 273e 080a 553e
00000290: c673 82be 6a96 b63e 9875 27c0 8e01 d23e
000002a0: cbf1 8abd 54c4 26be a3e7 b8be 87f1 263b
000002b0: fb98 11be 3969 3340 b663 eb3f 7732 e7c0
000002c0: 177b d7be 5c54 37bf 6e80 d93d 70e7 1540
000002d0: 64a9 963f a799 b9bd e5a7 a8bf da8d 693c
000002e0: 3f57 92bd 5b09 fe40 7568 98c0 645a 073d
000002f0: bdc0 3240 4a18 c23d e204 1a3e 244d 793f
00000300: d072 543d 314e 18be e973 2c3e 7752 1f3f
00000310: 283e 9c3e 6737 b33e 83d8 9c3e 60f2 72be
00000320: 1257 5e3e 568a d4bf eea5 083e 6aed 903d
00000330: b76c 52bd 3c73 29bf fba2 cfbc 7bb0 34be
00000340: bde0 0040 84a5 bc3f 25e4 3ac0 affe 67bf
00000350: 78ed 0442 4f27 e13d 714e a241 04a6 29c2
00000360: dd43 e03e e888 7540 dbfa 303f e40a ab3e
00000370: 427f 07c2 cce2 d441 0d26 c8bf 5c9f 5fc2
00000380: 38e8 6c3f f304 a43d 4dd6 75c2 788f 923f
00000390: f9c8 313f 67fa 2540 192c 913e 8f62 0141
000003a0: b3ec 19c0 5c1e abc1 030c a03f 77bf 283e
000003b0: f3d0 f440 ca10 35c0 086c b540 787b 5240
000003c0: 0f1a 09c0 12ef 5341 742b 38c1 9f19 b2c1
000003d0: 6a87 55c1 cd33 aec0 1d22 b8bf 4588 1fbf
000003e0: e217 c3bc 6daf 4b41 befa 7a40 60cb c3bb
000003f0: 5258 60c0 4b24 22be 8093 353e 24da 1342
-2.9136827 -0.63658583 2.2308216 0.22555032 16.640821 -0.16704729 -0.62834543 29.73565
-0.16102196 -0.9079906 40.56301 -46.391083 1.983779 67.12713 -0.72873586 -0.20935524
-23.174597 -0.60913974 0.75571096 -2.148859 0.041638292 0.17439009 -0.8375583 -16.603745
-0.39267796 1.9675797 -14.3953285 2.9102817 -6.8468523 0.8264054 2.023789 -1.3033634
24.465271 25.623154 4.5473657 -6.824149 -4.6925035 -0.19142543 0.022974657 7.757228
-0.97489893 0.08185683 -0.12927368 0.0674207 -0.030316021 -14.019998 11.720646 -0.03210165
-9.570227 -0.043049045 0.1724651 -5.1018486 0.038124006 0.09037871 -0.26023355 0.8194521
0.43417075 -0.19710623 -1.3363633 0.3497378 -0.26276442 4.0787764 -0.5055692 0.2924746
0.36463025 -2.2734048 -0.42729643 1.3286804 -4.01917 -2.9452617 -6.628847 -5.0892797
-0.13371286 -0.18442518 8.750556 -0.9002278 0.22769293 -0.2229385 0.040020887 0.12483046
-15.362943 13.78172 -0.3587153 -11.238819 -0.20011489 0.0020813115 -5.959627 -0.114671886
0.19002423 -0.09697869 0.76097876 0.6308503 -0.16982795 -1.4672939 0.09922832 -0.33398715
4.520672 -0.92794347 0.6004047 0.4152194 -2.042601 -0.2522483 1.4653506 -4.869691
-3.2581527 -6.6487336 -1.6523159 -0.81345934 0.13197199 4.4446635 2.1001616 -0.061193846
-2.3918977 -0.07443755 0.025047373 14.222528 -9.630063 0.29798168 7.3872886 -0.050765138
-0.106145434 2.633512 0.13441843 -0.17751099 0.022489853 0.4972717 0.62219757 0.10822849
0.03335361 -0.2222782 0.29724714 -3.6144326 0.5023145 -0.34075418 -0.3679014 -0.17070363
-0.31457672 -0.12541334 3.9390197 2.5768676 -6.873337 -0.97009987 -0.66819185 0.1560801
2.9679844 1.4307687 0.023711653 -1.6944355 0.01888101 0.19377163 10.760873 -6.651654
0.272186 4.5524263 -0.011560921 0.008268086 1.3884922 0.038272873 0.14583811 0.28755537
0.60414803 0.5082339 0.16345385 0.20804608 -0.25478953 0.35661632 -2.6165524 0.4101681
-0.067843996 -0.1628583 -0.36114225 0.0025473551 -0.14218514 2.8032973 1.8389804 -7.2249103
-0.42086098 -0.716131 0.10620199 2.3422508 1.1770444 -0.0906251 -1.3176237 0.014255011
-0.07145547 7.938642 -4.762751 0.033045188 2.7930138 0.09477289 0.15040925 0.9738333
0.051867306 -0.14873578 0.16841091 0.62235206 0.3051617 0.35003206 0.30633935 -0.23725271
0.21712902 -1.6604717 0.13344547 0.07076533 -0.05137321 -0.6619146 -0.02534627 -0.17645447
2.013717 1.4738011 -2.9201748 -0.9062299 33.231903 0.10993826 20.288301 -42.412125
0.43801776 3.836481 0.69132775 0.33406746 -33.874275 26.61074 -1.5636612 -55.905624
0.9254184 0.080087565 -61.45928 1.1450033 0.69447285 2.5934083 0.28353956 8.086562
-2.405072 -21.389824 1.2503666 0.16479288 7.6505065 -2.8291497 5.6694374 3.288786
-2.1422155 13.245867 -11.510609 -22.26251 -13.34556 -5.4438233 -1.438541 -0.62317306
-0.0238151 12.730329 3.921554 -0.005975172 -3.5053906 -0.15834157 0.17732048 36.963028

fc1.bias f4 [35]
00000000: 621c 40c0 8ec2 d5c0 a36d d7c0 1c4c dcc0
00000010: c485 e0c0 6d60 dfc0 d2ff 39c0 6285 a7c0
00000020: 04f5 d2c0 fbd0 30c0 4b92 e6c0 6b28 c5c0
00000030: a15d d4c0 440a 34c0 10fb c3c0 250e 4cc0
00000040: 9b97 8dc0 1d21 dac0 62cc c2c0 d589 a2c0
00000050: bf69 9bc0 ad49 d9c0 41b9 74c0 2af7 e6c0
00000060: f999 c1c0 f8a6 e9c0 c9ee c4c0 e752 30c0
00000070: 1dc6 e4c0 5f9d e2c0 aa32 d2c0 40c4 34c0
00000080: f611 55c0 b7c4 e5c0 4234 5ec0
-3.0017323 -6.6799994 -6.7321334 -6.8842907 -7.016329 -6.9805207 -2.906239 -5.235032
-6.592409 -2.7627552 -7.205358 -6.161184 -6.6364293 -2.8131266 -6.1243973 -3.1883633
-4.4247565 -6.816542 -6.087449 -5.079325 -4.8566585 -6.7902436 -3.823807 -7.2176714
-6.0500455 -7.301632 -6.1541486 -2.75506 -7.1491838 -7.0817103 -6.5686846 -2.8244781
-3.3292212 -7.180263 -3.4719396

output.weight f4 [1, 35]
00000000: 47c3 22c0 b675 8f3f e0f1 973f 5a03 91bf
00000010: 9f75 6bbf 421c 31bf 3428 2940 18ff d8bf
00000020: 43c4 a13f 5f8c 2ac0 a439 cc3e 1199 c3bf
00000030: 837e a63f 5d4b 2c40 2b85 c5bf fd66 18c0
00000040: 6392 f5bf d918 98bf 85ca c0bf fa13 dcbf
00000050: 0e65 e0bf d77f 883f be63 0540 91da 2c3e
00000060: 29bf bd3f bc51 8bbe 3193 bf3f 89e1 3240
00000070: 7102 0f3f 0d85 3d3f d3ae 9b3f e03f 2ac0
00000080: a7ae 1a40 e61d 1f3f 26bd 13c0
-2.5431688 1.1207798 1.1870689 -1.1329148 -0.9197635 -0.69183743 2.6430788 -1.6952848
1.2638019 -2.6648176 0.39887726 -1.5281087 1.3007358 2.6920998 -1.5431265 -2.381286
-1.9185299 -1.1882583 -1.5061804 -1.7193596 -1.753084 1.0664014 2.0842128 0.16880251
1.4823962 -0.27210796 1.4966794 2.7950156 0.558631 0.74031144 1.2162727 -2.6601486
2.41691 0.62154996 -2.3084197
