training_nn/model/Theta_net_ep8.pth (torch, 6844 bytes, 3 tensors)

fc1.weight f4 [35, 35]
000000 4a 73 3a c0 34 51 23 bf 6b ab 0d 40 e9 2b 67 3e
       -2.9132867 -0.6379578 2.2135875 0.22575344
000010 b6 21 85 41 c3 38 24 be 91 c8 20 bf f7 61 ed 41
       16.64146 -0.16037278 -0.6280604 29.672834
000020 8f f0 24 be 1c e5 67 bf 35 70 22 42 42 8e 39 c2
       -0.16107391 -0.9058397 40.609577 -46.388924
000030 62 ea fd 3f 50 40 86 42 c9 91 3a bf 91 54 58 be
       1.9837153 67.12561 -0.728787 -0.2112601
000040 08 dc b8 c1 52 ef 1b bf 09 59 41 3f 00 83 09 c0
       -23.107437 -0.6091205 0.7552648 -2.1486206
000050 4c 91 37 3d 41 95 39 3e e5 2e 55 bf b8 a9 84 c1
       0.0448163 0.18123342 -0.8327468 -16.58287
000060 75 af c9 be 0b fe fb 3f ae 5d 66 c1 a3 45 3a 40
       -0.39391676 1.9686903 -14.397871 2.9105003
000070 e3 16 db c0 e5 2d 53 3f 62 46 01 40 81 c3 a9 bf
       -6.846544 0.82491904 2.0199208 -1.3262788
000080 01 9e c3 41 ea 17 cd 41 02 30 92 40 2e 64 da c0
       24.45215 25.636677 4.5683603 -6.824729
000090 38 29 96 c0 d1 04 44 be 55 35 bc 3c f6 3a f8 40
       -4.6925316 -0.19142462 0.02297465 7.7571974
0000a0 f4 92 79 bf 8e a4 a7 3d 0a 60 04 be dd 13 8a 3d
       -0.9748986 0.08185683 -0.12927261 0.0674207
0000b0 55 59 f8 bc 18 52 60 c1 c4 87 3b 41 08 7d 03 bd
       -0.030316034 -14.020042 11.720646 -0.03210166
0000c0 a6 1f 19 c1 35 54 30 bd b1 9a 30 3e 58 42 a3 c0
       -9.570227 -0.043049056 0.1724651 -5.1018486
0000d0 e1 27 1c 3d 77 18 b9 3d 55 3d 85 be 50 c5 51 3f
       0.03812397 0.090378694 -0.26023355 0.819417
0000e0 89 4b de 3e 37 d6 49 be f4 0d ab bf d5 10 b3 3e
       0.43417004 -0.19710623 -1.3363633 0.3497378
0000f0 0f 89 86 be 56 85 82 40 fc 6c 01 bf 3b bf 95 3e
       -0.26276442 4.0787764 -0.5055692 0.2924746
000100 d1 b0 ba 3e ff 7c 11 c0 98 c6 da be 33 12 aa 3f
       0.36463025 -2.2732542 -0.4272964 1.3286804
000110 0a 9d 80 c0 43 7f 3c c0 d9 24 d4 c0 b2 db a2 c0
       -4.01917 -2.9452674 -6.629498 -5.0893183
000120 bb eb 08 be f4 d9 3c be 26 02 0c 41 4b 75 66 bf
       -0.13371174 -0.18442518 8.7505245 -0.90022725
000130 56 28 69 3e 99 49 64 be f1 ec 23 3d 1d a7 ff 3d
       0.22769293 -0.222937 0.040020887 0.12483046
000140 db ce 75 c1 ed 81 5c 41 88 a9 b7 be 34 d2 33 c1
       -15.363002 13.78172 -0.3587153 -11.238819
000150 eb ea 4c be ad 65 08 3b 44 b5 be c0 1c d9 ea bd
       -0.20011489 0.0020812557 -5.959627 -0.114671916
000160 b6 95 42 3e cf 9c c6 bd f0 cc 42 3f 5d 7f 21 3f
       0.19002423 -0.096978776 0.7609396 0.63084966
000170 61 e7 2d be 4a d0 bb bf 38 38 cb 3d 5d 00 ab be
       -0.16982795 -1.467294 0.09922832 -0.33398715
000180 58 a9 90 40 b4 8d 6d bf 1f b4 19 3f a3 97 d4 3e
       4.520672 -0.92794347 0.6004047 0.4152194
000190 16 b7 02 c0 ab 26 81 be 9c 90 bb 3f 82 d4 9b c0
       -2.0424247 -0.25224814 1.4653506 -4.869691
0001a0 e8 85 50 c0 ed ca d4 c0 d8 7d d3 bf df 3e 50 bf
       -3.258173 -6.649771 -1.652278 -0.81345934
0001b0 aa 23 07 3e cd 3a 8e 40 0c 69 06 40 66 a6 7a bd
       0.13197199 4.444678 2.1001616 -0.061193846
0001c0 da 14 19 c0 b7 72 98 bd 2b 30 cd 3c 80 8f 63 41
       -2.3918977 -0.07443755 0.025047382 14.222534
0001d0 bd 14 1a c1 0e 91 98 3e ab 64 ec 40 1b ef 4f bd
       -9.630063 0.29798168 7.3872886 -0.050765138
0001e0 c7 62 d9 bd 76 8b 28 40 fc a4 09 3e 71 c5 35 be
       -0.106145434 2.633512 0.13441843 -0.17751099
0001f0 ad 3c b8 3c f6 9b fe 3e 65 48 1f 3f e6 a6 dd 3d
       0.02248987 0.49728364 0.6221984 0.10822849
000200 a0 a0 08 3d e5 9c 63 be c7 30 98 3e dd 52 67 c0
       0.03335631 -0.2222782 0.29724714 -3.6144326
000210 af 97 00 3f 55 77 ae be 93 5d bc be 76 d6 2e be
       0.5023145 -0.34075418 -0.3679014 -0.17073998
000220 39 10 a1 be 8b 6c 00 be e6 18 7c 40 75 eb 24 40
       -0.3145769 -0.12541406 3.9390197 2.5768712
000230 6d f6 db c0 96 56 78 bf 9f 0e 2b bf 76 d3 1f 3e
       -6.8738313 -0.9700712 -0.66819185 0.1560801
000240 a7 f3 3d 40 6e 23 b7 3f f1 3e c2 3c 43 e3 d8 bf
       2.9679964 1.4307687 0.023711653 -1.6944355
000250 59 ac 9a 3c 12 6c 46 3e 8b 2c 2c 41 59 da d4 c0
       0.01888101 0.19377163 10.760875 -6.651654
000260 f7 5b 8b 3e 7a ad 91 40 04 6a 3d bc de 76 07 3c
       0.272186 4.5524263 -0.011560921 0.008268086
000270 1d ba b1 3f 04 c4 1c 3d 96 56 15 3e 75 3a 93 3e
       1.3884922 0.038272873 0.14583811 0.28755537
000280 04 ae 1a 3f a0 1b 02 3f 72 60 27 3e 18 0a 55 3e
       0.60421777 0.508234 0.16345385 0.20804632
000290 c6 73 82 be 6a 96 b6 3e 98 75 27 c0 8e 01 d2 3e
       -0.25478953 0.35661632 -2.6165524 0.4101681
0002a0 cb f1 8a bd 54 c4 26 be ec eb b8 be 38 cd 26 3b
       -0.067843996 -0.1628583 -0.36117494 0.002545191
0002b0 06 99 11 be 39 69 33 40 d8 63 eb 3f 8c 35 e7 c0
       -0.1421853 2.8032973 1.8389845 -7.2252865
0002c0 b4 78 d7 be 5c 54 37 bf 6e 80 d9 3d 77 e7 15 40
       -0.42084277 -0.716131 0.10620199 2.3422525
0002d0 64 a9 96 3f a7 99 b9 bd e5 a7 a8 bf da 8d 69 3c
       1.1770444 -0.0906251 -1.3176237 0.014255011
0002e0 3f 57 92 bd 5f 09 fe 40 75 68 98 c0 64 5a 07 3d
       -0.07145547 7.938644 -4.762751 0.033045188
0002f0 bd c0 32 40 4a 18 c2 3d e2 04 1a 3e 24 4d 79 3f
       2.7930138 0.09477289 0.15040925 0.9738333
000300 d0 72 54 3d 31 4e 18 be e9 73 2c 3e c6 56 1f 3f
       0.051867306 -0.14873578 0.16841091 0.6224178
000310 2b 3e 9c 3e 67 37 b3 3e 89 d8 9c 3e 60 f2 72 be
       0.3051618 0.35003206 0.30633953 -0.23725271
000320 12 57 5e 3e 56 8a d4 bf ee a5 08 3e 6a ed 90 3d
       0.21712902 -1.6604717 0.13344547 0.07076533
000330 b7 6c 52 bd a4 76 29 bf f3 a3 cf bc 7c b0 34 be
       -0.05137321 -0.66196656 -0.025346732 -0.17645448
000340 bd e0 00 40 86 a5 bc 3f d8 ef 3a c0 8e 04 68 bf
       2.013717 1.4738014 -2.920889 -0.9063195
000350 1e db 04 42 d5 1f e0 3d 65 5d a2 41 80 90 29 c2
       33.21398 0.109435715 20.295603 -42.391113
000360 6c 6d e0 3e 01 33 73 40 8b c9 30 3f 44 50 ab 3e
       0.43833482 3.799988 0.6905753 0.33459675
000370 28 b6 07 c2 43 06 d5 41 9e 2e c8 bf f4 99 5f c2
       -33.927887 26.628057 -1.5639226 -55.900345
000380 ba d0 6c 3f 60 12 a8 3d a7 9c 75 c2 a7 80 92 3f
       0.9250599 0.0820663 -61.40298 1.1445512
000390 c8 9a 31 3f 1c ec 25 40 f4 0e 90 3e 2c 3f 01 41
       0.693768 2.592536 0.28136408 8.077923
0003a0 ba dc 19 c0 d5 15 ab c1 66 04 a0 3f 00 3f 28 3e
       -2.404097 -21.38566 1.2501342 0.16430283
0003b0 43 a9 f5 40 85 1c 35 c0 0b 69 b5 40 3d 49 52 40
       7.676912 -2.8298657 5.6690726 3.28572
0003c0 f2 ae 08 c0 48 ed 53 41 a5 d6 37 c1 63 3c b2 c1
       -2.1356778 13.24543 -11.489903 -22.279486
0003d0 33 b2 55 c1 90 25 ae c0 21 2e b8 bf 9b 8b 1f bf
       -13.356006 -5.4420853 -1.4389077 -0.62322396
0003e0 7c 16 c3 bc eb b9 4b 41 87 fa 7a 40 37 bd c3 bb
       -0.023814432 12.73289 3.921541 -0.005973484
0003f0 c6 58 60 c0 32 24 22 be be 93 35 3e 2d df 13 42
       -3.5054183 -0.1583412 0.1773214 36.967945

fc1.bias f4 [35]
000000 e5 15 40 c0 4e c7 d5 c0 f8 72 d7 c0 9c 54 dc c0
       -3.0013363 -6.680579 -6.7327843 -6.8853283
000010 d1 89 e0 c0 82 63 df c0 85 0b 3a c0 25 77 a7 c0
       -7.0168233 -6.980897 -2.906953 -5.233294
000020 7c fb d2 c0 62 d1 30 c0 20 92 e6 c0 86 28 c5 c0
       -6.593199 -2.7627797 -7.2053375 -6.1611967
000030 e2 63 d4 c0 14 14 34 c0 bb fb c3 c0 31 00 4c c0
       -6.6371927 -2.8137255 -6.124479 -3.1875117
000040 22 83 8d c0 6f 2a da c0 cd cf c2 c0 68 77 a2 c0
       -4.4222574 -6.81768 -6.0878663 -5.077076
000050 12 55 9b c0 97 4c d9 c0 ce a0 74 c0 0e f6 e6 c0
       -4.8541346 -6.7905993 -3.8223147 -7.217536
000060 4e 9d c1 c0 52 a7 e9 c0 7b f4 c4 c0 0b 6f 30 c0
       -6.050452 -7.301675 -6.154844 -2.7567775
000070 1f c6 e4 c0 aa 9f e2 c0 4c 38 d2 c0 a3 c6 34 c0
       -7.1491847 -7.0819902 -6.569372 -2.8246238
000080 5c 18 55 c0 47 c5 e5 c0 e7 1b 5e c0
       -3.3296118 -7.1803317 -3.470453

output.weight f4 [1, 35]
000000 1d cb 22 c0 b7 60 8f 3f c1 d8 97 3f b2 e9 90 bf
       -2.543647 1.120139 1.1863023 -1.1321318
000010 e3 4b 6b bf 61 04 31 bf d5 1d 29 40 3e 3c d9 bf
       -0.9191267 -0.69147307 2.6424458 -1.697151
000020 36 a9 a1 3f 2a 8d 2a c0 a7 1d cc 3e 94 97 c3 bf
       1.2629764 -2.664866 0.39866373 -1.5280633
000030 0e 64 a6 3f 93 43 2c 40 48 81 c5 bf fc 75 18 c0
       1.2999284 2.6916244 -1.5430079 -2.3822012
000040 8b e6 f5 bf 5d fc 97 bf f4 bc c0 bf 72 5c dc bf
       -1.9210981 -1.187389 -1.5057664 -1.7215712
000050 f5 b6 e0 bf d3 6a 88 3f d9 7b 05 40 1e c3 2c 3e
       -1.7555834 1.06576 2.085684 0.16871306
000060 55 b2 bd 3f f6 43 8b be 68 81 bf 3f 51 c6 32 40
       1.4820048 -0.27200288 1.4961367 2.7933543
000070 17 ef 0e 3f 42 69 3d 3f 3f 95 9b 3f 78 3f 2a c0
       0.5583357 0.73988736 1.2154921 -2.6601238
000080 57 a8 1a 40 b6 07 1f 3f b9 d5 13 c0
       2.4165246 0.6212114 -2.3099196
