training_nn/model/Theta_net_ep2.pth (torch, 25366 bytes, 7 tensors)

fc1.weight f4 [70, 35]
0	0xc0a3a02f	-5.1133037
1	0x401a59a6	2.4117217
2	0xbd5019d4	-0.05080588
3	0xbd953f00	-0.07287407
4	0xbfcd45eb	-1.6036962
5	0xbd3da866	-0.046303175
6	0x3d3e8534	0.04651375
7	0xbe2f7ee1	-0.17138244
8	0xbe095d3b	-0.13414471
9	0x3d812518	0.06305903
10	0x416689d4	14.408649
11	0xbe5415f7	-0.20711504
12	0x3e16192b	0.14658038
13	0x3da78439	0.08179516
14	0x3dc3b6d1	0.09556354
15	0x3db06170	0.08612335
16	0xbd681b74	-0.056666806
17	0x3ba33cbb	0.004981605
18	0xbd227ba6	-0.0396687
19	0x3d828cf9	0.06374545
20	0x3f8c99cb	1.0984434
21	0xbded592f	-0.11589276
22	0xbda687f4	-0.081314
23	0x3e097868	0.13424838
24	0xbd9166f5	-0.070997156
25	0x3da9682f	0.082718246
26	0xbfb3c0b8	-1.4043188
27	0x3e147474	0.14497548
28	0xbdee9f6a	-0.116514996
29	0xbdf9c66d	-0.1219605
30	0xbf14a207	-0.58059734
31	0xbd8ab149	-0.06772096
32	0xbd28476a	-0.04108373
33	0x3e203218	0.15644109
34	0x3f88ca97	1.0686826
35	0xc0a31b97	-5.097118
36	0x40b9687a	5.7940035
37	0xbea8674e	-0.32891315
38	0xbde834bb	-0.113381825
39	0xc07ad72a	-3.9193826
40	0x3df0d6f1	0.11759747
41	0x3c3ae547	0.011407203
42	0x3d019bab	0.031642597
43	0x3b943174	0.004522497
44	0x3c8bf8ec	0.017086469
45	0x418f2f5c	17.898125
46	0xbf6509f5	-0.8946832
47	0xbd9fcabc	-0.078023404
48	0x3f220624	0.6329062
49	0x3c97e21c	0.018540435
50	0x3d9b2bc5	0.07576708
51	0x3ee365c5	0.44413581
52	0xbdaaea5b	-0.08345481
53	0xbdd11f8b	-0.102110945
54	0xbb214351	-0.0024606774
55	0x3fbd2d17	1.4779385
56	0xbe5bf2a7	-0.21479283
57	0x3d1bfb9f	0.03808176
58	0x3e0d75fc	0.13814539
59	0xbdeb1d07	-0.11480146
60	0x3bb48103	0.0055085435
61	0xc0165efe	-2.3495479
62	0xbd024de1	-0.031812552
63	0xbe18839f	-0.1489396
64	0xbdce97a6	-0.100875184
65	0xbf3737cc	-0.71569514
66	0x3e307dc9	0.17235483
67	0xbeb4d850	-0.35321283
68	0x3f45823c	0.77151847
69	0x4019b204	2.4014902
70	0xc0624240	-3.5352936
71	0xc15a6d96	-13.651754
72	0xbd44d545	-0.048054952
73	0x3e3f2edb	0.18670218
74	0x416ab3b3	14.668872
75	0x40275db0	2.6150932
76	0xbdef72fa	-0.11691852
77	0xc09b3a92	-4.8508997
78	0xbe0b28fd	-0.13589855
79	0x3dc3aeb7	0.095548086
80	0x4253cff4	52.95308
81	0xc17c47ae	-15.7675
82	0x3e4b2211	0.19837214
83	0x41607090	14.027481
84	0x3e300c03	0.17192082
85	0xbdcd9643	-0.10038426
86	0x40bc9f01	5.8944097
87	0x3de0f2d2	0.10983814
88	0xbdb17401	-0.08664704
89	0x3dee718c	0.11642751
90	0x3e24b420	0.16084337
91	0xbddf35ed	-0.108989574
92	0x3e19f089	0.15033163
93	0xbffc0a0e	-1.9690568
94	0x3d45474b	0.048163693
95	0x3ee234f2	0.4418102
96	0xc130d32a	-11.051554
97	0x3e7d02e0	0.24708128
98	0xbe8ec6ed	-0.27886143
99	0xbdc6bfc9	-0.09704549
100	0x403bcc2d	2.934337
101	0x3eb1997a	0.34687406
102	0x4007f9be	2.124618
103	0x40d11109	6.5333295
104	0x41017a50	8.092361
105	0xc09c286d	-4.879935
106	0x408679c7	4.2023654
107	0xbea3022a	-0.3183759
108	0xbd1ffad8	-0.039057583
109	0xbfe6ea60	-1.8040276
110	0x3f1bca53	0.608556
111	0xbde7b93d	-0.11314628
112	0xbebc2680	-0.36748123
113	0x3de3e923	0.11128452
114	0xbe15621a	-0.14588204
115	0x41bad738	23.355087
116	0xc0481880	-3.1264954
117	0x3df9488d	0.12172041
118	0x40082a88	2.127596
119	0xbcbab6c9	-0.022792237
120	0x3dffed2b	0.12496408
121	0x3fd42780	1.6574554
122	0x3de94626	0.11390333
123	0x3d47f2f9	0.0488157
124	0xbd6bf4a4	-0.057606354
125	0x3fa646c2	1.2990344
126	0xbda05787	-0.078291945
127	0xbdce24f4	-0.10065642
128	0x3d9d5c89	0.07683665
129	0xbe01a580	-0.1266079
130	0x3e5477f6	0.20748886
131	0xc08fe078	-4.496151
132	0x3dae1ee5	0.085019864
133	0xbcd21255	-0.025643507
134	0x3e062801	0.13101198
135	0x3eae0d75	0.33994642
136	0x3e420ba9	0.1894976
137	0xbeac82fd	-0.33693686
138	0x3fc03c99	1.5018493
139	0x40751761	3.829552
140	0xc0a5aa1c	-5.1770153
141	0x3f4c88bd	0.79896146
142	0xbe144ad6	-0.14481673
143	0x3c1e0e3b	0.0096469475
144	0x3ec1a9df	0.37824914
145	0x3ced5793	0.028972423
146	0xbd589b67	-0.05288258
147	0xbe13c496	-0.1443046
148	0xbd27a333	-0.040927123
149	0x3d593de7	0.05303755
150	0x3f991677	1.1959981
151	0x3e5712a7	0.21003209
152	0xbe113d84	-0.14183623
153	0xbd750685	-0.05982067
154	0xbdc336a9	-0.0953191
155	0xbdf174db	-0.117898665
156	0xbea1893f	-0.31550023
157	0xbd99c9e3	-0.0750921
158	0xbaa23551	-0.0012375509
159	0xbe231947	-0.15927611
160	0x3fbbd197	1.4673337
161	0x3dcbbc14	0.099479824
162	0x3dd39b74	0.10332385
163	0xbd338b69	-0.043834124
164	0xbd36439e	-0.04449808
165	0x3df942fa	0.12170978
166	0x3e9e1061	0.3087187
167	0xbd883202	-0.06650163
168	0x3dbb9b37	0.09160464
169	0xbdce57d6	-0.10075347
170	0xc02e3812	-2.7221723
171	0x3da50799	0.0805809
172	0x3e933d14	0.28757536
173	0xbe17efb5	-0.14837535
174	0x3e933495	0.28751054
175	0xbfea1639	-1.8288032
176	0xc1910d37	-18.131453
177	0x3fe5ae81	1.7943879
178	0x3e7acce7	0.24492227
179	0x419620ec	18.766075
180	0x40565773	3.3490875
181	0x3da9d2db	0.082921706
182	0xc02cb766	-2.6986938
183	0x3d74f2cc	0.05980186
184	0x3d50c460	0.050968528
185	0x42845e12	66.18373
186	0xc1d97296	-27.18095
187	0x3e017c04	0.12644964
188	0x41c74c72	24.912327
189	0x3e0d9312	0.13825634
190	0xbe43772d	-0.1908843
191	0x41121c96	9.131979
192	0x3bfc43d7	0.007698517
193	0x3e2a3f23	0.16625647
194	0x3de87897	0.11351126
195	0x3dd1b831	0.1024021
196	0xc0b0919d	-5.517775
197	0xbdf3dd5f	-0.119074576
198	0xc0d1e6bd	-6.5594163
199	0xbd40aa1d	-0.047037233
200	0x3f511589	0.81673485
201	0xc1679b3a	-14.475397
202	0x3e942f37	0.28942272
203	0xbf5ea6c8	-0.8697324
204	0xbdeff5d8	-0.11716813
205	0x406ff8d0	3.7495613
206	0x404adfbb	3.1699054
207	0x4134e0f6	11.304922
208	0x41250f01	10.316163
209	0x410e66f3	8.900134
210	0xc023177b	-2.5483081
211	0xc18f53b2	-17.915867
212	0x3f49e201	0.7886048
213	0x3ddf22f5	0.108953394
214	0x418d2dfe	17.647457
215	0x404ae03c	3.1699362
216	0xbe1d5741	-0.15365316
217	0xc0902d0f	-4.5055003
218	0xbd6b8bb9	-0.057506297
219	0xbc92c958	-0.017918274
220	0x4278b41b	62.175884
221	0xc1a1a370	-20.204803
222	0x3e41b58d	0.18916912
223	0x4193b64f	18.464018
224	0x3de3ba1b	0.11119481
225	0xbd5ef93b	-0.054436903
226	0x40e1de54	7.0583897
227	0xbe6da595	-0.23207696
228	0xbd22ea65	-0.039774317
229	0xbd075a30	-0.033044994
230	0x3e96369b	0.29338536
231	0xc012a6ee	-2.2914386
232	0x3e1b064a	0.15139118
233	0xc08a3ea5	-4.320147
234	0x3da6271c	0.08112928
235	0x3f315d00	0.6928253
236	0xc1480ba1	-12.502839
237	0x3ebaa6dd	0.36455432
238	0xbf06678e	-0.5250176
239	0xbe613e29	-0.21996368
240	0x404d5054	3.2080278
241	0x3fa2dbbc	1.2723308
242	0x40bbc6e8	5.8680305
243	0x41040c94	8.253071
244	0x410e8556	8.907553
245	0xbf95c020	-1.1699257
246	0xc1a10a11	-20.129915
247	0x416813c1	14.504823
248	0x3b6d50de	0.003621153
249	0x41a3e0f4	20.48484
250	0xc171f647	-15.122626
251	0x3ebbf7df	0.36712548
252	0xc0d9fe53	-6.8122954
253	0xbe22d355	-0.1590093
254	0x3e9eb7e1	0.30999663
255	0xc25c8f3a	-55.13987

fc1.bias f4 [70]
0	0xc09e2150	-4.9415665
1	0xc098eef2	-4.779168
2	0xc066ebd5	-3.608144
3	0xc097c352	-4.742593
4	0xc0a0deca	-5.027196
5	0xbff9bc07	-1.9510506
6	0xc018c73a	-2.3871598
7	0xbf821538	-1.0162725
8	0xc0a5ef07	-5.185428
9	0xbfd3c38e	-1.6544054
10	0xc0927976	-4.577327
11	0xc09f8147	-4.984531
12	0xc09268b0	-4.575279
13	0xc0a093b3	-5.0180297
14	0xc0a975d9	-5.2956357
15	0xc0a0acc2	-5.0210886
16	0xc0991a4d	-4.7844605
17	0xc0964683	-4.6961074
18	0xc09343e7	-4.602039
19	0xc0a3f32d	-5.1234345
20	0xbff6bd0a	-1.927644
21	0xc08d0409	-4.4067426
22	0xc01f9a1c	-2.493781
23	0xc0a259c8	-5.0734596
24	0xbfd0ac05	-1.6302496
25	0xbfd85dac	-1.6903586
26	0xbfe05b1a	-1.7527802
27	0xc09d9fa7	-4.925739
28	0xc0a245b4	-5.0710087
29	0xc09aad78	-4.8336754
30	0xc0a7233e	-5.223052
31	0xc09a3b33	-4.8197265
32	0xc0a33abe	-5.1009207
33	0xc0a6ea41	-5.2160954
34	0xc0a54564	-5.1647205
35	0xbfce3ff3	-1.6113266
36	0xbf824dec	-1.018003
37	0xc08d87d4	-4.4228306
38	0xc0a1c356	-5.0550947
39	0xc09a50dc	-4.8223705
40	0xc0a55d28	-5.1676216
41	0xc0953c91	-4.6636434
42	0xc0a08f8a	-5.017522
43	0xbfe60c34	-1.7972474
44	0xc0a4419d	-5.1330094
45	0xc07e3af4	-3.9723482
46	0xc0a36cd2	-5.1070337
47	0xc0a1056f	-5.0319133
48	0xbfe5a5bd	-1.7941204
49	0xc0a1bacd	-5.054053
50	0xc09f8295	-4.98469
51	0xc08b52d1	-4.3538594
52	0xc0a126d2	-5.035989
53	0xc0a76f42	-5.2323313
54	0xc0a509a7	-5.1574283
55	0xc0a4c38e	-5.1488714
56	0xc09bd510	-4.8697586
57	0xbfd9317b	-1.6968225
58	0xc0a526cd	-5.1609864
59	0xc0a7d499	-5.244702
60	0xc0a063d3	-5.0121856
61	0xc094bf26	-4.6483335
62	0xc0a3695b	-5.106611
63	0xc08d03fe	-4.4067373
64	0xbfdb3485	-1.7125403
65	0xc0a314c5	-5.0962853
66	0xc0a6e999	-5.2160153
67	0xc0926560	-4.574875
68	0xc09cf2e7	-4.904651
69	0xc0845d90	-4.136421

fc2.weight f4 [35, 70]
0	0xbf12ccbc	-0.5734365
1	0xbf2a1051	-0.66431147
2	0xc02af89d	-2.6714242
3	0xbf4dce12	-0.80392563
4	0xbf2e0d35	-0.679889
5	0xc0507454	-3.2571
6	0xc0483c57	-3.1286829
7	0xc0850382	-4.156678
8	0xbed4492e	-0.41462082
9	0xc0718c48	-3.774187
10	0xbfb50dc3	-1.4144825
11	0xbf2c99c4	-0.6742213
12	0xbff00b05	-1.8753363
13	0xbf4a458e	-0.7901238
14	0xbf1b1671	-0.6058112
15	0xbf01c28e	-0.5068749
16	0xbf88315f	-1.0640067
17	0xbf80218d	-1.0010239
18	0xbf489ac8	-0.7836118
19	0xbeb59b78	-0.35470176
20	0xc052b2cb	-3.2921627
21	0xc001452f	-2.0198476
22	0xc03a3376	-2.909391
23	0xbed02ab2	-0.40657574
24	0xc0664d64	-3.5984735
25	0xc053f968	-3.3120975
26	0xc064eac6	-3.5768294
27	0xbf1ff2b1	-0.6247969
28	0xbf3989a9	-0.7247568
29	0xbf7e74bc	-0.9939687
30	0xbec37b71	-0.38180116
31	0xbf267d19	-0.65034634
32	0xbef0762d	-0.4696516
33	0xbed6d657	-0.41960403
34	0xbeb21218	-0.3477943
35	0xc0296723	-2.64692
36	0xc095b9a6	-4.678912
37	0xbfe9ca74	-1.8264909
38	0xbf37f36f	-0.71855825
39	0xbf0b420a	-0.5439764
40	0xbedc98be	-0.43085283
41	0xbf69df3a	-0.9135624
42	0xbf2ccfc6	-0.6750454
43	0xc05c03d0	-3.4377327
44	0xbe9e7884	-0.3095132
45	0xc01b5269	-2.426905
46	0xbea49188	-0.32142282
47	0xbf3edae0	-0.74552727
48	0xc06201ba	-3.5313554
49	0xbec25d18	-0.3796165
50	0xbea72104	-0.32642376
51	0xc008aeac	-2.1356611
52	0xbf34fefc	-0.70701575
53	0xbe9e34a1	-0.30899528
54	0xbe9d3765	-0.30706325
55	0xbf36db04	-0.7142794
56	0xbf0b9544	-0.54524636
57	0xc05237ca	-3.284655
58	0xbf0052f8	-0.501266
59	0xbeaea954	-0.34113562
60	0xbf166b21	-0.58757216
61	0xbf8be2f9	-1.0928642
62	0xbf309d5c	-0.6899011
63	0xbffa8450	-1.9571629
64	0xc05f2154	-3.4864092
65	0xbed31261	-0.4122496
66	0xbedd8116	-0.43262547
67	0xbfe85e13	-1.8153709
68	0xbf0b28de	-0.54359233
69	0xc0143e78	-2.3163128
70	0xbf3f7b70	-0.74797726
71	0xbf6d33a8	-0.92656946
72	0xc04a64e9	-3.162409
73	0xbf7ca4fa	-0.98689234
74	0xbf4c1998	-0.7972655
75	0xc0933116	-4.599742
76	0xc07b8465	-3.9299557
77	0xc0620f05	-3.5321667
78	0xbee693fc	-0.45034778
79	0xc0a8be38	-5.27322
80	0xbfa59204	-1.2935185
81	0xbf6e695d	-0.9312952
82	0xbfe95527	-1.8229111
83	0xbf57028e	-0.83988273
84	0xbf1eaba5	-0.6198066
85	0xbeae004c	-0.33984601
86	0xbf829d45	-1.0204245
87	0xbf838278	-1.0274191
88	0xbf801221	-1.0005533
89	0xbea1f387	-0.3163111
90	0xc092dbd1	-4.589333
91	0xc00431d3	-2.065541
92	0xc06992af	-3.6495779
93	0xbe8aec6d	-0.27133504
94	0xc0a2afb1	-5.0839467
95	0xc0926431	-4.5747304
96	0xc09bcbff	-4.868652
97	0xbf303d96	-0.6884397
98	0xbf28dfbc	-0.6596639
99	0xbf76eb72	-0.9645301
100	0xbee4e878	-0.4470861
101	0xbf57d02f	-0.8430204
102	0xbf23f606	-0.64047277
103	0xbec2e5c8	-0.38065934
104	0xbe9d3bf5	-0.30709806
105	0xc01c2cc6	-2.4402328
106	0xc0825351	-4.0726705
107	0xc00dbaf0	-2.2145348
108	0xbf76013f	-0.9609565
109	0xbf75c3b8	-0.9600177
110	0xbf0bc70d	-0.546006
111	0xbf58dc56	-0.84711206
112	0xbf2aa7d1	-0.6666232
113	0xc098acca	-4.7710924
114	0xbebb987c	-0.36639774
115	0xc0340268	-2.8126469
116	0xbecb49d4	-0.39704764
117	0xbf62d7ba	-0.8861042
118	0xc09ab08b	-4.8340507
119	0xbea89d93	-0.3293272
120	0xbe92ef65	-0.2869827
121	0xc00d58aa	-2.2085366
122	0xbf70da2c	-0.94082904
123	0xbee0492f	-0.43805835
124	0xbe946d32	-0.2898956
125	0xbf6f230e	-0.93412864
126	0xbf89a578	-1.0753622
127	0xc087f716	-4.248912
128	0xbedaffb0	-0.427732
129	0xbea195f2	-0.31559712
130	0xbf1eef6f	-0.62084097
131	0xbf8c8a09	-1.0979625
132	0xbf383b12	-0.71965134
133	0xc0011ecb	-2.0175045
134	0xc09c2331	-4.879296
135	0xbf1309fa	-0.574371
136	0xbee4eac1	-0.44710353
137	0xbfeccee6	-1.850064
138	0xbf887244	-1.0659871
139	0xc02f8f9c	-2.7431402
140	0xbf2ea986	-0.6822742
141	0xbf466372	-0.7749549
142	0xc023ddee	-2.5604205
143	0xbf3fa924	-0.74867463
144	0xbf427bf9	-0.7597042
145	0xc04b72c0	-3.1788788
146	0xc0318528	-2.7737522
147	0xc088a6a7	-4.2703433
148	0xbf066263	-0.52493876
149	0xc0517f52	-3.273396
150	0xbf9d7f96	-1.2304561
151	0xbf367c68	-0.7128358
152	0xbfdb3629	-1.7125903
153	0xbf3a455e	-0.72762096
154	0xbf1c2737	-0.6099734
155	0xbef9080c	-0.48638952
156	0xbf64127b	-0.890907
157	0xbf832fa7	-1.0248917
158	0xbf870a9e	-1.0550115
159	0xbe8767e9	-0.26446465
160	0xc0456b45	-3.0846722
161	0xbfeab0c6	-1.8335197
162	0xc0318904	-2.7739878
163	0xbeaa8dae	-0.33311218
164	0xc052ab34	-3.2916994
165	0xc0403286	-3.0030837
166	0xc056caf2	-3.3561368
167	0xbf256b66	-0.64617
168	0xbf4935f3	-0.78597945
169	0xbf943e47	-1.1581506
170	0xbedd21ca	-0.43189842
171	0xbf468e75	-0.7756112
172	0xbf121d40	-0.5707588
173	0xbf017b3d	-0.5057867
174	0xbe8e1673	-0.27751502
175	0xc0327672	-2.7884793
176	0xc093b5ea	-4.6159563
177	0xbfef5ae8	-1.8699617
178	0xbf4460be	-0.76710117
179	0xbf1d63af	-0.6148023
180	0xbecebef9	-0.40380076
181	0xbf89d2a6	-1.076741
182	0xbf0d491e	-0.5518969
183	0xc043f12d	-3.0615952
184	0xbec730a6	-0.38904303
185	0xc01acec7	-2.4188707
186	0xbea8272d	-0.3284239
187	0xbf17729e	-0.59159267
188	0xc04c87ae	-3.1957812
189	0xbed29b9c	-0.41134346
190	0xbe9818aa	-0.29706317
191	0xbff5905e	-1.9184682
192	0xbf18216c	-0.59426
193	0xbeffd4ec	-0.49967134
194	0xbea57fca	-0.32324058
195	0xbf194222	-0.59866536
196	0xbf127230	-0.57205486
197	0xc03cd5d6	-2.9505515
198	0xbecadd61	-0.39622024
199	0xbeb20f05	-0.34777084
200	0xbf34bcdc	-0.70600677
201	0xbfa10b2c	-1.2581534
202	0xbf2d626e	-0.67728317
203	0xbfe885f7	-1.8165883
204	0xc04b0757	-3.172323
205	0xbed40231	-0.41407922
206	0xbe84a714	-0.2590872
207	0xbfe34c62	-1.7757685
208	0xbf485636	-0.7825655
209	0xc0161501	-2.345032
210	0xbf176952	-0.5914508
211	0xbf2263ab	-0.6343333
212	0xbfaea2a7	-1.3643388
213	0xbf20714d	-0.62672883
214	0xbefcd316	-0.49379796
215	0xbf82b9cb	-1.021295
216	0xbfc1f346	-1.5152366
217	0xc0e7d2fa	-7.244504
218	0xbebaeced	-0.36508885
219	0xbeb005e6	-0.343795
220	0xbf4d5c96	-0.802194
221	0xbf0e4845	-0.55579025
222	0xbf8ed047	-1.1157311
223	0xbf2708db	-0.6524789
224	0xbf047d3d	-0.517536
225	0xbe93e243	-0.28883561
226	0xbf1a3125	-0.6023124
227	0xbf2d9b56	-0.6781515
228	0xbf337653	-0.70102423
229	0xbe79cc8d	-0.24394436
230	0xbf6eb268	-0.93240976
231	0xbfa83cb1	-1.3143522
232	0xbfb69f23	-1.4267315
233	0xbe818bc4	-0.25301945
234	0xbf241e7d	-0.6410902
235	0xbf74a077	-0.9555735
236	0xbf00b3b7	-0.50274223
237	0xbf0f9da1	-0.560999
238	0xbf19138e	-0.59795463
239	0xbf29dd2a	-0.66353095
240	0xbe6ea261	-0.2330413
241	0xbf1af434	-0.60528874
242	0xbf01324d	-0.5046738
243	0xbea5365e	-0.3226804
244	0xbe7a4156	-0.24438986
245	0xc0832b25	-4.0990167
246	0xc0fddb42	-7.933015
247	0xbf9a4882	-1.2053378
248	0xbf136458	-0.5757499
249	0xbf10fff0	-0.5664053
250	0xbe9a9259	-0.3018978
251	0xbf32e47c	-0.6987989
252	0xbf12ce7f	-0.5734634
253	0xbf5af31b	-0.855272
254	0xbe697f7d	-0.22802539
255	0xbfc4fc3d	-1.5389477

fc2.bias f4 [35]
0	0xc1061811	-8.380876
1	0xc108f89c	-8.560696
2	0xc104ea7a	-8.307245
3	0xc0a504e1	-5.1568456
4	0xc108a541	-8.540345
5	0xc077d05a	-3.8720918
6	0xc0a75ed4	-5.2303257
7	0xc10635a7	-8.388099
8	0xc09944a5	-4.7896295
9	0xbf8fc44b	-1.1231779
10	0xc107e380	-8.493042
11	0xc0288507	-2.6331193
12	0xc10a1f5c	-8.632656
13	0xc108a857	-8.541099
14	0xc107c1b7	-8.484794
15	0xc035d9ce	-2.8414187
16	0xc01a68d7	-2.412649
17	0xc0859efd	-4.1756577
18	0xc0815823	-4.042009
19	0xc03a707f	-2.9131162
20	0xc049948e	-3.149692
21	0xc10a86f0	-8.657944
22	0xc10ac22f	-8.672408
23	0xc08f0d72	-4.4703913
24	0xc1032af5	-8.197988
25	0xc09c69ec	-4.88793
26	0xc10a9ad1	-8.662797
27	0xc109a6c3	-8.603213
28	0xc0cdf550	-6.4361954
29	0xc0ea070e	-7.313361
30	0xc10827f8	-8.509758
31	0xc079fd75	-3.9060948
32	0xc085fc38	-4.1870384
33	0xc10623eb	-8.383769
34	0xc107df3e	-8.4920025

fc3.weight f4 [17, 35]
0	0xc0c62912	-6.1925135
1	0xc0bd0b9e	-5.907668
2	0xc0b1b44a	-5.553258
3	0xc08992d7	-4.299175
4	0xc0ce280c	-6.4423885
5	0xc0b98472	-5.7974176
6	0xc033ca7f	-2.8092344
7	0xc0c25483	-6.0728164
8	0xc0966a2f	-4.700462
9	0xc10693ed	-8.411115
10	0xc0bd87e1	-5.922837
11	0xc0e6c92f	-7.2120585
12	0xc0b882cc	-5.7659664
13	0xc0d26599	-6.574902
14	0xc0d7cbfd	-6.743651
15	0xc0e7848d	-7.2349305
16	0xc0ec03a2	-7.3754435
17	0xc0ac0df2	-5.3767023
18	0xc0d8c1ff	-6.773681
19	0xc0de2ea0	-6.9431915
20	0xc0dfd7af	-6.9950786
21	0xc0aa6d22	-5.325822
22	0xc0bbe930	-5.8722153
23	0xc09b0d84	-4.8454
24	0xc0c03362	-6.0062723
25	0xc0634588	-3.5511189
26	0xc0ba48f7	-5.821407
27	0xc09a0904	-4.8136005
28	0xc0d1e7ca	-6.5595446
29	0xc0eb8b5e	-7.3607626
30	0xc0c45bfa	-6.1362276
31	0xc0dc071c	-6.875868
32	0xc09d0090	-4.9063187
33	0xc0b92e3f	-5.7868953
34	0xc0d8a86e	-6.7705603
35	0xc0c28437	-6.0786395
36	0xc0be6bdb	-5.950666
37	0xc0b157a0	-5.5419464
38	0xc08615e0	-4.1901703
39	0xc0c8511a	-6.2599
40	0xc0ab6d6f	-5.3571086
41	0xc02deb8a	-2.7175012
42	0xc0bd8b2e	-5.9232397
43	0xc09144f5	-4.5396676
44	0xc1033257	-8.19979
45	0xc0baaaa6	-5.833331
46	0xc0e0a7cc	-7.020483
47	0xc0b406ca	-5.6258287
48	0xc0cc417b	-6.382993
49	0xc0ddbc65	-6.9292474
50	0xc0e18651	-7.047646
51	0xc0e21739	-7.065335
52	0xc0a56e2c	-5.1696987
53	0xc0d20a16	-6.563731
54	0xc0d4a812	-6.6455164
55	0xc0d0f93c	-6.530424
56	0xc0aabb80	-5.335388
57	0xc0b3f9d6	-5.6242476
58	0xc09b66db	-4.8563056
59	0xc0b8ed6b	-5.7789817
60	0xc0542edb	-3.3153598
61	0xc0b0e392	-5.5277796
62	0xc090ad12	-4.5211267
63	0xc0d2c2b0	-6.5862656
64	0xc0e6bf2c	-7.2108364
65	0xc0c2a0d8	-6.0821342
66	0xc0d4d037	-6.650417
67	0xc0929980	-4.581238
68	0xc0b2ccd5	-5.587504
69	0xc0d66e24	-6.700945
70	0xc062a3d0	-3.5412483
71	0xc065e1cd	-3.5919068
72	0xc0478110	-3.1172523
73	0xc027978a	-2.6186242
74	0xc055cbb8	-3.340559
75	0xc09927db	-4.786115
76	0xbfa3a09c	-1.2783389
77	0xc05b51a2	-3.4268575
78	0xc01c2a96	-2.4400992
79	0xc09b1442	-4.846223
80	0xc05c4dd8	-3.4422512
81	0xc0cda986	-6.426944
82	0xc04dfd58	-3.2185879
83	0xc0695b3a	-3.646193
84	0xc07510cf	-3.829151
85	0xc0d1a9e1	-6.551987
86	0xc0cc44ee	-6.3834143
87	0xc08e58d3	-4.448343
88	0xc0280ebe	-2.6258998
89	0xc0c513f1	-6.1586843
90	0xc0b4e05b	-5.652387
91	0xc03cebad	-2.9518845
92	0xc05d362c	-3.4564314
93	0xc075ecad	-3.8425705
94	0xc0499724	-3.14985
95	0xbfda7d9e	-1.7069585
96	0xc055e0a7	-3.3418367
97	0xc02f610c	-2.7402983
98	0xc07714c6	-3.860643
99	0xc069fb13	-3.6559494
100	0xc0673c50	-3.6130562
101	0xc07746cc	-3.863696
102	0xc08b6bd0	-4.3569107
103	0xc03ef712	-2.98383
104	0xc069b334	-3.6515627
105	0xc0a28d15	-5.079722
106	0xc09eea52	-4.9661036
107	0xc093928c	-4.611639
108	0xc05af379	-3.4211104
109	0xc0b47e33	-5.640405
110	0xc09f5470	-4.9790573
111	0xc005caee	-2.0905108
112	0xc0a15e1f	-5.0427394
113	0xc05e921a	-3.4776673
114	0xc0dcafa8	-6.8964424
115	0xc09eba8e	-4.960273
116	0xc0ce09b8	-6.4386864
117	0xc0911aa6	-4.534503
118	0xc0a773c6	-5.2328825
119	0xc0bef982	-5.9679575
120	0xc0bd1f96	-5.9101057
121	0xc0cf91bf	-6.4865413
122	0xc0891076	-4.2832594
123	0xc0a8bdd3	-5.273172
124	0xc0ac36bb	-5.381681
125	0xc0b66d0c	-5.7008114
126	0xc088f447	-4.279819
127	0xc0942f8f	-4.6308055
128	0xc081f082	-4.060609
129	0xc098bc6f	-4.773002
130	0xc022747f	-2.5383604
131	0xc0950a00	-4.6574707
132	0xc083359d	-4.1002946
133	0xc0b2afb6	-5.583949
134	0xc0c34b0e	-6.102912
135	0xc0a203c3	-5.062959
136	0xc0b98f47	-5.79874
137	0xc086387f	-4.1943965
138	0xc098307b	-4.755918
139	0xc0bc6ad0	-5.8880386
140	0xbf4260f6	-0.759292
141	0xbdb7347b	-0.08945557
142	0xbf6dd7f8	-0.9290767
143	0xc03f8e06	-2.9930434
144	0xbed7743c	-0.42080867
145	0xbfe45a0d	-1.7839981
146	0xc03dbc7a	-2.9646287
147	0xbf50fbf4	-0.8163445
148	0xc048b613	-3.136113
149	0x4084f347	4.154697
150	0xbc4a48e8	-0.012346484
151	0xc01a0b43	-2.4069374
152	0xbf01faf8	-0.5077357
153	0xbe5a360f	-0.21309684
154	0xbf03be48	-0.5146222
155	0xc03c2486	-2.9397292
156	0xc0157c9a	-2.33573
157	0xc0036596	-2.0530753
158	0xc041e124	-3.0293665
159	0xc0203669	-2.503321
160	0xbfeb19aa	-1.8367207
161	0xbf08f968	-0.53505564
162	0xbe978edc	-0.2960118
163	0xc02e22fe	-2.7208858
164	0xbf84f3ae	-1.0386865
165	0xc04700b9	-3.109419
166	0xbe3a3ff9	-0.18188466
167	0xbf3ee29f	-0.74564546
168	0x3fb12126	1.3838241
169	0xbfcef4e1	-1.6168481
170	0xbf169aab	-0.58829755
171	0x403b448b	2.9260585
172	0xbff48234	-1.9102235
173	0xbf60d752	-0.8782855
174	0xbf01b48f	-0.50666136
175	0xc0b42887	-5.629947
176	0xc0b33e16	-5.601329
177	0xc0a05d32	-5.0113764
178	0xc065a4c6	-3.588182
179	0xc0bfef60	-5.9979706
180	0xc09cbe34	-4.898218
181	0xc013784a	-2.3042169
182	0xc0b44c56	-5.6343184
183	0xc085e62f	-4.1843486
184	0xc0ee97e6	-7.4560423
185	0xc0adfb29	-5.436909
186	0xc0d1d527	-6.5572696
187	0xc0a060dd	-5.011824
188	0xc0bb5f82	-5.8554087
189	0xc0cc5f7c	-6.386656
190	0xc0d03ed1	-6.507668
191	0xc0d46d1b	-6.6383185
192	0xc095359b	-4.6627936
193	0xc0be5f29	-5.949116
194	0xc0c6566f	-6.198051
195	0xc0bb32d0	-5.8499527
196	0xc096f3b3	-4.7172484
197	0xc0a76167	-5.23064
198	0xc08cfcae	-4.4058447
199	0xc0af4e2f	-5.478294
200	0xc0323e8c	-2.7850676
201	0xc0a91ffd	-5.285155
202	0xc08a3116	-4.318492
203	0xc0bf0f85	-5.9706445
204	0xc0d4b3f3	-6.6469665
205	0xc0ad2335	-5.4105477
206	0xc0c1f5ad	-6.0612397
207	0xc08b1d39	-4.347317
208	0xc09fe173	-4.9962707
209	0xc0c7d65d	-6.2449174
210	0xc0a3f94f	-5.124183
211	0xc09b77f1	-4.8583913
212	0xc08dc35c	-4.4300976
213	0xc05532d2	-3.3312268
214	0xc0a85a49	-5.261021
215	0xc0964098	-4.695385
216	0xbff72e59	-1.9311019
217	0xc0a01656	-5.0027266
218	0xc05a5114	-3.4111986
219	0xc0de38ce	-6.944434
220	0xc09b5ac2	-4.854829
221	0xc0c6ee23	-6.2165694
222	0xc092a128	-4.5821724
223	0xc0adf441	-5.436066
224	0xc0bae43e	-5.8403616
225	0xc0bd4c7b	-5.915586
226	0xc0c14a40	-6.0403137
227	0xc08e43f4	-4.445795
228	0xc0a0c73e	-5.0243216
229	0xc0ae3334	-5.4437504
230	0xc0b04a18	-5.5090446
231	0xc08ffdf8	-4.499752
232	0xc090bbc5	-4.522921
233	0xc07b8790	-3.930149
234	0xc09350c3	-4.6036086
235	0xc023fd60	-2.5623398
236	0xc0955fda	-4.6679506
237	0xc0716cbd	-3.7722619
238	0xc0afd2e2	-5.4944925
239	0xc0b8787e	-5.7647085
240	0xc0a256fc	-5.073118
241	0xc0b41721	-5.6278234
242	0xc08038f9	-4.0069547
243	0xc09a3af0	-4.8196945
244	0xc0b61282	-5.6897593
245	0xc0a38219	-5.109631
246	0xc098b0f3	-4.7716002
247	0xc094305e	-4.630904
248	0xc04c9a54	-3.1969194
249	0xc0ad08db	-5.407331
250	0xc094000f	-4.625007
251	0xbffec4e2	-1.9903834
252	0xc09f1fb8	-4.972622
253	0xc0705414	-3.7551317
254	0xc0dc4519	-6.883435
255	0xc0a01fcb	-5.003881

fc3.bias f4 [17]
0	0xc0edc618	-7.4304314
1	0xc0fe3fec	-7.945303
2	0xc10df49a	-8.872217
3	0xc10eb2ba	-8.918634
4	0xc051230d	-3.2677643
5	0xc1095fc4	-8.58588
6	0xc1122856	-9.134848
7	0xc1124098	-9.14077
8	0xc11240fe	-9.140867
9	0xc11096a1	-9.036775
10	0xc10b034e	-8.688307
11	0xc10ed0fb	-8.926021
12	0xc10dd6c7	-8.864936
13	0xc11ccfa1	-9.800691
14	0xc10b9532	-8.723925
15	0xc110ec6b	-9.057719
16	0xc103e5c6	-8.243597

output.weight f4 [1, 17]
0	0x4085723e	4.1701956
1	0x4080bf98	4.023388
2	0x406e3940	3.7222443
3	0x405c7861	3.4448473
4	0x4004aab3	2.0729187
5	0x406c9bde	3.6970134
6	0x4059d535	3.4036381
7	0x405d4ef6	3.4579444
8	0x4060a21e	3.5098948
9	0x406519fe	3.5797114
10	0x4076b822	3.8549886
11	0x406b7141	3.6787875
12	0x406e5d57	3.724447
13	0x40406270	3.0060081
14	0x4074d020	3.825203
15	0x40656894	3.584508
16	0x4072ebd4	3.7956438
