training_nn/model/Theta_net_ep7.pth (torch, 25366 bytes, 7 tensors)

fc1.weight f4 [70, 35]
0	0xc0a37758	-5.1083183
1	0x401a4ddb	2.411002
2	0xbd500f88	-0.05079606
3	0xbd953f01	-0.07287408
4	0xbfcdd567	-1.608075
5	0xbd3dc079	-0.046326134
6	0x3d3e8524	0.04651369
7	0xbe2f4880	-0.171175
8	0xbe095d3d	-0.13414474
9	0x3d81250a	0.06305893
10	0x41668ba7	14.409095
11	0xbe541355	-0.207105
12	0x3e16192b	0.14658038
13	0x3da77a5a	0.081776336
14	0x3dc3b6d1	0.09556354
15	0x3db06170	0.08612335
16	0xbd680e60	-0.056654334
17	0x3ba33c55	0.0049815574
18	0xbd227ba6	-0.0396687
19	0x3d828cf9	0.06374545
20	0x3f8cd916	1.1003749
21	0xbded5223	-0.11587932
22	0xbda6889c	-0.08131525
23	0x3e095e03	0.13414769
24	0xbd916617	-0.0709955
25	0x3da968c4	0.082719356
26	0xbfb3bf02	-1.4042666
27	0x3e147473	0.14497547
28	0xbdee9ff4	-0.116516024
29	0xbdf9c687	-0.12196069
30	0xbf1412c0	-0.5784111
31	0xbd8a7b33	-0.0676178
32	0xbd283a51	-0.04107124
33	0x3e2031fa	0.15644065
34	0x3f88b46b	1.0680059
35	0xc0a20805	-5.063479
36	0x40b960c9	5.7930646
37	0xbea86470	-0.32889128
38	0xbde834cd	-0.11338196
39	0xc07b83ce	-3.9299197
40	0x3df0b620	0.117534876
41	0x3c3ae34e	0.011406733
42	0x3d045beb	0.032314222
43	0x3b943c6a	0.0045238035
44	0x3c8bf34f	0.017083792
45	0x418f30f2	17.8989
46	0xbf6509c6	-0.8946804
47	0xbd9fcabc	-0.078023404
48	0x3f220702	0.63291943
49	0x3c97e201	0.018540384
50	0x3d9b2bc5	0.07576708
51	0x3ee36621	0.44413856
52	0xbdaaea5b	-0.08345481
53	0xbdd11f8b	-0.102110945
54	0xbb213a83	-0.0024601526
55	0x3fbe1d5b	1.4852709
56	0xbe5bce91	-0.21465518
57	0x3d1bf81f	0.038078424
58	0x3e0d3d2f	0.13792871
59	0xbdeb1b8c	-0.114798635
60	0x3bb4d0f5	0.0055180737
61	0xc0165d6c	-2.349452
62	0xbd025100	-0.03181553
63	0xbe1883f6	-0.14894089
64	0xbdce9818	-0.10087603
65	0xbf360c60	-0.7111263
66	0x3e30ab28	0.17252791
67	0xbeb4d9e3	-0.35322484
68	0x3f458116	0.77150095
69	0x40199d3b	2.4002216
70	0xc06957ca	-3.6459832
71	0xc15b6edb	-13.714564
72	0xbd3e9355	-0.046527226
73	0x3e3f36db	0.1867327
74	0x416a6447	14.649482
75	0x40272e15	2.6121876
76	0xbdef7de0	-0.116939306
77	0xc09a9497	-4.8306384
78	0xbe0b1722	-0.13583043
79	0x3dc2d8e4	0.09514025
80	0x4253f3cb	52.98808
81	0xc17c427f	-15.766234
82	0x3e4b220e	0.1983721
83	0x4160706e	14.027449
84	0x3e30064f	0.17189907
85	0xbdcd65ac	-0.10029158
86	0x40bca435	5.895045
87	0x3de0ef25	0.10983113
88	0xbdb1989b	-0.08671685
89	0x3dee81f0	0.11645877
90	0x3e8ba500	0.27274323
91	0xbe09f9d1	-0.13474204
92	0x3e19eb2a	0.15031114
93	0xbfffc33e	-1.9981458
94	0x3d46cc0b	0.048534434
95	0x3ee2626d	0.44215718
96	0xc130cfce	-11.050734
97	0x3e7bed42	0.24602225
98	0xbe8f1357	-0.27944443
99	0xbdc7496f	-0.09730803
100	0x403a0f3a	2.9071794
101	0x3eb9f399	0.36318663
102	0x4008acd5	2.1355488
103	0x40d0f8ee	6.530387
104	0x410118dd	8.06857
105	0xc09af0a9	-4.8418775
106	0x40867a23	4.2024093
107	0xbea2fb4e	-0.31832355
108	0xbd1ffaef	-0.03905767
109	0xbfe8cf21	-1.8188211
110	0x3f1bc946	0.60853994
111	0xbde7b95d	-0.11314652
112	0xbebbbc58	-0.36667132
113	0x3de3e8fb	0.11128422
114	0xbe15622f	-0.14588235
115	0x41badd56	23.358074
116	0xc0481880	-3.1264954
117	0x3df9488d	0.12172041
118	0x40082a89	2.1275961
119	0xbcbab70b	-0.02279236
120	0x3dffed2b	0.12496408
121	0x3fd42788	1.6574564
122	0x3de94626	0.11390333
123	0x3d47f2f2	0.048815675
124	0xbd6bf4a4	-0.057606354
125	0x3fa6c31d	1.3028294
126	0xbda0ef1f	-0.07858109
127	0xbdce29bb	-0.10066553
128	0x3d9c7fe5	0.076415814
129	0xbe01a3bc	-0.12660116
130	0x3e5479f1	0.20749642
131	0xc08fdfba	-4.4960604
132	0x3dae1cc4	0.0850158
133	0xbcd22bd7	-0.02565567
134	0x3e0627df	0.13101147
135	0x3eb18dc0	0.3467846
136	0x3e4275d7	0.18990265
137	0xbeac7803	-0.33685312
138	0x3fc03be6	1.501828
139	0x4074f4ec	3.8274488
140	0xc0a5b051	-5.177773
141	0x3f4c4dac	0.7980602
142	0xbe144aeb	-0.14481704
143	0x3c1e0e46	0.009646958
144	0x3ec17d84	0.37791073
145	0x3ced5c10	0.028974563
146	0xbd589b67	-0.05288258
147	0xbe13c1c9	-0.14429392
148	0xbd27a332	-0.04092712
149	0x3d593deb	0.053037565
150	0x3f9915b1	1.1959745
151	0x3e5712c7	0.21003257
152	0xbe113d84	-0.14183623
153	0xbd74fc6c	-0.05981104
154	0xbdc336a9	-0.0953191
155	0xbdf174db	-0.117898665
156	0xbea18933	-0.31549987
157	0xbd99c9e3	-0.0750921
158	0xbaa238ef	-0.0012376587
159	0xbe231947	-0.15927611
160	0x3fbbcfd3	1.4672798
161	0x3dcc234c	0.0996767
162	0x3dd39b78	0.10332388
163	0xbd334e09	-0.043775592
164	0xbd3643d9	-0.0444983
165	0x3df94296	0.121709034
166	0x3e9e171f	0.30877015
167	0xbd883202	-0.06650163
168	0x3dbb9b23	0.09160449
169	0xbdce57d8	-0.100753486
170	0xc02e3d70	-2.7224998
171	0x3da4fd76	0.08056156
172	0x3e933b6f	0.28756282
173	0xbe17f15d	-0.14838167
174	0x3e934307	0.28762075
175	0xbfef1125	-1.8677107
176	0xc190db98	-18.107224
177	0x3ffc0552	1.9689124
178	0x3e7f23b0	0.24915957
179	0x419b8985	19.442148
180	0x4044fb85	3.0778515
181	0x3da65885	0.081223525
182	0xbfa29887	-1.2702798
183	0x3d8dad8c	0.06917867
184	0x3cc1eb6e	0.023671832
185	0x428566e0	66.70093
186	0xc1d83962	-27.028019
187	0x3e07e92f	0.13272546
188	0x41c65950	24.79361
189	0x3e057f69	0.13036884
190	0xbe34e150	-0.17664075
191	0x41133d2d	9.2024355
192	0x3bfebfa6	0.007774311
193	0x3e21cfae	0.1580188
194	0x3defa412	0.11701216
195	0x3df4adf9	0.11947245
196	0xc0e85425	-7.2602715
197	0xbe097393	-0.13422994
198	0xc0f856c5	-7.760592
199	0xbc05806f	-0.008148297
200	0x3f56d267	0.839148
201	0xc169f7a2	-14.622957
202	0x3e5a83f1	0.21339394
203	0xbf66ebd6	-0.9020361
204	0xbe05a991	-0.13052966
205	0x405eaa1a	3.4791322
206	0x4089bb15	4.304087
207	0x41422981	12.135133
208	0x4120c0cf	10.047072
209	0x41072e80	8.448853
210	0xc0287748	-2.6322803
211	0xc191dbe8	-18.232376
212	0x3f52c29a	0.8232819
213	0x3de070ba	0.10959001
214	0x418f8ca8	17.94368
215	0x40472150	3.1114082
216	0xbe1ddd36	-0.15416417
217	0xc084a0aa	-4.1446123
218	0xbd632124	-0.055451527
219	0xbcc99d22	-0.02461106
220	0x4279c164	62.438858
221	0xc1a167fd	-20.175776
222	0x3e42f47f	0.1903858
223	0x419386c2	18.4408
224	0x3de02318	0.109441936
225	0xbd520987	-0.051278617
226	0x40e262a0	7.074539
227	0xbe6dc22c	-0.23218602
228	0xbd2aaf7a	-0.041671254
229	0xbd03fffd	-0.03222655
230	0x3eeb49b3	0.45954666
231	0xc0303311	-2.7531168
232	0x3e19c16f	0.15015195
233	0xc0972268	-4.72295
234	0x3db5f4ad	0.08884559
235	0x3f32ccd1	0.69843775
236	0xc1483b0d	-12.514417
237	0x3eb244e8	0.34818196
238	0xbf0850bf	-0.5324821
239	0xbe6534fb	-0.22383492
240	0x40345de6	2.818231
241	0x3fc4b89b	1.5368837
242	0x40c2259c	6.067091
243	0x4102dbea	8.17869
244	0x410b19ea	8.693827
245	0xbf99c89f	-1.201435
246	0xc1971798	-18.88652
247	0x417b22dc	15.696011
248	0x3c7cdfb4	0.015434194
249	0x41a6bff7	20.843733
250	0xc186ef78	-16.866928
251	0x3ecb9c6d	0.3976778
252	0xc1157d99	-9.3431635
253	0xbe25d94a	-0.1619617
254	0x3ed083f6	0.40725678
255	0xc25eefa2	-55.734016

fc1.bias f4 [70]
0	0xc09df879	-4.936581
1	0xc097db60	-4.745529
2	0xc06e015f	-3.7188337
3	0xc0968b8e	-4.7045355
4	0xc0a0e4ff	-5.0279536
5	0xbffeb6f3	-1.9899582
6	0xc01e2707	-2.471132
7	0xbf861dba	-1.0477822
8	0xc0a60300	-5.187866
9	0xbfd347c9	-1.6506282
10	0xc09270a0	-4.576248
11	0xc09ed7f1	-4.96386
12	0xc0930df2	-4.5954523
13	0xc0a0a620	-5.020279
14	0xc0a98cc9	-5.2984357
15	0xc0a0ae44	-5.0212727
16	0xc09877b8	-4.764614
17	0xc095de98	-4.683422
18	0xc0928e5b	-4.5798774
19	0xc0a406c0	-5.125824
20	0xbffd62dc	-1.9795794
21	0xc08ddf42	-4.433503
22	0xc025452b	-2.5823467
23	0xc0a268c7	-5.07529
24	0xbfd02ab5	-1.6263033
25	0xbfdb83fd	-1.7149655
26	0xbfe396b3	-1.7780365
27	0xc09d4807	-4.9150424
28	0xc0a1db1c	-5.0579967
29	0xc09a3888	-4.819401
30	0xc0a737dc	-5.225569
31	0xc098e139	-4.777493
32	0xc0a32a3b	-5.098905
33	0xc0a6e836	-5.215846
34	0xc0a55a06	-5.167239
35	0xbfbbadab	-1.4662374
36	0xbf8a8dfe	-1.0824583
37	0xc08e793d	-4.4522996
38	0xc0a1cbf7	-5.056148
39	0xc098aa21	-4.7707677
40	0xc0a56fda	-5.1699038
41	0xc094dd69	-4.6520276
42	0xc0a038ce	-5.006934
43	0xbfe91d77	-1.8212117
44	0xc0a44e69	-5.1345716
45	0xc0823edd	-4.0701737
46	0xc0a387a7	-5.110309
47	0xc0a0841b	-5.016126
48	0xbfea2ef5	-1.829558
49	0xc0a1d568	-5.0573006
50	0xc09f9028	-4.986347
51	0xc08c2d13	-4.380502
52	0xc0a0d532	-5.026025
53	0xc0a78532	-5.235009
54	0xc0a523ce	-5.1606207
55	0xc0a4c3a4	-5.148882
56	0xc09a1300	-4.8148193
57	0xbfdace96	-1.7094295
58	0xc0a53460	-5.1626434
59	0xc0a7eb74	-5.247492
60	0xc0a0729a	-5.0139894
61	0xc09478f1	-4.6397634
62	0xc0a3758a	-5.108098
63	0xc08dc49f	-4.4302516
64	0xbfdc7acb	-1.7224973
65	0xc0a30699	-5.0945554
66	0xc0a701c7	-5.218967
67	0xc092db85	-4.589297
68	0xc09c00aa	-4.875081
69	0xc0864a05	-4.1965356

fc2.weight f4 [35, 70]
0	0xbf12cceb	-0.5734393
1	0xbf2a1067	-0.6643128
2	0xc02af858	-2.6714077
3	0xbf4dce54	-0.80392957
4	0xbf2e0d69	-0.6798921
5	0xc0506c14	-3.2565966
6	0xc0483647	-3.1283128
7	0xc083d6fa	-4.1199923
8	0xbed4496d	-0.4146227
9	0xc0716aa6	-3.7721343
10	0xbfb50df9	-1.4144889
11	0xbf2c99f4	-0.67422414
12	0xbff00b18	-1.8753386
13	0xbf4a45c7	-0.7901272
14	0xbf1b1698	-0.6058135
15	0xbf01c2c7	-0.5068783
16	0xbf88318c	-1.064012
17	0xbf8021b9	-1.0010291
18	0xbf489b11	-0.7836161
19	0xbeb59bae	-0.35470337
20	0xc052a409	-3.291262
21	0xc0014534	-2.0198488
22	0xc03a2ff8	-2.9091778
23	0xbed02afe	-0.406578
24	0xc06638d2	-3.597218
25	0xc053f22d	-3.3116562
26	0xc064cfee	-3.575191
27	0xbf1ff2ea	-0.6248003
28	0xbf3989ea	-0.72476065
29	0xbf7e74fb	-0.9939725
30	0xbec37bb6	-0.3818032
31	0xbf267d48	-0.65034914
32	0xbef0761b	-0.46965107
33	0xbed6d67d	-0.41960517
34	0xbeb21259	-0.34779623
35	0xc025ce09	-2.5907004
36	0xc094f897	-4.6553454
37	0xbfe9ca82	-1.8264925
38	0xbf37f3a6	-0.71856153
39	0xbf0b4211	-0.54397684
40	0xbedc9928	-0.430856
41	0xbf69df7b	-0.9135663
42	0xbf2ccffe	-0.6750487
43	0xc05bf47e	-3.4367976
44	0xbe9e78cb	-0.30951533
45	0xc01b5251	-2.4268992
46	0xbea491e5	-0.3214256
47	0xbf3edb1a	-0.7455307
48	0xc061ec0e	-3.5300326
49	0xbec25d3f	-0.37961766
50	0xbea7214d	-0.32642594
51	0xc008aeb1	-2.1356623
52	0xbf34ff2f	-0.7070188
53	0xbe9e34e8	-0.3089974
54	0xbe9d3789	-0.30706432
55	0xbf36db3b	-0.7142827
56	0xbf0b954e	-0.54524696
57	0xc0523996	-3.2847648
58	0xbf00531f	-0.5012683
59	0xbeaea97e	-0.34113687
60	0xbf166b50	-0.58757496
61	0xbf8be323	-1.0928692
62	0xbf309d96	-0.6899046
63	0xbffa8460	-1.9571648
64	0xc05f1513	-3.4856613
65	0xbed31264	-0.41224968
66	0xbedd815a	-0.4326275
67	0xbfe85e33	-1.8153747
68	0xbf0b2919	-0.54359585
69	0xc0143ea6	-2.3163238
70	0xbf3f7b70	-0.74797726
71	0xbf6d33a8	-0.92656946
72	0xc04a64f3	-3.1624115
73	0xbf7ca4fa	-0.98689234
74	0xbf4c1998	-0.7972655
75	0xc0932f2f	-4.5995097
76	0xc07b807e	-3.9297175
77	0xc0600467	-3.5002687
78	0xbee693fc	-0.45034778
79	0xc0a8bebb	-5.2732825
80	0xbfa59204	-1.2935185
81	0xbf6e695d	-0.9312952
82	0xbfe95527	-1.8229111
83	0xbf57028e	-0.83988273
84	0xbf1eaba5	-0.6198066
85	0xbeae004c	-0.33984601
86	0xbf829d45	-1.0204245
87	0xbf838278	-1.0274191
88	0xbf801221	-1.0005533
89	0xbea1f387	-0.3163111
90	0xc092d88e	-4.588935
91	0xc00431d3	-2.065541
92	0xc0698fb9	-3.6493971
93	0xbe8aec6d	-0.27133504
94	0xc0a2b24b	-5.0842643
95	0xc09263c9	-4.574681
96	0xc09bcb36	-4.868556
97	0xbf303d96	-0.6884397
98	0xbf28dfbc	-0.6596639
99	0xbf76eb72	-0.9645301
100	0xbee4e878	-0.4470861
101	0xbf57d02f	-0.8430204
102	0xbf23f606	-0.64047277
103	0xbec2e5c8	-0.38065934
104	0xbe9d3bf5	-0.30709806
105	0xc019b28f	-2.4015234
106	0xc081960e	-4.049567
107	0xc00dbaf0	-2.2145348
108	0xbf76013f	-0.9609565
109	0xbf75c3b8	-0.9600177
110	0xbf0bc70d	-0.546006
111	0xbf58dc56	-0.84711206
112	0xbf2aa7d1	-0.6666232
113	0xc098ad1e	-4.7711325
114	0xbebb987c	-0.36639774
115	0xc0340269	-2.812647
116	0xbecb49d4	-0.39704764
117	0xbf62d7ba	-0.8861042
118	0xc09aae2a	-4.8337603
119	0xbea89d93	-0.3293272
120	0xbe92ef65	-0.2869827
121	0xc00d58aa	-2.2085366
122	0xbf70da2c	-0.94082904
123	0xbee0492f	-0.43805835
124	0xbe946d32	-0.2898956
125	0xbf6f230e	-0.93412864
126	0xbf89a578	-1.0753622
127	0xc087f8db	-4.249128
128	0xbedaffb0	-0.427732
129	0xbea195f2	-0.31559712
130	0xbf1eef6f	-0.62084097
131	0xbf8c8a09	-1.0979625
132	0xbf383b12	-0.71965134
133	0xc0011ecb	-2.0175045
134	0xc09c24fd	-4.879515
135	0xbf1309fa	-0.574371
136	0xbee4eac1	-0.44710353
137	0xbfeccee6	-1.850064
138	0xbf887244	-1.0659871
139	0xc02f8f9c	-2.7431402
140	0xbf2ea9ad	-0.68227655
141	0xbf4663aa	-0.77495825
142	0xc023dc28	-2.5603123
143	0xbf3fa921	-0.74867445
144	0xbf427c4e	-0.75970924
145	0xc04b68ea	-3.1782784
146	0xc0317e3e	-2.7733302
147	0xc0879326	-4.2367125
148	0xbf06628e	-0.5249413
149	0xc0514aa7	-3.2701814
150	0xbf9d7fac	-1.2304587
151	0xbf367c89	-0.71283776
152	0xbfdb363a	-1.7125924
153	0xbf3a45a6	-0.72762525
154	0xbf1c276b	-0.6099765
155	0xbef9085f	-0.486392
156	0xbf64129a	-0.89090884
157	0xbf832fd9	-1.0248977
158	0xbf870ad9	-1.0550185
159	0xbe8767b4	-0.26446307
160	0xc0455863	-3.0835197
161	0xbfeab0d2	-1.8335211
162	0xc0318439	-2.7736952
163	0xbeaa8dad	-0.33311215
164	0xc0528a23	-3.2896812
165	0xc0402621	-3.0023272
166	0xc056a3c3	-3.3537452
167	0xbf256b7d	-0.6461714
168	0xbf4935ef	-0.7859792
169	0xbf943e7d	-1.158157
170	0xbedd21a8	-0.4318974
171	0xbf468e7b	-0.7756116
172	0xbf121d62	-0.57076085
173	0xbf017b72	-0.5057899
174	0xbe8e1646	-0.27751368
175	0xc02ec3f0	-2.730709
176	0xc0931683	-4.596498
177	0xbfef5ace	-1.8699586
178	0xbf44610c	-0.7671058
179	0xbf1d63bb	-0.614803
180	0xbecebeef	-0.40380046
181	0xbf89d2da	-1.0767472
182	0xbf0d4927	-0.55189747
183	0xc043d929	-3.0601294
184	0xbec730bf	-0.38904378
185	0xc01ace82	-2.4188542
186	0xbea82728	-0.32842374
187	0xbf1772a4	-0.591593
188	0xc04c698b	-3.1939418
189	0xbed29b82	-0.41134268
190	0xbe9818b9	-0.29706362
191	0xbff59084	-1.9184728
192	0xbf182181	-0.5942612
193	0xbeffd4cd	-0.49967042
194	0xbea57fcb	-0.3232406
195	0xbf194260	-0.59866905
196	0xbf127268	-0.5720582
197	0xc03cd3da	-2.9504304
198	0xbecadd6d	-0.3962206
199	0xbeb20efa	-0.3477705
200	0xbf34bd0f	-0.7060098
201	0xbfa10b4e	-1.2581575
202	0xbf2d62b2	-0.6772872
203	0xbfe8860c	-1.8165908
204	0xc04af3c1	-3.1711276
205	0xbed402df	-0.4140844
206	0xbe84a6db	-0.2590855
207	0xbfe34c6c	-1.7757697
208	0xbf48565e	-0.78256786
209	0xc0161506	-2.3450332
210	0xbf1716cf	-0.5901918
211	0xbf21c1b4	-0.6318619
212	0xbfaecc93	-1.3656181
213	0xbf1fa851	-0.62366205
214	0xbefcb7d8	-0.49359012
215	0xbf875e3d	-1.0575634
216	0xbfc648f9	-1.549102
217	0xc0f0226d	-7.5042024
218	0xbebaa40b	-0.3645328
219	0xbe4593ae	-0.19294617
220	0xbf4cca5a	-0.79996264
221	0xbf0dca23	-0.5538656
222	0xbf8e9565	-1.1139342
223	0xbf26f91f	-0.6522388
224	0xbf04688a	-0.51722014
225	0xbe937ced	-0.28806248
226	0xbf198a89	-0.5997701
227	0xbf2d03f0	-0.67584133
228	0xbf32cd8c	-0.6984489
229	0xbe7951eb	-0.24347655
230	0xbf678cca	-0.904492
231	0xbfa80119	-1.3125335
232	0xbfba828c	-1.457109
233	0xbe814366	-0.25246733
234	0xbf14f2df	-0.5818309
235	0xbf7a0121	-0.9765797
236	0xbecdb6ea	-0.40178615
237	0xbf0f3af2	-0.5594932
238	0xbf18a864	-0.59631944
239	0xbf293e52	-0.6611072
240	0xbe6e295d	-0.23257966
241	0xbf1a3058	-0.60230017
242	0xbf00f359	-0.5037132
243	0xbea4c499	-0.32181242
244	0xbe79c755	-0.24392445
245	0xc08dc2a5	-4.4300103
246	0xc10238e0	-8.1388855
247	0xbf9a0e42	-1.2035601
248	0xbf135343	-0.5754892
249	0xbf103d65	-0.5634368
250	0xbe9a64aa	-0.30154926
251	0xbf3254dc	-0.69660735
252	0xbf1268d7	-0.5719122
253	0xbf4f03ca	-0.80865157
254	0xbe68d93d	-0.2273912
255	0xbfc500c4	-1.5390859

fc2.bias f4 [35]
0	0xc104d12e	-8.301069
1	0xc1079d89	-8.475961
2	0xc103c8be	-8.236509
3	0xc0a21149	-5.06461
4	0xc107585e	-8.459074
5	0xc080068e	-4.0008
6	0xc0a54d80	-5.1657104
7	0xc104e947	-8.306952
8	0xc0952419	-4.6606565
9	0xbf8aeede	-1.0854146
10	0xc106b23c	-8.418514
11	0xc02b7c0f	-2.679447
12	0xc108bb75	-8.545766
13	0xc1074f0c	-8.456799
14	0xc1065800	-8.396484
15	0xc036ac46	-2.8542647
16	0xc01cf4d3	-2.452443
17	0xc0856547	-4.168613
18	0xc07664e8	-3.8499088
19	0xc03e0190	-2.9688454
20	0xc04f7a10	-3.241825
21	0xc10932e5	-8.574925
22	0xc109721e	-8.590361
23	0xc08b9a11	-4.362557
24	0xc101e4d8	-8.11837
25	0xc099547d	-4.7915635
26	0xc1093b37	-8.576957
27	0xc1085557	-8.520835
28	0xc0d0161c	-6.502699
29	0xc0e85ab5	-7.2610726
30	0xc106e25b	-8.430263
31	0xc07ee4a8	-3.982706
32	0xc086b49c	-4.209547
33	0xc104ccb1	-8.2999735
34	0xc10672b3	-8.403003

fc3.weight f4 [17, 35]
0	0xc0c6526c	-6.1975613
1	0xc0bd3cf4	-5.9136906
2	0xc0b1dcfa	-5.5582247
3	0xc0899252	-4.2991114
4	0xc0ce5060	-6.4473114
5	0xc0bb2d6f	-5.849296
6	0xc0342d0c	-2.8152494
7	0xc0c27f02	-6.078004
8	0xc0961810	-4.6904373
9	0xc1088daa	-8.534586
10	0xc0bdb638	-5.9284935
11	0xc0e5b148	-7.177891
12	0xc0b8adfa	-5.7712374
13	0xc0d291d1	-6.5803
14	0xc0d7f5ac	-6.7487392
15	0xc0e32784	-7.0985737
16	0xc0eba193	-7.3634734
17	0xc0acc0d3	-5.398538
18	0xc0d76588	-6.731144
19	0xc0dc093e	-6.876128
20	0xc0e2dc99	-7.0894284
21	0xc0aa97f4	-5.331049
22	0xc0bc14c7	-5.8775363
23	0xc09abc2e	-4.835471
24	0xc0c06037	-6.011745
25	0xc06330c3	-3.5498512
26	0xc0ba7972	-5.827325
27	0xc09a34b0	-4.8189316
28	0xc0d270e0	-6.5762787
29	0xc0ebb866	-7.3662596
30	0xc0c4843e	-6.141143
31	0xc0ddb8e9	-6.928822
32	0xc09e3c8d	-4.9448915
33	0xc0b95a67	-5.7922854
34	0xc0d8d22d	-6.775656
35	0xc0c29bb1	-6.0815053
36	0xc0be8a47	-5.9543796
37	0xc0b16e96	-5.5447493
38	0xc086073b	-4.1883826
39	0xc0c86aa7	-6.263019
40	0xc0ad4706	-5.41492
41	0xc02e1084	-2.719758
42	0xc0bda2f3	-5.9261413
43	0xc0910158	-4.531414
44	0xc104bb53	-8.295733
45	0xc0bac822	-5.8369303
46	0xc0e11664	-7.033983
47	0xc0b4216a	-5.629079
48	0xc0cc5cd3	-6.386331
49	0xc0ddd4ea	-6.9322405
50	0xc0df72d7	-6.9827685
51	0xc0e312ba	-7.096036
52	0xc0a5d065	-5.181689
53	0xc0d10263	-6.5315413
54	0xc0d44644	-6.6335773
55	0xc0d3aecb	-6.615087
56	0xc0aad590	-5.3385696
57	0xc0b41486	-5.6275053
58	0xc09b1c37	-4.847194
59	0xc0b906ab	-5.782064
60	0xc053fe8e	-3.3124118
61	0xc0b1015e	-5.531417
62	0xc090c648	-4.5242043
63	0xc0d30f2d	-6.5956025
64	0xc0e6d787	-7.2138095
65	0xc0c2b857	-6.0850024
66	0xc0d5cb81	-6.681092
67	0xc0935e3a	-4.6052523
68	0xc0b2e5df	-5.5905604
69	0xc0d68720	-6.7039948
70	0xc062b36c	-3.542201
71	0xc065f54a	-3.5930963
72	0xc04790b3	-3.1182067
73	0xc027651f	-2.615547
74	0xc055dbca	-3.3415399
75	0xc09a9149	-4.830235
76	0xbfa36fb3	-1.2768463
77	0xc05b615e	-3.4278178
78	0xc01bc26a	-2.433741
79	0xc09c26c2	-4.879731
80	0xc05c5fe6	-3.4433532
81	0xc0d01821	-6.5029454
82	0xc04e0ef2	-3.2196622
83	0xc0696c89	-3.6472495
84	0xc0752128	-3.8301487
85	0xc0d33a37	-6.6008563
86	0xc0cef08b	-6.466863
87	0xc08e52f1	-4.4476247
88	0xc026e227	-2.6075532
89	0xc0c71f85	-6.2225976
90	0xc0b66507	-5.6998324
91	0xc03cfcbf	-2.9529264
92	0xc05d4791	-3.457493
93	0xc0756e5c	-3.8348608
94	0xc049a6da	-3.1508088
95	0xbfd9f934	-1.7029176
96	0xc055f3e9	-3.343012
97	0xc02f728b	-2.7413661
98	0xc07744db	-3.8635776
99	0xc06a0548	-3.6565723
100	0xc0674c49	-3.614031
101	0xc077e1ae	-3.8731494
102	0xc08b9304	-4.3616962
103	0xc03f0796	-2.984838
104	0xc069c3e9	-3.6525824
105	0xc0a29306	-5.080447
106	0xc09ef1c1	-4.967011
107	0xc093992a	-4.612447
108	0xc05ad498	-3.4192257
109	0xc0b4842a	-5.6411333
110	0xc0a1360d	-5.037848
111	0xc005c4a0	-2.090126
112	0xc0a164c9	-5.043553
113	0xc05e45d2	-3.4730115
114	0xc0ddc6b5	-6.930506
115	0xc09ec198	-4.961132
116	0xc0d205e3	-6.5632186
117	0xc09121b3	-4.5353637
118	0xc0a77a4e	-5.23368
119	0xc0bf003d	-5.968779
120	0xc0c0a0a2	-6.0196085
121	0xc0d3cac2	-6.6185007
122	0xc08928e0	-4.2862396
123	0xc0a84382	-5.2582407
124	0xc0afd41c	-5.4946423
125	0xc0b869d3	-5.762918
126	0xc088fb54	-4.2806797
127	0xc0943634	-4.6316166
128	0xc081c7d7	-4.0556445
129	0xc098c42c	-4.773947
130	0xc0224dcc	-2.5359983
131	0xc095114c	-4.6583614
132	0xc0833c79	-4.101132
133	0xc0b2c704	-5.586794
134	0xc0c35150	-6.103676
135	0xc0a20aac	-5.0638027
136	0xc0b9d15d	-5.806807
137	0xc0868031	-4.2031484
138	0xc09837a4	-4.756792
139	0xc0bc71ad	-5.8888764
140	0xbf525441	-0.8215981
141	0xbe2ad16d	-0.16681452
142	0xbf7d86e2	-0.9903394
143	0xc04882c7	-3.132982
144	0xbef83929	-0.4848111
145	0xbfd91ffe	-1.6962888
146	0xc044bdd2	-3.0740857
147	0xbf617e3a	-0.8808323
148	0xc0546150	-3.3184395
149	0x4085c93e	4.1808157
150	0xbdab1692	-0.08353914
151	0xc016b41d	-2.3547432
152	0xbf145a99	-0.5795074
153	0xbe8fd3af	-0.2809119
154	0xbf14522a	-0.5793787
155	0xc03b0bfd	-2.9226067
156	0xc0123613	-2.2845504
157	0xc008818a	-2.1329064
158	0xc0534fd6	-3.3017478
159	0xc01d0567	-2.4534547
160	0xbfe548e7	-1.7912873
161	0xbf1b4af0	-0.6066122
162	0xbebc4023	-0.36767682
163	0xc0394f25	-2.8954556
164	0xbf8d5be0	-1.1043663
165	0xc05049d6	-3.2545066
166	0xbe857a29	-0.26069763
167	0xbf516e49	-0.81808907
168	0x3fa3c921	1.2795755
169	0xbfd6a7a9	-1.6769916
170	0xbf26e878	-0.6519847
171	0x40381793	2.8764389
172	0xbffa9a30	-1.9578304
173	0xbf724372	-0.94634163
174	0xbf128d56	-0.5724691
175	0xc0b43479	-5.6314054
176	0xc0b34992	-5.6027308
177	0xc0a068f1	-5.01281
178	0xc065826e	-3.5860858
179	0xc0bff8c8	-5.999119
180	0xc09ea0d0	-4.9571304
181	0xc0137613	-2.3040817
182	0xc0b4585c	-5.635786
183	0xc085b436	-4.1782484
184	0xc0f0549c	-7.5103283
185	0xc0ae0617	-5.4382434
186	0xc0d47c21	-6.6401525
187	0xc0a06b58	-5.0131035
188	0xc0bb6957	-5.856609
189	0xc0cc69e5	-6.3879266
190	0xc0d19ee2	-6.550645
191	0xc0d768d6	-6.7315474
192	0xc09559f1	-4.667229
193	0xc0bdb89c	-5.9287853
194	0xc0c87b35	-6.26504
195	0xc0bd64d4	-5.918558
196	0xc096fdea	-4.7184954
197	0xc0a76b40	-5.231842
198	0xc08cc307	-4.398807
199	0xc0af5bb9	-5.4799466
200	0xc0320ec2	-2.7821507
201	0xc0a92ad0	-5.286476
202	0xc08a3cfc	-4.3199444
203	0xc0bf3173	-5.9747863
204	0xc0d4bee5	-6.6483026
205	0xc0ad2dd8	-5.411846
206	0xc0c262d7	-6.0745654
207	0xc08b8019	-4.359387
208	0xc09fee0a	-4.9978075
209	0xc0c7e0f1	-6.2462087
210	0xc0a3fe41	-5.124787
211	0xc09b7e0b	-4.859136
212	0xc08dc837	-4.4306903
213	0xc0551876	-3.329618
214	0xc0a85fd0	-5.261696
215	0xc097f7db	-4.749006
216	0xbff71bda	-1.9305375
217	0xc0a01b94	-5.0033665
218	0xc05a0f52	-3.407185
219	0xc0df0c74	-6.97027
220	0xc09b6101	-4.8555913
221	0xc0cb1e28	-6.347431
222	0xc092a76e	-4.582938
223	0xc0adf9de	-5.4367514
224	0xc0bae97d	-5.841002
225	0xc0c1478f	-6.039985
226	0xc0c5afd9	-6.177716
227	0xc08e53be	-4.4477224
228	0xc0a05fab	-5.011678
229	0xc0b20b28	-5.563862
230	0xc0b20deb	-5.564199
231	0xc0900444	-4.5005207
232	0xc090c108	-4.5235634
233	0xc07b3c33	-3.9255493
234	0xc093557e	-4.604186
235	0xc023d73c	-2.5600119
236	0xc09565b9	-4.6686673
237	0xc071799d	-3.7730477
238	0xc0afe49b	-5.496656
239	0xc0b87dab	-5.7653403
240	0xc0a25bfa	-5.0737276
241	0xc0b446ec	-5.6336575
242	0xc0806fce	-4.013648
243	0xc09a406f	-4.8203654
244	0xc0b617e9	-5.6904187
245	0xc0a3871f	-5.1102443
246	0xc098b72f	-4.7723613
247	0xc0943560	-4.6315155
248	0xc04c7eb9	-3.1952345
249	0xc0ad0e74	-5.4080143
250	0xc095ac97	-4.677318
251	0xbffeb25f	-1.9898185
252	0xc09f2505	-4.973269
253	0xc0700ff9	-3.750975
254	0xc0dd2010	-6.910164
255	0xc0a0265a	-5.0046816

fc3.bias f4 [17]
0	0xc0e550d1	-7.1661153
1	0xc0f62e82	-7.693177
2	0xc10a9a29	-8.662637
3	0xc10b7a9f	-8.717437
4	0xc053d62c	-3.309947
5	0xc105c845	-8.361394
6	0xc10f1dd2	-8.94478
7	0xc10f2981	-8.947633
8	0xc10f239f	-8.946197
9	0xc10d5b63	-8.834811
10	0xc1077da9	-8.468179
11	0xc10b85b7	-8.720145
12	0xc10a7f14	-8.656025
13	0xc11ac535	-9.673146
14	0xc1081bb4	-8.506763
15	0xc10dbdb6	-8.858816
16	0xc10017e9	-8.005837

output.weight f4 [1, 17]
0	0x408edc74	4.464411
1	0x4089bcd2	4.3042994
2	0x407d40e7	3.9570863
3	0x406b249a	3.674109
4	0x40067f97	2.1015375
5	0x407cc4ea	3.9495187
6	0x4067bb4f	3.6208074
7	0x406b5768	3.6772099
8	0x406eb457	3.729757
9	0x4073a9b0	3.807232
10	0x40833736	4.1004896
11	0x407a4482	3.9104314
12	0x407d6006	3.9589858
13	0x404a4796	3.1606193
14	0x40822fcc	4.0683346
15	0x4073ca4a	3.8092217
16	0x40820053	4.0625396
