training_nn/model/Theta_net_ep9.pth (torch, 6844 bytes, 3 tensors)

fc1.weight f4 [35, 35]
-2.9134414 -0.63774 2.2225885 0.22562337 16.641973 -0.16384824 -0.62822914 29.713228
-0.16101687 -0.90727794 40.591614 -46.390934 1.9837661 67.12715 -0.72876036 -0.21008795
-23.148956 -0.6091279 0.7556371 -2.1488445 0.043738592 0.17763917 -0.8352964 -16.594915
-0.3932553 1.9680022 -14.396693 2.9104116 -6.846847 0.82573724 2.0216966 -1.3140864
24.460953 25.628622 4.5575805 -6.8242316 -4.6925144 -0.19142514 0.022974657 7.7572165
-0.97489893 0.08185683 -0.12927334 0.0674207 -0.030316021 -14.020015 11.720646 -0.03210165
-9.570227 -0.043049045 0.1724651 -5.1018486 0.038124 0.09037871 -0.26023355 0.8193862
0.43417054 -0.19710623 -1.3363633 0.3497378 -0.26276442 4.0787764 -0.5055692 0.2924746
0.36463025 -2.2733693 -0.42729643 1.3286804 -4.01917 -2.9452617 -6.629046 -5.089295
-0.13371246 -0.18442518 8.750545 -0.9002277 0.22769293 -0.22293799 0.040020887 0.12483046
-15.362967 13.78172 -0.3587153 -11.238819 -0.20011489 0.0020812857 -5.959627 -0.114671886
0.19002423 -0.09697871 0.76089907 0.6308503 -0.16982795 -1.4672939 0.09922832 -0.33398715
4.520672 -0.92794347 0.6004047 0.4152194 -2.042539 -0.2522483 1.4653506 -4.869691
-3.2581527 -6.649267 -1.6523058 -0.81345934 0.13197199 4.444664 2.1001616 -0.061193846
-2.3918977 -0.07443755 0.025047373 14.222528 -9.630063 0.29798168 7.3872886 -0.050765138
-0.106145434 2.633512 0.13441843 -0.17751099 0.022489855 0.49732172 0.6221976 0.10822849
0.03335408 -0.2222782 0.29724714 -3.6144326 0.5023145 -0.34075418 -0.3679014 -0.1707277
-0.31457672 -0.12541346 3.9390197 2.576868 -6.8735385 -0.97009224 -0.66819185 0.1560801
2.9679856 1.4307687 0.023711653 -1.6944355 0.01888101 0.19377163 10.760873 -6.651654
0.272186 4.5524263 -0.011560921 0.008268086 1.3884922 0.038272873 0.14583811 0.28755537
0.60423756 0.5082339 0.16345385 0.20804614 -0.25478953 0.35661632 -2.6165524 0.4101681
-0.067843996 -0.1628583 -0.36117607 0.0025464355 -0.14218514 2.8032973 1.8389808 -7.225015
-0.4208563 -0.716131 0.10620199 2.3422508 1.1770444 -0.0906251 -1.3176237 0.014255011
-0.07145547 7.938642 -4.762751 0.033045188 2.7930138 0.09477289 0.15040925 0.9738333
0.051867306 -0.14873578 0.16841091 0.62243116 0.3051617 0.35003206 0.30633935 -0.23725271
0.21712902 -1.6604717 0.13344547 0.07076533 -0.05137321 -0.66192824 -0.025346369 -0.17645447
2.013717 1.4738011 -2.9205017 -0.9057506 33.232063 0.10971106 20.291527 -42.410767
0.4380386 3.8194697 0.6911793 0.33429128 -33.906506 26.616499 -1.5637821 -55.904182
0.92529297 0.0809508 -61.448223 1.144819 0.69421685 2.5931513 0.2818597 8.083256
-2.4049323 -21.389143 1.2502953 0.16454443 7.663152 -2.8294568 5.6694183 3.287826
-2.138905 13.245741 -11.500803 -22.27135 -13.350224 -5.442924 -1.4387481 -0.62318474
-0.02381485 12.731643 3.9215527 -0.0059744706 -3.5053952 -0.15834154 0.17732063 36.9631
00000000: d375 3ac0 ee42 23bf e43e 0e40 d009 673e
00000010: c322 8541 d5c7 27be a0d3 20bf b1b4 ed41
00000020: 9be1 24be 5e43 68bf d05d 2242 5190 39c2
00000030: 0cec fd3f 1a41 8642 0a90 3abf 4c21 57be
00000040: 1031 b9c1 ceef 1bbf 6f71 413f ab86 09c0
00000050: 3d27 333d 0be7 353e fcd5 55bf 63c2 84c1
00000060: c258 c9be 7fe7 fb3f db58 66c1 2f44 3a40
00000070: 5f19 dbc0 8463 533f 7a63 0140 fc33 a8bf
00000080: 08b0 c341 6b07 cd41 b3d7 9140 1b60 dac0
00000090: 1429 96c0 f404 44be 5935 bc3c 1e3b f840
000000a0: fa92 79bf 8ea4 a73d 3b60 04be dd13 8a3d
000000b0: 4e59 f8bc fb51 60c1 c487 3b41 057d 03bd
000000c0: a61f 19c1 3254 30bd b19a 303e 5842 a3c0
000000d0: e927 1c3d 7918 b93d 553d 85be 4bc3 513f
000000e0: 9a4b de3e 37d6 49be f40d abbf d510 b33e
000000f0: 0f89 86be 5685 8240 fc6c 01bf 3bbf 953e
00000100: d1b0 ba3e e27e 11c0 99c6 dabe 3312 aa3f
00000110: 0a9d 80c0 2b7f 3cc0 2521 d4c0 81db a2c0
00000120: ebeb 08be f4d9 3cbe 3b02 0c41 5375 66bf
00000130: 5628 693e db49 64be f1ec 233d 1da7 ff3d
00000140: b6ce 75c1 ed81 5c41 88a9 b7be 34d2 33c1
00000150: ebea 4cbe 2e66 083b 44b5 bec0 18d9 eabd
00000160: b695 423e c69c c6bd 48ca 423f 687f 213f
00000170: 61e7 2dbe 49d0 bbbf 3838 cb3d 5d00 abbe
00000180: 58a9 9040 b48d 6dbf 1fb4 193f a397 d43e
00000190: f5b8 02c0 b026 81be 9c90 bb3f 82d4 9bc0
000001a0: 9385 50c0 ccc6 d4c0 c27e d3bf df3e 50bf
000001b0: aa23 073e b03a 8e40 0c69 0640 66a6 7abd
000001c0: da14 19c0 b772 98bd 2630 cd3c 7a8f 6341
000001d0: bd14 1ac1 0e91 983e ab64 ec40 1bef 4fbd
000001e0: c762 d9bd 768b 2840 fca4 093e 71c5 35be
000001f0: a53c b83c f4a0 fe3e 5848 1f3f e6a6 dd3d
00000200: 4a9e 083d e59c 63be c730 983e dd52 67c0
00000210: af97 003f 5577 aebe 935d bcbe 3ed3 2ebe
00000220: 3310 a1be 636c 00be e618 7c40 68eb 2440
00000230: 07f4 dbc0 f757 78bf 9f0e 2bbf 76d3 1f3e
00000240: 7af3 3d40 6e23 b73f f13e c23c 43e3 d8bf
00000250: 59ac 9a3c 126c 463e 892c 2c41 59da d4c0
00000260: f75b 8b3e 7aad 9140 046a 3dbc de76 073c
00000270: 1dba b13f 04c4 1c3d 9656 153e 753a 933e
00000280: 50af 1a3f 9e1b 023f 7260 273e 0c0a 553e
00000290: c673 82be 6a96 b63e 9875 27c0 8e01 d23e
000002a0: cbf1 8abd 54c4 26be 12ec b8be 19e2 263b
000002b0: fb98 11be 3969 3340 b963 eb3f 5333 e7c0
000002c0: 7a7a d7be 5c54 37bf 6e80 d93d 70e7 1540
000002d0: 64a9 963f a799 b9bd e5a7 a8bf da8d 693c
000002e0: 3f57 92bd 5b09 fe40 7568 98c0 645a 073d
000002f0: bdc0 3240 4a18 c23d e204 1a3e 244d 793f
00000300: d072 543d 314e 18be e973 2c3e a657 1f3f
00000310: 283e 9c3e 6737 b33e 83d8 9c3e 60f2 72be
00000320: 1257 5e3e 568a d4bf eea5 083e 6aed 903d
00000330: b76c 52bd 2174 29bf 30a3 cfbc 7bb0 34be
00000340: bde0 0040 84a5 bc3f 80e9 3ac0 45df 67bf
00000350: a2ed 0442 31b0 e03d 0c55 a241 a0a4 29c2
00000360: 9846 e03e 3172 7440 20f1 303f 3a28 ab3e
00000370: 43a0 07c2 97ee d441 032a c8bf e29d 5fc2
00000380: 00e0 6c3f 88c9 a53d fbca 75c2 6e89 923f
00000390: 32b8 313f 31f6 2540 ea4f 903e 0455 0141
000003a0: 69ea 19c0 f71c abc1 ad09 a03f 567e 283e
000003b0: 8b38 f540 d215 35c0 e06b b540 be6b 5240
000003c0: d2e3 08c0 8eee 5341 4a03 38c1 ba2b b2c1
000003d0: 849a 55c1 6f2c aec0 e628 b8bf 0989 1fbf
000003e0: 5c17 c3bc cfb4 4b41 b8fa 7a40 7ec5 c3bb
000003f0: 6558 60c0 4924 22be 8a93 353e 37da 1342

fc1.bias f4 [35]
-3.001491 -6.680082 -6.732332 -6.8848243 -7.0165305 -6.9806256 -2.906566 -5.234133
-6.592654 -2.762685 -7.205259 -6.1610847 -6.636704 -2.813329 -6.1243105 -3.1878538
-4.42357 -6.817068 -6.0875173 -5.078268 -4.8554516 -6.790331 -3.8231106 -7.217649
-6.0502205 -7.3016734 -6.154446 -2.7558513 -7.1491737 -7.0817833 -6.568921 -2.8244517
-3.3294022 -7.180267 -3.4711246
00000000: 6e18 40c0 3bc3 d5c0 446f d7c0 7b50 dcc0
00000010: 6b87 e0c0 4961 dfc0 2d05 3ac0 047e a7c0
00000020: 06f7 d2c0 d5cf 30c0 7b91 e6c0 9b27 c5c0
00000030: e15f d4c0 950d 34c0 5afa c3c0 cc05 4cc0
00000040: e38d 8dc0 6c25 dac0 f1cc c2c0 2c81 a2c0
00000050: dc5f 9bc0 644a d9c0 d8ad 74c0 fbf6 e6c0
00000060: 689b c1c0 4fa7 e9c0 39f1 c4c0 de5f 30c0
00000070: 08c6 e4c0 f89d e2c0 9a34 d2c0 d1c3 34c0
00000080: ed14 55c0 bfc4 e5c0 e826 5ec0

output.weight f4 [1, 35]
-2.5434756 1.1204821 1.1866815 -1.1325643 -0.9194695 -0.6916806 2.6427822 -1.6963041
1.2634006 -2.6649191 0.39877287 -1.5281777 1.3003432 2.691953 -1.5431718 -2.3818202
-1.9198875 -1.1879054 -1.5060744 -1.7205336 -1.7544043 1.066106 2.0848916 0.1687626
1.4822224 -0.27206144 1.4964151 2.7942736 0.55849844 0.7401123 1.2158988 -2.6602402
2.4167283 0.62140274 -2.3092382
00000000: 4ec8 22c0 f56b 8f3f 2ee5 973f def7 90bf
00000010: 5a62 6bbf fb11 31bf 5823 2940 7e20 d9bf
00000020: 1cb7 a13f 098e 2ac0 f52b cc3e 549b c3bf
00000030: a571 a63f f548 2c40 a786 c5bf be6f 18c0
00000040: e0be f5bf 490d 98bf 0cc7 c0bf 723a dcbf
00000050: 5290 e0bf 2976 883f dd6e 0540 1ad0 2c3e
00000060: 77b9 bd3f a34b 8bbe 888a bf3f 61d5 3240
00000070: c1f9 0e3f 0078 3d3f 92a2 9b3f 6041 2ac0
00000080: adab 1a40 4014 1f3f 8fca 13c0
