training_nn/model/Theta_net_ep14.pth (torch, 6844 bytes, 3 tensors)

fc1.weight f4 [35, 35]
-2.9137545 -0.6364204 2.2317865 0.22554892 16.640692 -0.1673926 -0.62835115 29.735754
-0.16103661 -0.90800726 40.563007 -46.391083 1.983779 67.12713 -0.728736 -0.20935132
-23.17459 -0.6091403 0.7557104 -2.148859 0.041387487 0.17403351 -0.8377225 -16.603765
-0.39266908 1.9675515 -14.395307 2.910279 -6.8468523 0.82643974 2.0239823 -1.3023645
24.465382 25.62313 4.546185 -6.824201 -4.6925035 -0.19142543 0.022974657 7.757228
-0.97489893 0.08185683 -0.12927368 0.0674207 -0.030316021 -14.019998 11.720646 -0.03210165
-9.570227 -0.043049045 0.1724651 -5.1018486 0.038124006 0.09037871 -0.26023355 0.81949764
0.43417075 -0.19710623 -1.3363633 0.3497378 -0.26276442 4.0787764 -0.5055692 0.2924746
0.36463025 -2.2734048 -0.42729643 1.3286804 -4.01917 -2.9452617 -6.6289606 -5.0892797
-0.13371286 -0.18442518 8.750556 -0.9002278 0.22769293 -0.2229385 0.040020887 0.12483046
-15.362943 13.78172 -0.3587153 -11.238819 -0.20011489 0.002081313 -5.959627 -0.114671886
0.19002423 -0.09697869 0.76104003 0.6308503 -0.16982795 -1.4672939 0.09922832 -0.33398715
4.520672 -0.92794347 0.6004047 0.4152194 -2.042601 -0.2522483 1.4653506 -4.869691
-3.2581527 -6.6486998 -1.6523159 -0.81345934 0.13197199 4.4446635 2.1001616 -0.061193846
-2.3918977 -0.07443755 0.025047373 14.222528 -9.630063 0.29798168 7.3872886 -0.050765138
-0.106145434 2.633512 0.13441843 -0.17751099 0.022489853 0.49723274 0.62219757 0.10822849
0.033353597 -0.2222782 0.29724714 -3.6144326 0.5023145 -0.34075418 -0.3679014 -0.17069311
-0.31457672 -0.12541334 3.9390197 2.5768676 -6.873322 -0.97009987 -0.66819185 0.1560801
2.9679844 1.4307687 0.023711653 -1.6944355 0.01888101 0.19377163 10.760873 -6.651654
0.272186 4.5524263 -0.011560921 0.008268086 1.3884922 0.038272873 0.14583811 0.28755537
0.60412765 0.5082339 0.16345385 0.20804608 -0.25478953 0.35661632 -2.6165524 0.4101681
-0.067843996 -0.1628583 -0.36114204 0.0025474045 -0.14218514 2.8032973 1.8389804 -7.2249064
-0.42086098 -0.716131 0.10620199 2.3422508 1.1770444 -0.0906251 -1.3176237 0.014255011
-0.07145547 7.938642 -4.762751 0.033045188 2.7930138 0.09477289 0.15040925 0.9738333
0.051867306 -0.14873578 0.16841091 0.62235165 0.3051617 0.35003206 0.30633935 -0.23725271
0.21712902 -1.6604717 0.13344547 0.07076533 -0.05137321 -0.6619146 -0.02534627 -0.17645447
2.013717 1.4738011 -2.920292 -0.906267 33.23188 0.10994912 20.288225 -42.412148
0.4380265 3.8376987 0.6913359 0.33407676 -33.874237 26.6107 -1.56365 -55.905647
0.9254305 0.08009621 -61.459305 1.145021 0.6944915 2.5934331 0.2838032 8.086487
-2.405052 -21.389345 1.250368 0.1648275 7.6489697 -2.8291447 5.66944 3.2887933
-2.142567 13.245807 -11.511286 -22.26245 -13.345084 -5.444116 -1.438644 -0.62317306
-0.0238151 12.730329 3.921554 -0.0059752055 -3.5053906 -0.15834157 0.17732048 36.963028
00000000: f47a 3ac0 73ec 22bf 97d5 0e40 4cf6 663e
00000010: 2320 8541 f768 2bbe 9fdb 20bf d3e2 ed41
00000020: c8e6 24be 2a73 68bf 8540 2242 7890 39c2
00000030: 78ec fd3f 1741 8642 718e 3abf 3160 56be
00000040: 8f65 b9c1 9ef0 1bbf 3d76 413f e886 09c0
00000050: ed85 293d d735 323e fb74 56bf 83d4 84c1
00000060: ec0b c9be bad8 fb3f 2d53 66c1 0342 3a40
00000070: 6a19 dbc0 8e91 533f ed88 0140 e1b3 a6bf
00000080: 1ab9 c341 2cfc cc41 597a 9140 db5f dac0
00000090: fd28 96c0 0705 44be 5935 bc3c 363b f840
000000a0: fa92 79bf 8ea4 a73d 5260 04be dd13 8a3d
000000b0: 4e59 f8bc e951 60c1 c487 3b41 057d 03bd
000000c0: a61f 19c1 3254 30bd b19a 303e 5842 a3c0
000000d0: eb27 1c3d 7918 b93d 553d 85be 99ca 513f
000000e0: a14b de3e 37d6 49be f40d abbf d510 b33e
000000f0: 0f89 86be 5685 8240 fc6c 01bf 3bbf 953e
00000100: d1b0 ba3e 777f 11c0 99c6 dabe 3312 aa3f
00000110: 0a9d 80c0 2b7f 3cc0 7220 d4c0 61db a2c0
00000120: 06ec 08be f4d9 3cbe 4702 0c41 5475 66bf
00000130: 5628 693e fd49 64be f1ec 233d 1da7 ff3d
00000140: 9dce 75c1 ed81 5c41 88a9 b7be 34d2 33c1
00000150: ebea 4cbe a366 083b 44b5 bec0 18d9 eabd
00000160: b695 423e c39c c6bd 85d3 423f 687f 213f
00000170: 61e7 2dbe 49d0 bbbf 3838 cb3d 5d00 abbe
00000180: 58a9 9040 b48d 6dbf 1fb4 193f a397 d43e
00000190: fab9 02c0 b026 81be 9c90 bb3f 82d4 9bc0
000001a0: 9385 50c0 26c2 d4c0 167f d3bf df3e 50bf
000001b0: aa23 073e af3a 8e40 0c69 0640 66a6 7abd
000001c0: da14 19c0 b772 98bd 2630 cd3c 7a8f 6341
000001d0: bd14 1ac1 0e91 983e ab64 ec40 1bef 4fbd
000001e0: c762 d9bd 768b 2840 fca4 093e 71c5 35be
000001f0: a43c b83c 4a95 fe3e 5748 1f3f e6a6 dd3d
00000200: c89d 083d e59c 63be c730 983e dd52 67c0
00000210: af97 003f 5577 aebe 935d bcbe 2dca 2ebe
00000220: 3310 a1be 5b6c 00be e618 7c40 66eb 2440
00000230: 41f2 dbc0 7758 78bf 9f0e 2bbf 76d3 1f3e
00000240: 75f3 3d40 6e23 b73f f13e c23c 43e3 d8bf
00000250: 59ac 9a3c 126c 463e 892c 2c41 59da d4c0
00000260: f75b 8b3e 7aad 9140 046a 3dbc de76 073c
00000270: 1dba b13f 04c4 1c3d 9656 153e 753a 933e
00000280: 1ca8 1a3f 9e1b 023f 7260 273e 080a 553e
00000290: c673 82be 6a96 b63e 9875 27c0 8e01 d23e
000002a0: cbf1 8abd 54c4 26be 9ce7 b8be 5bf2 263b
000002b0: fb98 11be 3969 3340 b663 eb3f 6f32 e7c0
000002c0: 177b d7be 5c54 37bf 6e80 d93d 70e7 1540
000002d0: 64a9 963f a799 b9bd e5a7 a8bf da8d 693c
000002e0: 3f57 92bd 5b09 fe40 7568 98c0 645a 073d
000002f0: bdc0 3240 4a18 c23d e204 1a3e 244d 793f
00000300: d072 543d 314e 18be e973 2c3e 7052 1f3f
00000310: 283e 9c3e 6737 b33e 83d8 9c3e 60f2 72be
00000320: 1257 5e3e 568a d4bf eea5 083e 6aed 903d
00000330: b76c 52bd 3c73 29bf fba2 cfbc 7bb0 34be
00000340: bde0 0040 84a5 bc3f 10e6 3ac0 1d01 68bf
00000350: 72ed 0442 012d e13d 494e a241 0aa6 29c2
00000360: 0245 e03e db9c 7540 64fb 303f 1c0c ab3e
00000370: 387f 07c2 b7e2 d441 af25 c8bf 629f 5fc2
00000380: 03e9 6c3f 7b09 a43d 54d6 75c2 0c90 923f
00000390: 32ca 313f cffa 2540 a74e 913e 4062 0141
000003a0: 5fec 19c0 611d abc1 0f0c a03f 8ac8 283e
000003b0: 5cc4 f440 b510 35c0 0d6c b540 977b 5240
000003c0: d11f 09c0 d3ee 5341 3a2e 38c1 7f19 b2c1
000003d0: 7785 55c1 3336 aec0 7d25 b8bf 4588 1fbf
000003e0: e217 c3bc 6daf 4b41 befa 7a40 a8cb c3bb
000003f0: 5258 60c0 4b24 22be 8093 353e 24da 1342

fc1.bias f4 [35]
-3.001804 -6.6800513 -6.732247 -6.884257 -7.016314 -6.980517 -2.906356 -5.235325
-6.5925064 -2.762811 -7.2053604 -6.161253 -6.636545 -2.8132184 -6.1244407 -3.1884642
-4.425035 -6.8165154 -6.0875316 -5.079642 -4.8569636 -6.7902822 -3.8240037 -7.2176714
-6.050257 -7.301632 -6.154341 -2.755116 -7.14919 -7.0817227 -6.568758 -2.8245242
-3.3293145 -7.1802707 -3.4720726
00000000: 8f1d 40c0 fbc2 d5c0 916e d7c0 d54b dcc0
00000010: a585 e0c0 6560 dfc0 bd01 3ac0 c887 a7c0
00000020: d0f5 d2c0 e5d1 30c0 5092 e6c0 fc28 c5c0
00000030: 945e d4c0 c50b 34c0 6bfb c3c0 cc0f 4cc0
00000040: e399 8dc0 e520 dac0 0fcd c2c0 6d8c a2c0
00000050: 3f6c 9bc0 fe49 d9c0 7abc 74c0 2af7 e6c0
00000060: b59b c1c0 f8a6 e9c0 5df0 c4c0 d253 30c0
00000070: 2ac6 e4c0 799d e2c0 4433 d2c0 01c5 34c0
00000080: 7d13 55c0 c7c4 e5c0 7036 5ec0

output.weight f4 [1, 35]
-2.5430882 1.1207641 1.1870508 -1.1329633 -0.91979206 -0.69184905 2.6429615 -1.6951455
1.2638017 -2.664754 0.39887586 -1.5280913 1.3007276 2.6920056 -1.5431076 -2.3811798
-1.918355 -1.1883008 -1.5061923 -1.7192208 -1.7529432 1.0663806 2.0840204 0.16880496
1.4823571 -0.27211767 1.49665 2.7949605 0.55864227 0.74032044 1.2162633 -2.660104
2.4168112 0.6215651 -2.3082938
00000000: f5c1 22c0 3375 8f3f 48f1 973f f104 91bf
00000010: 7e77 6bbf 051d 31bf 4826 2940 87fa d8bf
00000020: 41c4 a13f 548b 2ac0 7539 cc3e 7f98 c3bf
00000030: 3e7e a63f d249 2c40 8d84 c5bf 4065 18c0
00000040: a88c f5bf 3e1a 98bf e9ca c0bf 6d0f dcbf
00000050: 7160 e0bf 297f 883f 9760 0540 35db 2c3e
00000060: e1bd bd3f 0253 8bbe 3a92 bf3f a2e0 3240
00000070: 2e03 0f3f a485 3d3f 84ae 9b3f 253f 2ac0
00000080: 09ad 1a40 e41e 1f3f 16bb 13c0
