training_nn/model/Theta_net_ep13.pth (torch, 6844 bytes, 3 tensors)

fc1.weight f4 [35, 35]
0	0xc03a7a59	-2.9137175
1	0xbf22f079	-0.6364818
2	0x400ed24c	2.2315855
3	0x3e66f68f	0.22554992
4	0x41852028	16.640701
5	0xbe2b4a81	-0.1672764
6	0xbf20db90	-0.62835026
7	0x41ede2d1	29.73575
8	0xbe24e5a0	-0.1610322
9	0xbf6872e0	-0.90800285
10	0x42224085	40.563007
11	0xc2399078	-46.391083
12	0x3ffdec78	1.983779
13	0x42864117	67.12713
14	0xbf3a8e71	-0.728736
15	0xbe56606a	-0.20935217
16	0xc1b9658f	-23.17459
17	0xbf1bf09d	-0.6091402
18	0x3f41763e	0.7557105
19	0xc00986e8	-2.148859
20	0x3d29ddc5	0.04147126
21	0x3e325552	0.1741536
22	0xbf567245	-0.8376811
23	0xc184d478	-16.603745
24	0xbec90b1c	-0.39266288
25	0x3ffbd8fc	1.9675593
26	0xc1665386	-14.395391
27	0x403a4205	2.9102795
28	0xc0db196a	-6.8468523
29	0x3f539168	0.8264375
30	0x400187b6	2.0239081
31	0xbfa6bd91	-1.3026601
32	0x41c3b917	24.465376
33	0x41ccfc2c	25.62313
34	0x40917d38	4.5465355
35	0xc0da5fcb	-6.8241935
36	0xc09628fd	-4.6925035
37	0xbe440507	-0.19142543
38	0x3cbc3559	0.022974657
39	0x40f83b36	7.757228
40	0xbf7992fa	-0.97489893
41	0x3da7a48e	0.08185683
42	0xbe046052	-0.12927368
43	0x3d8a13dd	0.0674207
44	0xbcf8594e	-0.030316021
45	0xc16051e9	-14.019998
46	0x413b87c4	11.720646
47	0xbd037d05	-0.03210165
48	0xc1191fa6	-9.570227
49	0xbd305432	-0.043049045
50	0x3e309ab1	0.1724651
51	0xc0a34258	-5.1018486
52	0x3d1c27eb	0.038124006
53	0x3db91879	0.09037871
54	0xbe853d55	-0.26023355
55	0x3f51ca0b	0.8194892
56	0x3ede4ba1	0.43417075
57	0xbe49d637	-0.19710623
58	0xbfab0df4	-1.3363633
59	0x3eb310d5	0.3497378
60	0xbe86890f	-0.26276442
61	0x40828556	4.0787764
62	0xbf016cfc	-0.5055692
63	0x3e95bf3b	0.2924746
64	0x3ebab0d1	0.36463025
65	0xc0117f77	-2.2734048
66	0xbedac699	-0.42729643
67	0x3faa1233	1.3286804
68	0xc0809d0a	-4.01917
69	0xc03c7f2b	-2.9452617
70	0xc0d42060	-6.628952
71	0xc0a2db61	-5.0892797
72	0xbe08ec06	-0.13371286
73	0xbe3cd9f4	-0.18442518
74	0x410c0247	8.750556
75	0xbf667554	-0.9002278
76	0x3e692856	0.22769293
77	0xbe6449fd	-0.2229385
78	0x3d23ecf1	0.040020887
79	0x3dffa71d	0.12483046
80	0xc175ce9d	-15.362943
81	0x415c81ed	13.78172
82	0xbeb7a988	-0.3587153
83	0xc133d234	-11.238819
84	0xbe4ceaeb	-0.20011489
85	0x3b0866a3	0.002081313
86	0xc0beb544	-5.959627
87	0xbdead918	-0.114671886
88	0x3e4295b6	0.19002423
89	0xbdc69cc3	-0.09697869
90	0x3f42d22b	0.7610194
91	0x3f217f68	0.6308503
92	0xbe2de761	-0.16982795
93	0xbfbbd049	-1.4672939
94	0x3dcb3838	0.09922832
95	0xbeab005d	-0.33398715
96	0x4090a958	4.520672
97	0xbf6d8db4	-0.92794347
98	0x3f19b41f	0.6004047
99	0x3ed497a3	0.4152194
100	0xc002b9fa	-2.042601
101	0xbe8126b0	-0.2522483
102	0x3fbb909c	1.4653506
103	0xc09bd482	-4.869691
104	0xc0508593	-3.2581527
105	0xc0d4c230	-6.6487045
106	0xbfd37f16	-1.6523159
107	0xbf503edf	-0.81345934
108	0x3e0723aa	0.13197199
109	0x408e3aaf	4.4446635
110	0x4006690c	2.1001616
111	0xbd7aa666	-0.061193846
112	0xc01914da	-2.3918977
113	0xbd9872b7	-0.07443755
114	0x3ccd3026	0.025047373
115	0x41638f7a	14.222528
116	0xc11a14bd	-9.630063
117	0x3e98910e	0.29798168
118	0x40ec64ab	7.3872886
119	0xbd4fef1b	-0.050765138
120	0xbdd962c7	-0.106145434
121	0x40288b76	2.633512
122	0x3e09a4fc	0.13441843
123	0xbe35c571	-0.17751099
124	0x3cb83ca4	0.022489853
125	0x3efe984b	0.49725565
126	0x3f1f4857	0.62219757
127	0x3ddda6e6	0.10822849
128	0x3d089dca	0.033353604
129	0xbe639ce5	-0.2222782
130	0x3e9830c7	0.29724714
131	0xc06752dd	-3.6144326
132	0x3f0097af	0.5023145
133	0xbeae7755	-0.34075418
134	0xbebc5d93	-0.3679014
135	0xbe2ecad8	-0.17069566
136	0xbea11033	-0.31457672
137	0xbe006c5b	-0.12541334
138	0x407c18e6	3.9390197
139	0x4024eb66	2.5768676
140	0xc0dbf247	-6.873325
141	0xbf785877	-0.97009987
142	0xbf2b0e9f	-0.66819185
143	0x3e1fd376	0.1560801
144	0x403df375	2.9679844
145	0x3fb7236e	1.4307687
146	0x3cc23ef1	0.023711653
147	0xbfd8e343	-1.6944355
148	0x3c9aac59	0.01888101
149	0x3e466c12	0.19377163
150	0x412c2c89	10.760873
151	0xc0d4da59	-6.651654
152	0x3e8b5bf7	0.272186
153	0x4091ad7a	4.5524263
154	0xbc3d6a04	-0.011560921
155	0x3c0776de	0.008268086
156	0x3fb1ba1d	1.3884922
157	0x3d1cc404	0.038272873
158	0x3e155696	0.14583811
159	0x3e933a75	0.28755537
160	0x3f1aa81f	0.6041278
161	0x3f021b9e	0.5082339
162	0x3e276072	0.16345385
163	0x3e550a08	0.20804608
164	0xbe8273c6	-0.25478953
165	0x3eb6966a	0.35661632
166	0xc0277598	-2.6165524
167	0x3ed2018e	0.4101681
168	0xbd8af1cb	-0.067843996
169	0xbe26c454	-0.1628583
170	0xbeb8e79c	-0.36114204
171	0x3b26f237	0.002547396
172	0xbe1198fb	-0.14218514
173	0x40336939	2.8032973
174	0x3feb63b6	1.8389804
175	0xc0e7326f	-7.2249064
176	0xbed77b17	-0.42086098
177	0xbf37545c	-0.716131
178	0x3dd9806e	0.10620199
179	0x4015e770	2.3422508
180	0x3f96a964	1.1770444
181	0xbdb999a7	-0.0906251
182	0xbfa8a7e5	-1.3176237
183	0x3c698dda	0.014255011
184	0xbd92573f	-0.07145547
185	0x40fe095b	7.938642
186	0xc0986875	-4.762751
187	0x3d075a64	0.033045188
188	0x4032c0bd	2.7930138
189	0x3dc2184a	0.09477289
190	0x3e1a04e2	0.15040925
191	0x3f794d24	0.9738333
192	0x3d5472d0	0.051867306
193	0xbe184e31	-0.14873578
194	0x3e2c73e9	0.16841091
195	0x3f1f5270	0.62235165
196	0x3e9c3e28	0.3051617
197	0x3eb33767	0.35003206
198	0x3e9cd883	0.30633935
199	0xbe72f260	-0.23725271
200	0x3e5e5712	0.21712902
201	0xbfd48a56	-1.6604717
202	0x3e08a5ee	0.13344547
203	0x3d90ed6a	0.07076533
204	0xbd526cb7	-0.05137321
205	0xbf29733c	-0.6619146
206	0xbccfa2fb	-0.02534627
207	0xbe34b07b	-0.17645447
208	0x4000e0bd	2.013717
209	0x3fbca584	1.4738011
210	0xc03ae511	-2.920231
211	0xbf6800b0	-0.9062605
212	0x4204ed72	33.23188
213	0x3de12b8c	0.10994634
214	0x41a24e42	20.288212
215	0xc229a60a	-42.412148
216	0x3ee044a5	0.43802372
217	0x40759b93	3.8376205
218	0x3f30fb38	0.6913333
219	0x3eab0bb2	0.3340736
220	0xc2077f39	-33.87424
221	0x41d4e2bd	26.610712
222	0xbfc825cd	-1.5636536
223	0xc25f9f62	-55.905647
224	0x3f6ce8c0	0.9254265
225	0x3da40724	0.080091745
226	0xc275d654	-61.459305
227	0x3f928fdc	1.1450152
228	0x3f31c9ca	0.6944853
229	0x4025faae	2.5934253
230	0x3e914340	0.2837162
231	0x41016246	8.086493
232	0xc019ec79	-2.4050581
233	0xc1ab1d77	-21.389387
234	0x3fa00c0d	1.2503678
235	0x3e28c427	0.16481076
236	0x40f4c75e	7.649337
237	0xc03510b9	-2.8291457
238	0x40b56c0d	5.66944
239	0x40527b8e	3.2887912
240	0xc0091e7a	-2.1424851
241	0x4153eef6	13.24584
242	0xc1382dbc	-11.511166
243	0xc1b2197f	-22.26245
244	0xc1558705	-13.345464
245	0xc0ae3528	-5.443989
246	0xbfb82508	-1.4386301
247	0xbf1f8845	-0.62317306
248	0xbcc317e2	-0.0238151
249	0x414baf6d	12.730329
250	0x407afabe	3.921554
251	0xbbc3cb9c	-0.0059752
252	0xc0605852	-3.5053906
253	0xbe22244b	-0.15834157
254	0x3e359380	0.17732048
255	0x4213da24	36.963028

fc1.bias f4 [35]
0	0xc0401cf4	-3.0017672
1	0xc0d5c2eb	-6.6800437
2	0xc0d76e7f	-6.7322383
3	0xc0dc4bdf	-6.8842616
4	0xc0e085ab	-7.016317
5	0xc0df6065	-6.980517
6	0xc03a00be	-2.9062953
7	0xc0a786bd	-5.2351975
8	0xc0d2f5db	-6.5925117
9	0xc030d146	-2.762773
10	0xc0e69250	-7.2053604
11	0xc0c528ad	-6.1612153
12	0xc0d45ea5	-6.6365533
13	0xc0340aa3	-2.8131492
14	0xc0c3fb2b	-6.12441
15	0xc04c0ef6	-3.1884131
16	0xc08d9912	-4.4249353
17	0xc0da20f6	-6.8165236
18	0xc0c2ccfd	-6.087523
19	0xc0a28b37	-5.079494
20	0xc09b6b13	-4.8568206
21	0xc0d949ee	-6.7902746
22	0xc074bafe	-3.823913
23	0xc0e6f72a	-7.2176714
24	0xc0c19b52	-6.05021
25	0xc0e9a6f8	-7.301632
26	0xc0c4eff5	-6.1542916
27	0xc030531e	-2.755073
28	0xc0e4c627	-7.1491885
29	0xc0e29d71	-7.081719
30	0xc0d23339	-6.568753
31	0xc034c47c	-2.8244925
32	0xc0551280	-3.3292542
33	0xc0e5c4c2	-7.1802683
34	0xc05e3576	-3.472013

output.weight f4 [1, 35]
0	0xc022c29f	-2.5431287
1	0x3f8f75e2	1.120785
2	0x3f97f195	1.18706
3	0xbf91048b	-1.1329511
4	0xbf6b76c2	-0.91978085
5	0xbf311d08	-0.69184923
6	0x4029274d	2.6430237
7	0xbfd8fbfb	-1.6951898
8	0x3fa1c44e	1.2638032
9	0xc02a8bfd	-2.6647942
10	0x3ecc397c	0.39887607
11	0xbfc3989b	-1.5280946
12	0x3fa67e09	1.3007213
13	0x402c4afc	2.6920767
14	0xbfc58491	-1.5431081
15	0xc0186617	-2.381231
16	0xbff58dfc	-1.9183955
17	0xbf981a18	-1.1882963
18	0xbfc0cb3f	-1.5062026
19	0xbfdc10ef	-1.7192668
20	0xbfe061d5	-1.7529856
21	0x3f888028	1.066411
22	0x40056226	2.0841155
23	0x3e2cdaf2	0.16880396
24	0x3fbdbe23	1.482365
25	0xbe8b528a	-0.2721141
26	0x3fbf925f	1.4966544
27	0x4032e15b	2.7950046
28	0x3f0f0341	0.5586434
29	0x3f3d8594	0.7403195
30	0x3f9baea7	1.2162675
31	0xc02a3fab	-2.660136
32	0x401aae08	2.416872
33	0x3f1f1e8c	0.62155986
34	0xc013bc08	-2.3083515
