training_nn/model/Theta_net_ep11.pth (torch, 6844 bytes, 3 tensors)

fc1.weight f4 [35, 35]
000000 7b 78 3a c0 c0 05 23 bf 37 b0 0e 40 27 f6 66 3e
       -2.9136035 -0.6368065 2.2295053 0.22554837
000010 68 21 85 41 35 95 2a be 61 da 20 bf df e1 ed 41
       16.641312 -0.1665848 -0.6283322 29.735289
000020 8a dd 24 be 49 70 68 bf b8 42 22 42 78 90 39 c2
       -0.16100135 -0.90796334 40.565155 -46.391083
000030 7a ec fd 3f 17 41 86 42 81 8e 3a bf 95 67 56 be
       1.9837792 67.12713 -0.72873694 -0.20937951
000040 56 65 b9 c1 83 f0 1b bf 58 76 41 3f e2 86 09 c0
       -23.17448 -0.60913867 0.75571203 -2.1488576
000050 1d fe 2b 3d b2 0e 33 3e 6f 55 56 bf 23 d4 84 c1
       0.04199039 0.17486075 -0.8372411 -16.603582
000060 8d 15 c9 be 7b db fb 3f 55 54 66 c1 2f 42 3a 40
       -0.39274254 1.9676355 -14.395589 2.9102895
000070 6b 19 db c0 e6 89 53 3f 84 7f 01 40 d1 05 a7 bf
       -6.846853 0.8263229 2.023408 -1.304865
000080 1b b8 c3 41 7d fc cc 41 7b 90 91 40 06 5f da c0
       24.464895 25.623285 4.548887 -6.8240995
000090 fd 28 96 c0 07 05 44 be 59 35 bc 3c 36 3b f8 40
       -4.6925035 -0.19142543 0.022974657 7.757228
0000a0 fa 92 79 bf 8e a4 a7 3d 52 60 04 be dd 13 8a 3d
       -0.97489893 0.08185683 -0.12927368 0.0674207
0000b0 4e 59 f8 bc e9 51 60 c1 c4 87 3b 41 05 7d 03 bd
       -0.030316021 -14.019998 11.720646 -0.03210165
0000c0 a6 1f 19 c1 32 54 30 bd b1 9a 30 3e 58 42 a3 c0
       -9.570227 -0.043049045 0.1724651 -5.1018486
0000d0 eb 27 1c 3d 79 18 b9 3d 55 3d 85 be 68 c5 51 3f
       0.038124006 0.09037871 -0.26023355 0.81941843
0000e0 a1 4b de 3e 37 d6 49 be f4 0d ab bf d5 10 b3 3e
       0.43417075 -0.19710623 -1.3363633 0.3497378
0000f0 0f 89 86 be 56 85 82 40 fc 6c 01 bf 3b bf 95 3e
       -0.26276442 4.0787764 -0.5055692 0.2924746
000100 d1 b0 ba 3e 77 7f 11 c0 99 c6 da be 33 12 aa 3f
       0.36463025 -2.2734048 -0.42729643 1.3286804
000110 0a 9d 80 c0 2b 7f 3c c0 85 1f d4 c0 64 db a2 c0
       -4.01917 -2.9452617 -6.6288476 -5.089281
000120 05 ec 08 be f4 d9 3c be 47 02 0c 41 54 75 66 bf
       -0.13371284 -0.18442518 8.750556 -0.9002278
000130 56 28 69 3e fb 49 64 be f1 ec 23 3d 1d a7 ff 3d
       0.22769293 -0.22293846 0.040020887 0.12483046
000140 9e ce 75 c1 ed 81 5c 41 88 a9 b7 be 34 d2 33 c1
       -15.362944 13.78172 -0.3587153 -11.238819
000150 eb ea 4c be 8f 66 08 3b 44 b5 be c0 18 d9 ea bd
       -0.20011489 0.0020813083 -5.959627 -0.114671886
000160 b6 95 42 3e c3 9c c6 bd b7 cd 42 3f 68 7f 21 3f
       0.19002423 -0.09697869 0.76095146 0.6308503
000170 61 e7 2d be 49 d0 bb bf 38 38 cb 3d 5d 00 ab be
       -0.16982795 -1.4672939 0.09922832 -0.33398715
000180 58 a9 90 40 b4 8d 6d bf 1f b4 19 3f a3 97 d4 3e
       4.520672 -0.92794347 0.6004047 0.4152194
000190 fa b9 02 c0 b0 26 81 be 9c 90 bb 3f 82 d4 9b c0
       -2.042601 -0.2522483 1.4653506 -4.869691
0001a0 93 85 50 c0 7d c2 d4 c0 15 7f d3 bf df 3e 50 bf
       -3.2581527 -6.6487412 -1.6523157 -0.81345934
0001b0 aa 23 07 3e af 3a 8e 40 0c 69 06 40 66 a6 7a bd
       0.13197199 4.4446635 2.1001616 -0.061193846
0001c0 da 14 19 c0 b7 72 98 bd 26 30 cd 3c 7a 8f 63 41
       -2.3918977 -0.07443755 0.025047373 14.222528
0001d0 bd 14 1a c1 0e 91 98 3e ab 64 ec 40 1b ef 4f bd
       -9.630063 0.29798168 7.3872886 -0.050765138
0001e0 c7 62 d9 bd 76 8b 28 40 fc a4 09 3e 71 c5 35 be
       -0.106145434 2.633512 0.13441843 -0.17751099
0001f0 a4 3c b8 3c 0e 9d fe 3e 57 48 1f 3f e6 a6 dd 3d
       0.022489853 0.49729198 0.62219757 0.10822849
000200 ca 9d 08 3d e5 9c 63 be c7 30 98 3e dd 52 67 c0
       0.033353604 -0.2222782 0.29724714 -3.6144326
000210 af 97 00 3f 55 77 ae be 93 5d bc be 0c cf 2e be
       0.5023145 -0.34075418 -0.3679014 -0.1707117
000220 33 10 a1 be 5b 6c 00 be e6 18 7c 40 66 eb 24 40
       -0.31457672 -0.12541334 3.9390197 2.5768676
000230 b9 f2 db c0 72 58 78 bf 9f 0e 2b bf 76 d3 1f 3e
       -6.873379 -0.97009957 -0.66819185 0.1560801
000240 75 f3 3d 40 6e 23 b7 3f f1 3e c2 3c 43 e3 d8 bf
       2.9679844 1.4307687 0.023711653 -1.6944355
000250 59 ac 9a 3c 12 6c 46 3e 89 2c 2c 41 59 da d4 c0
       0.01888101 0.19377163 10.760873 -6.651654
000260 f7 5b 8b 3e 7a ad 91 40 04 6a 3d bc de 76 07 3c
       0.272186 4.5524263 -0.011560921 0.008268086
000270 1d ba b1 3f 04 c4 1c 3d 96 56 15 3e 75 3a 93 3e
       1.3884922 0.038272873 0.14583811 0.28755537
000280 64 ac 1a 3f 9e 1b 02 3f 72 60 27 3e 08 0a 55 3e
       0.604193 0.5082339 0.16345385 0.20804608
000290 c6 73 82 be 6a 96 b6 3e 98 75 27 c0 8e 01 d2 3e
       -0.25478953 0.35661632 -2.6165524 0.4101681
0002a0 cb f1 8a bd 54 c4 26 be 70 e8 b8 be c6 ef 26 3b
       -0.067843996 -0.1628583 -0.36114836 0.0025472506
0002b0 fb 98 11 be 39 69 33 40 b6 63 eb 3f aa 32 e7 c0
       -0.14218514 2.8032973 1.8389804 -7.2249346
0002c0 10 7b d7 be 5c 54 37 bf 6e 80 d9 3d 70 e7 15 40
       -0.42086077 -0.716131 0.10620199 2.3422508
0002d0 64 a9 96 3f a7 99 b9 bd e5 a7 a8 bf da 8d 69 3c
       1.1770444 -0.0906251 -1.3176237 0.014255011
0002e0 3f 57 92 bd 5b 09 fe 40 75 68 98 c0 64 5a 07 3d
       -0.07145547 7.938642 -4.762751 0.033045188
0002f0 bd c0 32 40 4a 18 c2 3d e2 04 1a 3e 24 4d 79 3f
       2.7930138 0.09477289 0.15040925 0.9738333
000300 d0 72 54 3d 31 4e 18 be e9 73 2c 3e 30 54 1f 3f
       0.051867306 -0.14873578 0.16841091 0.62237835
000310 28 3e 9c 3e 67 37 b3 3e 83 d8 9c 3e 60 f2 72 be
       0.3051617 0.35003206 0.30633935 -0.23725271
000320 12 57 5e 3e 56 8a d4 bf ee a5 08 3e 6a ed 90 3d
       0.21712902 -1.6604717 0.13344547 0.07076533
000330 b7 6c 52 bd 3c 73 29 bf fb a2 cf bc 7b b0 34 be
       -0.05137321 -0.6619146 -0.02534627 -0.17645447
000340 bd e0 00 40 84 a5 bc 3f f8 e3 3a c0 57 f8 67 bf
       2.013717 1.4738011 -2.920164 -0.9061331
000350 8b ed 04 42 55 19 e1 3d 99 4f a2 41 f4 a5 29 c2
       33.231976 0.1099116 20.288866 -42.412064
000360 41 42 e0 3e da 5f 75 40 02 fa 30 3f cb 09 ab 3e
       0.43800548 3.8339753 0.6913148 0.3340591
000370 60 81 07 c2 0b e3 d4 41 95 26 c8 bf 4c 9f 5f c2
       -33.876343 26.61086 -1.5636774 -55.905563
000380 0a e7 6c 3f f6 21 a4 3d 3c d6 75 c2 aa 8e 92 3f
       0.9254004 0.0801429 -61.459213 1.1449788
000390 39 c7 31 3f d6 f9 25 40 20 ff 90 3e 65 63 01 41
       0.69444615 2.5933738 0.28319645 8.086766
0003a0 68 ed 19 c0 76 20 ab c1 ec 0b a0 3f 29 b6 28 3e
       -2.4051151 -21.39085 1.2503638 0.16475739
0003b0 34 e1 f4 40 fc 10 35 c0 fa 6b b5 40 3f 7b 52 40
       7.6524906 -2.8291616 5.6694307 3.2887723
0003c0 9f 11 09 c0 3c ef 53 41 e7 25 38 c1 a8 1a b2 c1
       -2.1417005 13.245907 -11.5092535 -22.263016
0003d0 50 88 55 c1 5c 32 ae c0 ac 22 b8 bf 47 88 1f bf
       -13.345779 -5.4436474 -1.4385581 -0.6231732
0003e0 da 17 c3 bc 98 af 4b 41 be fa 7a 40 b6 ca c3 bb
       -0.023815084 12.73037 3.921554 -0.0059750928
0003f0 52 58 60 c0 4b 24 22 be 80 93 35 3e 24 da 13 42
       -3.5053906 -0.15834157 0.17732048 36.963028

fc1.bias f4 [35]
000000 16 1b 40 c0 26 c2 d5 c0 a4 6d d7 c0 2c 4c dc c0
       -3.0016532 -6.6799498 -6.732134 -6.8842983
000010 1d 86 e0 c0 a0 60 df c0 a5 ff 39 c0 f1 83 a7 c0
       -7.0163713 -6.980545 -2.9062283 -5.234856
000020 54 f5 d2 c0 ff cf 30 c0 3f 92 e6 c0 63 27 c5 c0
       -6.5924473 -2.762695 -7.2053523 -6.161058
000030 66 5e d4 c0 64 0a 34 c0 06 fa c3 c0 24 0c 4c c0
       -6.6365232 -2.8131342 -6.1242704 -3.188241
000040 98 95 8d c0 45 21 da c0 b5 cb c2 c0 32 88 a2 c0
       -4.424511 -6.816561 -6.0873666 -5.0791254
000050 b8 67 9b c0 4d 49 d9 c0 bf b6 74 c0 29 f7 e6 c0
       -4.856411 -6.790198 -3.823654 -7.217671
000060 6f 99 c1 c0 fd a6 e9 c0 90 ee c4 c0 ce 53 30 c0
       -6.0499797 -7.3016343 -6.1541214 -2.755115
000070 05 c6 e4 c0 3e 9d e2 c0 cc 32 d2 c0 83 c3 34 c0
       -7.1491723 -7.0816946 -6.568701 -2.824433
000080 98 11 55 c0 a6 c4 e5 c0 49 31 5e c0
       -3.3291988 -7.180255 -3.4717581

output.weight f4 [1, 35]
000000 b1 c4 22 c0 bf 74 8f 3f d0 ef 97 3f 74 02 91 bf
       -2.543255 1.1207503 1.187006 -1.1328874
000010 18 72 6b bf 48 1b 31 bf 85 28 29 40 f9 04 d9 bf
       -0.9197097 -0.6918225 2.643098 -1.6954643
000020 2b c2 a1 3f 64 8d 2a c0 e8 37 cc 3e c5 99 c3 bf
       1.263738 -2.6648798 0.39886403 -1.5281302
000030 90 7c a6 3f 6b 4b 2c 40 ca 85 c5 bf fc 68 18 c0
       1.3006763 2.6921031 -1.5431454 -2.3814077
000040 db 99 f5 bf c0 17 98 bf 16 cb c0 bf c3 1a dc bf
       -1.9187578 -1.1882248 -1.5061977 -1.7195667
000050 b6 6b e0 bf 1a 7f 88 3f 28 66 05 40 9f d9 2c 3e
       -1.7532871 1.0663788 2.0843601 0.16879891
000060 b8 bf bd 3f 8f 50 8b be 4f 93 bf 3f d2 e0 32 40
       1.4824133 -0.272099 1.496683 2.794972
000070 37 02 0f 3f fd 83 3d 3f e2 ac 9b 3f ae 40 2a c0
       0.55862755 0.74029523 1.2162135 -2.6601977
000080 20 af 1a 40 a7 1d 1f 3f 0e c0 13 c0
       2.4169388 0.6215462 -2.308597
