training_nn/model/Theta_net_ep6.pth (torch, 6844 bytes, 3 tensors)

fc1.weight f4 [35, 35]
-2.9138513 -0.6312028 2.1607811 0.22660133 16.634056 -0.14090487 -0.62719965 29.432455
-0.16138913 -0.8974232 40.718994 -46.371613 1.9813696 67.09125 -0.72556806 -0.21833307
-22.867348 -0.6086881 0.75243783 -2.1407819 0.0471374 0.19998695 -0.8179082 -16.509092
-0.39771894 1.9727772 -14.407099 2.9102373 -6.8401227 0.8199705 2.0163422 -1.3973341
24.394278 25.66867 4.6245165 -6.8266 -4.6927032 -0.19141965 0.02297456 7.757125
-0.97489536 0.0818568 -0.1292658 0.06742067 -0.030316198 -14.020257 11.720646 -0.032101776
-9.570227 -0.04304918 0.17246506 -5.1018424 0.038123745 0.090378486 -0.26023376 0.81991124
0.43418032 -0.19710623 -1.3363678 0.3497378 -0.26276442 4.0787764 -0.5055692 0.2924746
0.36463025 -2.2731264 -0.4272939 1.3286808 -4.01917 -2.9453847 -6.631657 -5.08952
-0.13370508 -0.18442518 8.750335 -0.90022296 0.22769293 -0.22292878 0.040020764 0.12483038
-15.363419 13.78172 -0.3587153 -11.238819 -0.20011497 0.0020811097 -5.959618 -0.114672184
0.190024 -0.09697929 0.761479 0.63084745 -0.16982797 -1.4673052 0.09922843 -0.33398715
4.520672 -0.92794347 0.6004047 0.4152194 -2.0422719 -0.25224468 1.4653515 -4.869691
-3.2582867 -6.6529603 -1.6520506 -0.8134603 0.13197199 4.4451156 2.1001616 -0.061193816
-2.3918977 -0.07443755 0.025047608 14.222614 -9.630063 0.29798168 7.3872886 -0.050765123
-0.106145434 2.633511 0.13441843 -0.17751099 0.022489974 0.4967914 0.6222121 0.10822853
0.03336696 -0.22227822 0.29724714 -3.6144326 0.5023145 -0.34075418 -0.3679014 -0.17076463
-0.31458205 -0.12542234 3.9390197 2.5769677 -6.8758473 -0.9698914 -0.6681921 0.1560801
2.9682887 1.4307687 0.023711676 -1.6944355 0.018881049 0.19377163 10.760902 -6.651654
0.272186 4.5524263 -0.011560899 0.008268108 1.3884914 0.03827289 0.14583811 0.28755537
0.6039397 0.5082383 0.16345385 0.20804921 -0.25478953 0.35661632 -2.6165524 0.4101681
-0.067843996 -0.1628583 -0.36118186 0.002537467 -0.14218892 2.8032973 1.8390343 -7.2262535
-0.42072672 -0.716131 0.10620199 2.3423212 1.1770444 -0.0906251 -1.3176237 0.014255036
-0.07145547 7.938662 -4.762751 0.033045188 2.7930138 0.09477289 0.15040925 0.97383267
0.05186731 -0.14873578 0.16841091 0.62225753 0.3051646 0.35003206 0.3063403 -0.23725271
0.21712902 -1.6604717 0.13344547 0.07076533 -0.05137321 -0.66196483 -0.025349425 -0.17645562
2.013717 1.4738309 -2.9221988 -0.91747665 32.983406 0.10773611 20.323233 -42.125736
0.44008997 3.6816652 0.68631804 0.33652455 -34.0581 26.705404 -1.5620272 -55.914593
0.919667 0.088751785 -61.13158 1.1408861 0.69161457 2.581714 0.2826834 8.048771
-2.3977194 -21.37177 1.2486854 0.16298999 7.756279 -2.8307796 5.663816 3.2730095
-2.1215162 13.243387 -11.424293 -22.3111 -13.3848095 -5.438499 -1.4388095 -0.623603
-0.023812048 12.740643 3.921381 -0.0059683733 -3.5060787 -0.15833619 0.17732906 36.99549
00000000: 8a7c 3ac0 8296 21bf 3d4a 0a40 2e0a 683e
00000010: 8c12 8541 5e49 10be 2890 20bf ab75 eb41
00000020: 3143 25be 87bd 65bf 40e0 2242 887c 39c2
00000030: 859d fd3f b82e 8642 d4be 39bf b492 5fbe
00000040: 54f0 b6c1 fcd2 1bbf c49f 403f 9202 09c0
00000050: 2513 413d 61c9 4c3e 6f62 51bf 9f12 84c1
00000060: d1a1 cbbe f783 fc3f 7a83 66c1 5441 3a40
00000070: 49e2 dac0 96e9 513f c00b 0140 d8db b2bf
00000080: 7b27 c341 7059 cd41 0afc 9340 8273 dac0
00000090: a02a 96c0 8303 44be 2535 bc3c 5e3a f840
000000a0: be92 79bf 8aa4 a73d 415e 04be d913 8a3d
000000b0: ad59 f8bc f952 60c1 c487 3b41 277d 03bd
000000c0: a61f 19c1 5654 30bd ae9a 303e 4b42 a3c0
000000d0: a527 1c3d 5b18 b93d 5c3d 85be b4e5 513f
000000e0: e24c de3e 37d6 49be 1a0e abbf d510 b33e
000000f0: 0f89 86be 5685 8240 fc6c 01bf 3bbf 953e
00000100: d1b0 ba3e e77a 11c0 44c6 dabe 3612 aa3f
00000110: 0a9d 80c0 2f81 3cc0 8936 d4c0 59dd a2c0
00000120: fce9 08be f4d9 3cbe 5f01 0c41 0375 66bf
00000130: 5628 693e 7147 64be d0ec 233d 12a7 ff3d
00000140: 90d0 75c1 ed81 5c41 88a9 b7be 34d2 33c1
00000150: f0ea 4cbe 3a63 083b 31b5 bec0 40d9 eabd
00000160: a795 423e 149d c6bd 4af0 423f 387f 213f
00000170: 62e7 2dbe a8d0 bbbf 4638 cb3d 5d00 abbe
00000180: 58a9 9040 b48d 6dbf 1fb4 193f a397 d43e
00000190: 95b4 02c0 3726 81be a390 bb3f 82d4 9bc0
000001a0: c587 50c0 0de5 d4c0 6576 d3bf ef3e 50bf
000001b0: aa23 073e 633e 8e40 0c69 0640 5ea6 7abd
000001c0: da14 19c0 b772 98bd a430 cd3c d48f 6341
000001d0: bd14 1ac1 0e91 983e ab64 ec40 17ef 4fbd
000001e0: c762 d9bd 728b 2840 fca4 093e 71c5 35be
000001f0: e53c b83c 715b fe3e 4b49 1f3f eba6 dd3d
00000200: cbab 083d e79c 63be c730 983e dd52 67c0
00000210: af97 003f 5577 aebe 935d bcbe ecdc 2ebe
00000220: e610 a1be b76e 00be e618 7c40 0aed 2440
00000230: f106 dcc0 ce4a 78bf a30e 2bbf 76d3 1f3e
00000240: 71f8 3d40 6e23 b73f fd3e c23c 43e3 d8bf
00000250: 6eac 9a3c 126c 463e a82c 2c41 59da d4c0
00000260: f75b 8b3e 7aad 9140 ed69 3dbc f576 073c
00000270: 16ba b13f 09c4 1c3d 9656 153e 753a 933e
00000280: cb9b 1a3f e81b 023f 7260 273e da0a 553e
00000290: c673 82be 6a96 b63e 9875 27c0 8e01 d23e
000002a0: cbf1 8abd 54c4 26be d4ec b8be a24b 263b
000002b0: f999 11be 3969 3340 7a65 eb3f 783d e7c0
000002c0: 7e69 d7be 5c54 37bf 6e80 d93d 97e8 1540
000002d0: 64a9 963f a799 b9bd e5a7 a8bf f48d 693c
000002e0: 3f57 92bd 8509 fe40 7568 98c0 645a 073d
000002f0: bdc0 3240 4a18 c23d e204 1a3e 194d 793f
00000300: d172 543d 314e 18be e973 2c3e 454c 1f3f
00000310: 893e 9c3e 6737 b33e a3d8 9c3e 60f2 72be
00000320: 1257 5e3e 568a d4bf eea5 083e 6aed 903d
00000330: b76c 52bd 8776 29bf 99a9 cfbc c8b0 34be
00000340: bde0 0040 7ea6 bc3f 4e05 3bc0 c0df 6abf
00000350: 02ef 0342 c0a4 dc3d fb95 a241 c180 28c2
00000360: 7953 e13e 67a0 6b40 8ab2 2f3f f24c ac3e
00000370: 7f3b 08c2 aba4 d541 82f0 c7bf 8ba8 5fc2
00000380: 4c6f 6b3f 7fc3 b53d bd86 74c2 8e08 923f
00000390: a70d 313f cd3a 2540 e1bb 903e c4c7 0041
000003a0: 3c74 19c0 63f9 aac1 ecd4 9f3f d9e6 263e
000003b0: 7033 f840 7e2b 35c0 fb3d b540 fd78 5140
000003c0: ecc6 07c0 eae4 5341 e7c9 36c1 227d b2c1
000003d0: 2e28 56c1 2f08 aec0 e92a b8bf 72a4 1fbf
000003e0: 7c11 c3bc acd9 4b41 e8f7 7a40 5892 c3bb
000003f0: 9863 60c0 e222 22be c095 353e 62fb 1342

fc1.bias f4 [35]
-3.001901 -6.6824503 -6.7349434 -6.8885174 -7.0188394 -6.981864 -2.908263 -5.2297077
-6.595525 -2.7646844 -7.2056856 -6.163101 -6.6393986 -2.8154602 -6.1266437 -3.1866453
-4.41604 -6.8210773 -6.0910063 -5.0720344 -4.848236 -6.792315 -3.8167381 -7.217605
-6.0511155 -7.3017855 -6.155857 -2.76126 -7.1497345 -7.0829477 -6.571514 -2.826734
-3.3293753 -7.1810102 -3.467686
00000000: 251f 40c0 a2d6 d5c0 a884 d7c0 bc6e dcc0
00000010: 559a e0c0 6e6b dfc0 fb20 3ac0 c459 a7c0
00000020: 8a0e d3c0 97f0 30c0 fa94 e6c0 2038 c5c0
00000030: f475 d4c0 8030 34c0 770d c4c0 fff1 4bc0
00000040: 3350 8dc0 4446 dac0 86e9 c2c0 1b4e a2c0
00000050: c024 9bc0 a55a d9c0 7045 74c0 9ff6 e6c0
00000060: bda2 c1c0 3aa8 e9c0 c8fc c4c0 7cb8 30c0
00000070: a0ca e4c0 82a7 e2c0 d849 d2c0 36e9 34c0
00000080: 7c14 55c0 d6ca e5c0 91ee 5dc0

output.weight f4 [1, 35]
-2.5430777 1.1183492 1.1843863 -1.1291401 -0.91688925 -0.6900767 2.6411915 -1.7004176
1.2608395 -2.6631353 0.39808065 -1.5262249 1.2978616 2.6901193 -1.5410066 -2.3830013
-1.9268183 -1.1840743 -1.5029819 -1.7261692 -1.76101 1.0641041 2.0910592 0.16847531
1.4813672 -0.27157333 1.495044 2.789064 0.5574167 0.7386748 1.2134758 -2.6581867
2.4166515 0.6201744 -2.3124862
00000000: c9c1 22c0 1126 8f3f f899 973f aa87 90bf
00000010: 41b9 6abf dea8 30bf 4809 2940 49a7 d9bf
00000020: 3063 a13f cf70 2ac0 3ad1 cb3e 565b c3bf
00000030: 5420 a63f ea2a 2c40 b43f c5bf 1883 18c0
00000040: fba1 f6bf bf8f 97bf b661 c0bf 1df3 dcbf
00000050: c768 e1bf 9034 883f ead3 0540 cb84 2c3e
00000060: 719d bd3f a90b 8bbe 9a5d bf3f 0680 3240
00000070: dcb2 0e3f cb19 3d3f 2d53 9b3f bb1f 2ac0
00000080: 6baa 1a40 c0c3 1e3f c6ff 13c0
