training_nn/model/Theta_net_ep1.pth (torch, 6844 bytes, 3 tensors)

fc1.weight f4 [35, 35]
-2.890743 -0.76924336 0.764815 0.26619115 16.216105 0.6596662 -0.59728706 18.786655
-0.17955789 -0.51736 42.59505 -45.80825 1.7617561 66.079796 -0.5289734 -0.5286209
-12.580112 -0.59065557 0.6269046 -1.6996518 -0.010968731 0.5144254 -0.3155626 -12.822804
-0.5122471 2.161404 -14.23744 2.8631387 -6.4347944 0.5943502 2.3146656 -3.4450636
20.487772 26.28042 5.7680807 -6.8711634 -4.7061143 -0.1931672 0.022963557 7.745468
-0.9733044 0.08185031 -0.12889522 0.06741241 -0.030331519 -14.000783 11.720833 -0.032106813
-9.570024 -0.043054447 0.17245972 -5.101432 0.03811294 0.09036798 -0.26025078 0.8409752
0.43304974 -0.19710106 -1.3345988 0.3497343 -0.26277116 4.079883 -0.50557053 0.29247224
0.36463034 -2.2799315 -0.42739043 1.3294082 -4.019213 -2.9471817 -6.6826653 -5.1032295
-0.13591227 -0.18443136 8.736244 -0.898127 0.22768596 -0.22258852 0.040005006 0.12481782
-15.343168 13.781966 -0.35872188 -11.238558 -0.20012207 0.002153989 -5.959013 -0.11468524
0.19001101 -0.09700788 0.78718233 0.62949073 -0.16981524 -1.4652766 0.09922573 -0.33399925
4.5221243 -0.9279451 0.6004011 0.4152163 -2.0497882 -0.2523563 1.466341 -4.8697963
-3.2604978 -6.740645 -1.6462353 -0.8131502 0.1319753 4.472715 2.0998998 -0.06118676
-2.3928127 -0.074428976 0.025093444 14.190274 -9.6301 0.29798263 7.387254 -0.050765198
-0.10614605 2.633651 0.13442075 -0.17750865 0.022528505 0.46743825 0.6227678 0.10825808
0.033400483 -0.22226991 0.29725295 -3.6147692 0.5023145 -0.34075618 -0.36790413 -0.158907
-0.31482664 -0.12630425 3.9390886 2.5776403 -6.9338884 -0.9641649 -0.668107 0.15608166
2.9842417 1.430582 0.023715643 -1.6950682 0.018887706 0.193777 10.740809 -6.6516824
0.27218658 4.552397 -0.011559972 0.008250772 1.3885715 0.03827467 0.1458397 0.28755793
0.5877517 0.508616 0.1634672 0.2078829 -0.25478688 0.3566185 -2.6168222 0.41016826
-0.067837305 -0.16286024 -0.35345274 0.0024007917 -0.14270169 2.8033147 1.8392425 -7.2509103
-0.41639328 -0.7161617 0.106203 2.350827 1.1769722 -0.0906237 -1.3177897 0.014259213
-0.07145228 7.9259915 -4.762768 0.033045635 2.7929938 0.094773404 0.1504097 0.97386134
0.0518684 -0.14873484 0.1684127 0.6134678 0.30538052 0.3500348 0.30615976 -0.2372511
0.21713035 -1.6606262 0.1334456 0.07076519 -0.0513712 -0.6575231 -0.025409058 -0.17673591
2.013719 1.4738874 -2.9165854 -1.0834987 22.273811 0.028721105 20.97069 -30.531456
0.52017975 -0.47018576 0.50024015 0.41514716 -37.00543 29.761051 -1.3769406 -56.163937
0.63686913 0.36796916 -49.41671 0.9477272 0.5863362 2.0112038 0.28164214 6.279593
-1.9506967 -19.361326 1.1484159 -0.006728032 10.750576 -2.7802548 5.271267 2.6513476
-2.0746355 12.149934 -7.6030836 -22.857824 -13.402145 -5.215008 -1.5430816 -0.6287891
-0.023442078 13.115352 3.9206336 -0.005753686 -3.6252642 -0.15831412 0.18005437 37.20334
00000000: ef01 39c0 22ed 44bf eaca 433f 354a 883e
00000010: 95ba 8141 e2df 283f cee7 18bf 124b 9641
00000020: 06de 37be b471 04bf 5561 2a42 a63b 37c2
00000030: 3981 e13f db28 8442 cd6a 07bf b353 07bf
00000040: 2448 49c1 3435 17bf d27c 203f 318e d9bf
00000050: 31b6 33bc 62b1 033f 6c91 a1be 352a 4dc1
00000060: a022 03bf 7154 0a40 8ecc 63c1 aa3d 3740
00000070: d6e9 cdc0 5627 183f 7b23 1440 ec7b 5cc0
00000080: f5e6 a341 4d3e d241 1e94 b840 92e0 dbc0
00000090: 7d98 96c0 9fcd 45be 121e bc3c e0da f740
000000a0: 7a2a 79bf 23a1 a73d 1cfd 03be 850f 8a3d
000000b0: ce79 f8bc 3503 60c1 8888 3b41 6f82 03bd
000000c0: d11e 19c1 dc59 30bd 4899 303e ee3e a3c0
000000d0: 501c 1c3d d912 b93d 973f 85be 274a 573f
000000e0: b2b8 dd3e dcd4 49be 22d4 aabf 6010 b33e
000000f0: f189 86be 678e 8240 126d 01bf ecbe 953e
00000100: d4b0 ba3e 66ea 11c0 ebd2 dabe 0c2a aa3f
00000110: 659d 80c0 a09e 3cc0 65d8 d5c0 a84d a3c0
00000120: 962c 0bbe 93db 3cbe a8c7 0b41 a7eb 65bf
00000130: 8226 693e 3fee 63be 4adc 233d 7ca0 ff3d
00000140: 9e7d 75c1 ef82 5c41 65aa b7be 22d1 33c1
00000150: cdec 4cbe f029 0d3b 3cb0 bec0 18e0 eabd
00000160: 3f92 423e 11ac c6bd c884 493f 4e26 213f
00000170: 0ce4 2dbe 2f8e bbbf dc36 cb3d f301 abbe
00000180: 3eb5 9040 cf8d 6dbf e3b3 193f 3b97 d43e
00000190: bb2f 03c0 d834 81be 10b1 bb3f 5fd5 9bc0
000001a0: ffab 50c0 5db3 d7c0 d7b7 d2bf 9d2a 50bf
000001b0: 8824 073e 7b20 8f40 c264 0640 f89e 7abd
000001c0: d823 19c0 386e 98bd c490 cd3c 5d0b 6341
000001d0: e414 1ac1 2e91 983e 6364 ec40 2bef 4fbd
000001e0: 1a63 d9bd bd8d 2840 98a5 093e d4c4 35be
000001f0: b38d b83c 1154 ef3e b66d 1f3f 6ab6 dd3d
00000200: f2ce 083d b99a 63be 8a31 983e 6158 67c0
00000210: af97 003f 9877 aebe ee5d bcbe 84b8 22be
00000220: f530 a1be e755 01be 071a 7c40 0ff8 2440
00000230: 6ae2 ddc0 83d3 76bf 0f09 2bbf dfd3 1f3e
00000240: d1fd 3e40 501d b73f 4f47 c23c fff7 d8bf
00000250: 64ba 9a3c 7a6d 463e 5bda 2b41 95da d4c0
00000260: 0a5c 8b3e 3cad 9140 0966 3dbc 3f2e 073c
00000270: b6bc b13f e6c5 1c3d 0157 153e cb3a 933e
00000280: e576 163f a834 023f f263 273e 41df 543e
00000290: 6d73 82be b396 b63e 047a 27c0 9301 d23e
000002a0: 49ee 8abd d6c4 26be c2f7 b4be 9a56 1d3b
000002b0: 6420 12be 8269 3340 4c6c eb3f 7507 e8c0
000002c0: 8031 d5be 6056 37bf f580 d93d f373 1640
000002d0: 06a7 963f eb98 b9bd 55ad a8bf 799f 693c
000002e0: 9355 92bd b9a1 fd40 9868 98c0 dc5a 073d
000002f0: 69c0 3240 8f18 c23d 0005 1a3e fa4e 793f
00000300: f673 543d f24d 18be 6174 2c3e 3a0c 1d3f
00000310: d65a 9c3e c337 b33e f9c0 9c3e f4f1 72be
00000320: 6b57 5e3e 668f d4bf f7a5 083e 57ed 903d
00000330: 9b6a 52bd 6f53 28bf a826 d0bc 42fa 34be
00000340: c6e0 0040 58a8 bc3f 56a9 3ac0 16b0 8abf
00000350: c430 b241 8648 eb3c f9c3 a741 6c40 f4c1
00000360: 802a 053f 30bc f0be bd0f 003f 2b8e d43e
00000370: 8f05 14c2 a216 ee41 973f b0bf dfa7 60c2
00000380: db09 233f 7466 bc3e b6aa 45c2 409e 723f
00000390: 211a 163f 90b7 0040 6633 903e 6df2 c840
000003a0: 6eb0 f9bf ffe3 9ac1 4bff 923f d376 dcbb
000003b0: 5c02 2c41 b2ef 31c0 38ae a840 aeaf 2940
000003c0: d4c6 04c0 2166 4241 764c f3c0 d3dc b6c1
000003d0: 306f 56c1 58e1 a6c0 b383 c5bf 53f8 20bf
000003e0: 9a09 c0bc 7bd8 5141 a9eb 7a40 6b89 bcbb
000003f0: 5404 68c0 191d 22be 2c60 383e 38d0 1442

fc1.bias f4 [35]
-2.9787927 -6.7270136 -6.7859516 -6.976202 -7.0768805 -7.0065207 -2.9026496 -5.0062165
-6.6518846 -2.7922955 -7.195222 -6.1554413 -6.6961756 -2.8383088 -6.1257124 -3.105528
-4.1319995 -6.9175215 -6.1366677 -4.8082185 -4.559804 -6.8332644 -3.5313466 -7.1993375
-6.0091186 -7.2900534 -6.1178365 -2.8485682 -7.1495576 -7.095725 -6.625215 -2.8609037
-3.2238865 -7.184679 -3.3169622
00000000: 8aa4 3ec0 b243 d7c0 8426 d9c0 0c3d dfc0
00000010: ce75 e2c0 6b35 e0c0 03c5 39c0 ed32 a0c0
00000020: 3ddc d4c0 f8b4 32c0 423f e6c0 60f9 c4c0
00000030: 1247 d6c0 daa6 35c0 d605 c4c0 f9c0 46c0
00000040: 5739 84c0 565c ddc0 955f c4c0 eddc 99c0
00000050: eae9 91c0 1aaa dac0 9501 62c0 f960 e6c0
00000060: b34a c0c0 1e48 e9c0 51c5 c3c0 f14e 36c0
00000070: 2dc9 e4c0 2e10 e3c0 c301 d4c0 0c19 37c0
00000080: 2854 4ec0 e4e8 e5c0 1c49 54c0

output.weight f4 [1, 35]
-2.3744173 1.0000689 1.053081 -0.9717055 -0.79323393 -0.60286045 2.4619024 -1.6525114
1.1148412 -2.4549565 0.36593878 -1.3324553 1.1435238 2.4891 -1.3430641 -2.257112
-1.9591744 -1.0154338 -1.2911485 -1.7155488 -1.7772737 0.9536513 2.145825 0.15872464
1.335207 -0.2381696 1.3448312 2.5272367 0.5074332 0.6697429 1.0766368 -2.4437578
2.3161764 0.56384104 -2.25028
00000000: 74f6 17c0 4202 803f 5ccb 863f b1c1 78bf
00000010: 6111 4bbf 1055 1abf cf8f 1d40 7e85 d3bf
00000020: 1eb3 8e3f 021e 1dc0 545c bb3e e58d aabf
00000030: fd5e 923f 6a4d 1f40 86e9 abbf 8674 10c0
00000040: 3ac6 fabf bcf9 81bf 5b44 a5bf 1a97 dbbf
00000050: b47d e3bf 7e22 743f 3255 0940 b688 223e
00000060: 10e8 aa3f bbe2 73be 6e23 ac3f 3fbe 2140
00000070: 24e7 013f 4574 2b3f 3ccf 893f 8766 1cc0
00000080: 3c3c 1440 e357 103f 9604 10c0
