training_nn/model/Theta_net_ep9.pth (torch, 25366 bytes, 7 tensors)

fc1.weight f4 [70, 35]
0	0xc0a37784	-5.1083393
1	0x401a4ddb	2.411002
2	0xbd500f81	-0.050796036
3	0xbd953f01	-0.07287408
4	0xbfcdd5a0	-1.6080818
5	0xbd3dc071	-0.046326105
6	0x3d3e8524	0.04651369
7	0xbe2f4880	-0.171175
8	0xbe095d3d	-0.13414474
9	0x3d81250a	0.06305893
10	0x41668ba7	14.409095
11	0xbe541355	-0.207105
12	0x3e16192b	0.14658038
13	0x3da77a5a	0.081776336
14	0x3dc3b6d1	0.09556354
15	0x3db06170	0.08612335
16	0xbd680e60	-0.056654334
17	0x3ba33c55	0.0049815574
18	0xbd227ba6	-0.0396687
19	0x3d828cf9	0.06374545
20	0x3f8cd54e	1.1002595
21	0xbded54b4	-0.115884215
22	0xbda6889c	-0.08131525
23	0x3e095df0	0.1341474
24	0xbd916617	-0.0709955
25	0x3da968c4	0.082719356
26	0xbfb3bf02	-1.4042666
27	0x3e147473	0.14497547
28	0xbdee9ff4	-0.116516024
29	0xbdf9c687	-0.12196069
30	0xbf140a69	-0.57828385
31	0xbd8a7afc	-0.06761739
32	0xbd2839e1	-0.041070823
33	0x3e2031fa	0.15644065
34	0x3f88b45b	1.068004
35	0xc0a20332	-5.06289
36	0x40b960c9	5.7930646
37	0xbea86470	-0.32889128
38	0xbde834cd	-0.11338196
39	0xc07b83ff	-3.9299314
40	0x3df0b62c	0.117534965
41	0x3c3ae34e	0.011406733
42	0x3d045d5d	0.0323156
43	0x3b943c5d	0.0045237974
44	0x3c8bf34f	0.017083792
45	0x418f30f2	17.8989
46	0xbf6509c6	-0.8946804
47	0xbd9fcabc	-0.078023404
48	0x3f220702	0.63291943
49	0x3c97e201	0.018540384
50	0x3d9b2bc5	0.07576708
51	0x3ee36621	0.44413856
52	0xbdaaea5b	-0.08345481
53	0xbdd11f8b	-0.102110945
54	0xbb213a83	-0.0024601526
55	0x3fbe2027	1.4853562
56	0xbe5bd088	-0.21466267
57	0x3d1bf81d	0.038078416
58	0x3e0d3c94	0.1379264
59	0xbdeb1b8c	-0.114798635
60	0x3bb4d10d	0.005518085
61	0xc0165d6c	-2.349452
62	0xbd025100	-0.03181553
63	0xbe1883f6	-0.14894089
64	0xbdce9818	-0.10087603
65	0xbf35fd5d	-0.71089727
66	0x3e30ab49	0.1725284
67	0xbeb4d9e0	-0.35322475
68	0x3f458116	0.77150095
69	0x40199d33	2.4002197
70	0xc06990b3	-3.6494567
71	0xc15b70bb	-13.715022
72	0xbd3e68df	-0.04648673
73	0x3e3f36dd	0.18673272
74	0x416a602f	14.648482
75	0x40272e11	2.6121867
76	0xbdef7de7	-0.11693936
77	0xc09a949a	-4.83064
78	0xbe0b1723	-0.13583045
79	0x3dc2d8d3	0.09514012
80	0x4253f3ba	52.988014
81	0xc17c427f	-15.766234
82	0x3e4b220e	0.1983721
83	0x4160706e	14.027449
84	0x3e30064f	0.17189907
85	0xbdcd65ac	-0.10029158
86	0x40bca435	5.895045
87	0x3de0ef25	0.10983113
88	0xbdb1989b	-0.08671685
89	0x3dee81f0	0.11645877
90	0x3e8b5951	0.2721658
91	0xbe0a80fb	-0.13525765
92	0x3e19ea7d	0.15030856
93	0xbfffd721	-1.9987527
94	0x3d46d4f6	0.04854294
95	0x3ee2633d	0.44216338
96	0xc130cfae	-11.050703
97	0x3e7becf8	0.24602115
98	0xbe8f1378	-0.2794454
99	0xbdc749b1	-0.097308524
100	0x403a1c42	2.9079747
101	0x3eba1a0e	0.36348003
102	0x4008aecd	2.135669
103	0x40d0f8ed	6.5303864
104	0x41011337	8.067191
105	0xc09aec25	-4.841326
106	0x40867a22	4.202409
107	0xbea2fb4e	-0.31832355
108	0xbd1ffaef	-0.03905767
109	0xbfe8d736	-1.8190677
110	0x3f1bc946	0.60853994
111	0xbde7b95d	-0.11314652
112	0xbebbbc53	-0.36667117
113	0x3de3e8fb	0.11128422
114	0xbe15622f	-0.14588235
115	0x41badd56	23.358074
116	0xc0481880	-3.1264954
117	0x3df9488d	0.12172041
118	0x40082a89	2.1275961
119	0xbcbab70b	-0.02279236
120	0x3dffed2b	0.12496408
121	0x3fd42788	1.6574564
122	0x3de94626	0.11390333
123	0x3d47f2f2	0.048815675
124	0xbd6bf4a4	-0.057606354
125	0x3fa6c258	1.3028059
126	0xbda0fa9f	-0.07860302
127	0xbdce29bd	-0.10066555
128	0x3d9c77db	0.07640048
129	0xbe01a3bc	-0.12660116
130	0x3e5479f1	0.20749642
131	0xc08fdfba	-4.4960604
132	0x3dae1cc4	0.0850158
133	0xbcd22bd7	-0.02565567
134	0x3e0627df	0.13101147
135	0x3eb1aeba	0.34703618
136	0x3e42767d	0.18990512
137	0xbeac77ee	-0.3368525
138	0x3fc03be6	1.501828
139	0x4074f4a6	3.8274322
140	0xc0a5b2c3	-5.1780715
141	0x3f4c4dac	0.7980602
142	0xbe144aeb	-0.14481704
143	0x3c1e0e46	0.009646958
144	0x3ec17cce	0.3779053
145	0x3ced5c0d	0.028974557
146	0xbd589b67	-0.05288258
147	0xbe13c1c9	-0.14429392
148	0xbd27a332	-0.04092712
149	0x3d593deb	0.053037565
150	0x3f9915b1	1.1959745
151	0x3e5712c7	0.21003257
152	0xbe113d84	-0.14183623
153	0xbd74fc6c	-0.05981104
154	0xbdc336a9	-0.0953191
155	0xbdf174db	-0.117898665
156	0xbea18933	-0.31549987
157	0xbd99c9e3	-0.0750921
158	0xbaa238ef	-0.0012376587
159	0xbe231947	-0.15927611
160	0x3fbbcf84	1.4672704
161	0x3dcc2354	0.09967676
162	0x3dd39b78	0.10332388
163	0xbd334c5b	-0.04377399
164	0xbd3643d9	-0.0444983
165	0x3df94296	0.121709034
166	0x3e9e171f	0.30877015
167	0xbd883202	-0.06650163
168	0x3dbb9b23	0.09160449
169	0xbdce57d8	-0.100753486
170	0xc02e3d70	-2.7224998
171	0x3da4fd76	0.08056156
172	0x3e933b6f	0.28756282
173	0xbe17f15d	-0.14838167
174	0x3e9342ed	0.28761998
175	0xbfef5d31	-1.8700315
176	0xc190d2d6	-18.102947
177	0x3ffc9ae8	1.9734774
178	0x3e7f3ede	0.24926326
179	0x419ba6ba	19.45641
180	0x40449942	3.071854
181	0x3da64388	0.08118349
182	0xbf9e5e73	-1.2372574
183	0x3d8e15a8	0.06937724
184	0x3cbcb090	0.02303341
185	0x428565ff	66.69921
186	0xc1d83608	-27.026382
187	0x3e07edf0	0.1327436
188	0x41c65878	24.793198
189	0x3e05739b	0.13032381
190	0xbe34ab1d	-0.176434
191	0x41133f4a	9.202951
192	0x3bff1374	0.0077843014
193	0x3e21b114	0.15790206
194	0x3defbe26	0.1170619
195	0x3de93666	0.11387329
196	0xc0e9a69b	-7.3015876
197	0xbe09f169	-0.13470997
198	0xc0f94803	-7.7900405
199	0xbbef5115	-0.007303367
200	0x3f56f537	0.8396792
201	0xc169fff7	-14.624991
202	0x3e58d5aa	0.21175256
203	0xbf67204c	-0.90283656
204	0xbe05fb9c	-0.13084263
205	0x405e717c	3.4756765
206	0x408a9745	4.3309655
207	0x41426d66	12.151709
208	0x4120a7fd	10.041013
209	0x4106ea5d	8.432218
210	0xc028b172	-2.6358304
211	0xc191e91c	-18.238823
212	0x3f52f977	0.82411903
213	0x3de07858	0.10960454
214	0x418f95b3	17.948095
215	0x404712c8	3.1105213
216	0xbe1ddd06	-0.15416345
217	0xc084791f	-4.1397853
218	0xbd630397	-0.055423345
219	0xbccad1f3	-0.024758315
220	0x4279bf9e	62.437126
221	0xc1a167fd	-20.175776
222	0x3e42f473	0.19038562
223	0x419386c5	18.440805
224	0x3de02054	0.10943666
225	0xbd51e548	-0.05124405
226	0x40e263a3	7.0746627
227	0xbe6dc232	-0.23218611
228	0xbd2ac630	-0.041692913
229	0xbd03f905	-0.032219905
230	0x3eea9dd9	0.45823553
231	0xc030cb6e	-2.7624164
232	0x3e19b162	0.15009072
233	0xc0976b10	-4.731819
234	0x3db643fe	0.08899687
235	0x3f32d7df	0.69860643
236	0xc1483d42	-12.5149555
237	0x3eb22ccf	0.3479981
238	0xbf0858dd	-0.53260595
239	0xbe654751	-0.22390486
240	0x4033f9b7	2.8121164
241	0x3fc5716b	1.5425237
242	0x40c23fcc	6.0702877
243	0x4102d850	8.177811
244	0x410af6ad	8.685224
245	0xbf99bdf1	-1.201109
246	0xc196cfc8	-18.851456
247	0x417b7e4e	15.718336
248	0x3c80ab67	0.015706731
249	0x41a6e42f	20.861418
250	0xc187444f	-16.908354
251	0x3ecc0299	0.39845732
252	0xc1166bd6	-9.401327
253	0xbe25e6ee	-0.16201374
254	0x3ed1b7f3	0.40960655
255	0xc25eebf6	-55.73043

fc1.bias f4 [70]
0	0xc09df8a5	-4.936602
1	0xc097d68d	-4.7449403
2	0xc06e3a48	-3.7223072
3	0xc096870a	-4.7039843
4	0xc0a0e771	-5.028252
5	0xbfff02ff	-1.9922789
6	0xc01e6131	-2.474682
7	0xbf86130c	-1.0474563
8	0xc0a6012f	-5.1876445
9	0xbfd34dc6	-1.650811
10	0xc09273a5	-4.576617
11	0xc09ed638	-4.9636497
12	0xc093172b	-4.596578
13	0xc0a0a7dd	-5.020491
14	0xc0a98c3c	-5.2983685
15	0xc0a0aef4	-5.0213566
16	0xc098768a	-4.76447
17	0xc095df1f	-4.6834865
18	0xc0928bb8	-4.5795555
19	0xc0a40523	-5.125627
20	0xbffdb1e7	-1.9819916
21	0xc08dec3b	-4.4350867
22	0xc02580d6	-2.5859885
23	0xc0a2676e	-5.0751257
24	0xbfd03b5c	-1.6268115
25	0xbfdbbc4b	-1.7166837
26	0xbfe3c117	-1.7793301
27	0xc09d47c7	-4.915012
28	0xc0a1da65	-5.0579095
29	0xc09a3881	-4.8193974
30	0xc0a7357b	-5.2252784
31	0xc098daed	-4.7767243
32	0xc0a32ac8	-5.0989723
33	0xc0a6e8e6	-5.21593
34	0xc0a557ad	-5.1669526
35	0xbfbb136b	-1.4615301
36	0xbf8ac445	-1.0841147
37	0xc08e864e	-4.4538946
38	0xc0a1cfba	-5.0566072
39	0xc098a236	-4.769801
40	0xc0a56d9a	-5.169629
41	0xc094dd99	-4.6520505
42	0xc0a038dd	-5.0069413
43	0xbfe94b9b	-1.8226198
44	0xc0a44f72	-5.134698
45	0xc0825845	-4.073275
46	0xc0a38555	-5.110026
47	0xc0a082e7	-5.0159793
48	0xbfea6980	-1.8313446
49	0xc0a1d2d0	-5.056984
50	0xc09f8f41	-4.986237
51	0xc08c398b	-4.3820243
52	0xc0a0d460	-5.0259247
53	0xc0a78375	-5.234797
54	0xc0a521ed	-5.1603913
55	0xc0a4c659	-5.1492124
56	0xc09a0a10	-4.8137283
57	0xbfdafb50	-1.7107944
58	0xc0a5352d	-5.162741
59	0xc0a7e932	-5.247216
60	0xc0a07287	-5.0139804
61	0xc0947ad5	-4.639994
62	0xc0a3776e	-5.108329
63	0xc08dd134	-4.4317875
64	0xbfdc9c9b	-1.7235292
65	0xc0a30744	-5.094637
66	0xc0a6ffc1	-5.21872
67	0xc092e3e3	-4.590318
68	0xc09bfd7e	-4.874694
69	0xc0865e75	-4.1990304

fc2.weight f4 [35, 70]
0	0xbf12cceb	-0.5734393
1	0xbf2a1067	-0.6643128
2	0xc02af858	-2.6714077
3	0xbf4dce54	-0.80392957
4	0xbf2e0d69	-0.6798921
5	0xc05069ef	-3.2564657
6	0xc0483648	-3.128313
7	0xc083cdc7	-4.1188693
8	0xbed4496d	-0.4146227
9	0xc071687a	-3.7720017
10	0xbfb50df9	-1.4144889
11	0xbf2c99f4	-0.67422414
12	0xbff00b18	-1.8753386
13	0xbf4a45c7	-0.7901272
14	0xbf1b1698	-0.6058135
15	0xbf01c2c7	-0.5068783
16	0xbf88318c	-1.064012
17	0xbf8021b9	-1.0010291
18	0xbf489b11	-0.7836161
19	0xbeb59bae	-0.35470337
20	0xc052a16b	-3.2911022
21	0xc0014534	-2.0198488
22	0xc03a2ff8	-2.9091778
23	0xbed02afe	-0.406578
24	0xc066377b	-3.5971363
25	0xc053f04c	-3.3115416
26	0xc064cd16	-3.5750175
27	0xbf1ff2ea	-0.6248003
28	0xbf3989ea	-0.72476065
29	0xbf7e74fb	-0.9939725
30	0xbec37bb6	-0.3818032
31	0xbf267d48	-0.65034914
32	0xbef0761b	-0.46965107
33	0xbed6d67d	-0.41960517
34	0xbeb21259	-0.34779623
35	0xc025b3c6	-2.5890975
36	0xc094f0c2	-4.6543894
37	0xbfe9ca82	-1.8264925
38	0xbf37f3a6	-0.71856153
39	0xbf0b4211	-0.54397684
40	0xbedc9928	-0.430856
41	0xbf69df7b	-0.9135663
42	0xbf2ccffe	-0.6750487
43	0xc05bf1d1	-3.4366343
44	0xbe9e78cb	-0.30951533
45	0xc01b5251	-2.4268992
46	0xbea491e5	-0.3214256
47	0xbf3edb1a	-0.7455307
48	0xc061e9ad	-3.5298874
49	0xbec25d3f	-0.37961766
50	0xbea7214d	-0.32642594
51	0xc008aeb1	-2.1356623
52	0xbf34ff2f	-0.7070188
53	0xbe9e34e8	-0.3089974
54	0xbe9d3789	-0.30706432
55	0xbf36db3b	-0.7142827
56	0xbf0b954e	-0.54524696
57	0xc0523778	-3.2846355
58	0xbf00531f	-0.5012683
59	0xbeaea97e	-0.34113687
60	0xbf166b50	-0.58757496
61	0xbf8be323	-1.0928692
62	0xbf309d96	-0.6899046
63	0xbffa8460	-1.9571648
64	0xc05f125b	-3.4854953
65	0xbed31264	-0.41224968
66	0xbedd815a	-0.4326275
67	0xbfe85e33	-1.8153747
68	0xbf0b2919	-0.54359585
69	0xc0143ea6	-2.3163238
70	0xbf3f7b70	-0.74797726
71	0xbf6d33a8	-0.92656946
72	0xc04a64f3	-3.1624115
73	0xbf7ca4fa	-0.98689234
74	0xbf4c1998	-0.7972655
75	0xc0932f2f	-4.5995097
76	0xc07b807e	-3.9297175
77	0xc05ff106	-3.499086
78	0xbee693fc	-0.45034778
79	0xc0a8bebd	-5.2732835
80	0xbfa59204	-1.2935185
81	0xbf6e695d	-0.9312952
82	0xbfe95527	-1.8229111
83	0xbf57028e	-0.83988273
84	0xbf1eaba5	-0.6198066
85	0xbeae004c	-0.33984601
86	0xbf829d45	-1.0204245
87	0xbf838278	-1.0274191
88	0xbf801221	-1.0005533
89	0xbea1f387	-0.3163111
90	0xc092d88e	-4.588935
91	0xc00431d3	-2.065541
92	0xc0698fb9	-3.6493971
93	0xbe8aec6d	-0.27133504
94	0xc0a2b24b	-5.0842643
95	0xc09263c9	-4.574681
96	0xc09bcb36	-4.868556
97	0xbf303d96	-0.6884397
98	0xbf28dfbc	-0.6596639
99	0xbf76eb72	-0.9645301
100	0xbee4e878	-0.4470861
101	0xbf57d02f	-0.8430204
102	0xbf23f606	-0.64047277
103	0xbec2e5c8	-0.38065934
104	0xbe9d3bf5	-0.30709806
105	0xc0199cc5	-2.4001935
106	0xc0818d3a	-4.0484896
107	0xc00dbaf0	-2.2145348
108	0xbf76013f	-0.9609565
109	0xbf75c3b8	-0.9600177
110	0xbf0bc70d	-0.546006
111	0xbf58dc56	-0.84711206
112	0xbf2aa7d1	-0.6666232
113	0xc098ad1e	-4.7711325
114	0xbebb987c	-0.36639774
115	0xc0340269	-2.812647
116	0xbecb49d4	-0.39704764
117	0xbf62d7ba	-0.8861042
118	0xc09aae2a	-4.8337603
119	0xbea89d93	-0.3293272
120	0xbe92ef65	-0.2869827
121	0xc00d58aa	-2.2085366
122	0xbf70da2c	-0.94082904
123	0xbee0492f	-0.43805835
124	0xbe946d32	-0.2898956
125	0xbf6f230e	-0.93412864
126	0xbf89a578	-1.0753622
127	0xc087f8db	-4.249128
128	0xbedaffb0	-0.427732
129	0xbea195f2	-0.31559712
130	0xbf1eef6f	-0.62084097
131	0xbf8c8a09	-1.0979625
132	0xbf383b12	-0.71965134
133	0xc0011ecb	-2.0175045
134	0xc09c24ff	-4.879516
135	0xbf1309fa	-0.574371
136	0xbee4eac1	-0.44710353
137	0xbfeccee6	-1.850064
138	0xbf887244	-1.0659871
139	0xc02f8f9c	-2.7431402
140	0xbf2ea9ad	-0.68227655
141	0xbf4663aa	-0.77495825
142	0xc023dc28	-2.5603123
143	0xbf3fa921	-0.74867445
144	0xbf427c4e	-0.75970924
145	0xc04b66eb	-3.1781566
146	0xc0317e3d	-2.77333
147	0xc0878b95	-4.235789
148	0xbf06628e	-0.5249413
149	0xc0514849	-3.270037
150	0xbf9d7fac	-1.2304587
151	0xbf367c89	-0.71283776
152	0xbfdb363a	-1.7125924
153	0xbf3a45a6	-0.72762525
154	0xbf1c276b	-0.6099765
155	0xbef9085f	-0.486392
156	0xbf64129a	-0.89090884
157	0xbf832fd9	-1.0248977
158	0xbf870ad9	-1.0550185
159	0xbe8767b4	-0.26446307
160	0xc0455613	-3.0833786
161	0xbfeab0d2	-1.8335211
162	0xc031843b	-2.7736957
163	0xbeaa8dad	-0.33311215
164	0xc052887c	-3.2895803
165	0xc04023da	-3.0021882
166	0xc056a05d	-3.3535378
167	0xbf256b7d	-0.6461714
168	0xbf4935ef	-0.7859792
169	0xbf943e7d	-1.158157
170	0xbedd21a8	-0.4318974
171	0xbf468e7b	-0.7756116
172	0xbf121d62	-0.57076085
173	0xbf017b72	-0.5057899
174	0xbe8e1646	-0.27751368
175	0xc02eaae7	-2.729181
176	0xc093101c	-4.5957165
177	0xbfef5ace	-1.8699586
178	0xbf44610c	-0.7671058
179	0xbf1d63bb	-0.614803
180	0xbecebeef	-0.40380046
181	0xbf89d2da	-1.0767472
182	0xbf0d4927	-0.55189747
183	0xc043d630	-3.059948
184	0xbec730bf	-0.38904378
185	0xc01ace82	-2.4188542
186	0xbea82728	-0.32842374
187	0xbf1772a4	-0.591593
188	0xc04c66eb	-3.1937816
189	0xbed29b82	-0.41134268
190	0xbe9818b9	-0.29706362
191	0xbff59084	-1.9184728
192	0xbf182181	-0.5942612
193	0xbeffd4cd	-0.49967042
194	0xbea57fcb	-0.3232406
195	0xbf194260	-0.59866905
196	0xbf127268	-0.5720582
197	0xc03cd1bc	-2.9503012
198	0xbecadd6d	-0.3962206
199	0xbeb20efa	-0.3477705
200	0xbf34bd0f	-0.7060098
201	0xbfa10b4e	-1.2581575
202	0xbf2d62b2	-0.6772872
203	0xbfe8860c	-1.8165908
204	0xc04af150	-3.1709785
205	0xbed402df	-0.4140844
206	0xbe84a6db	-0.2590855
207	0xbfe34c6c	-1.7757697
208	0xbf48565e	-0.78256786
209	0xc0161506	-2.3450332
210	0xbf17135a	-0.59013903
211	0xbf21bc50	-0.6317797
212	0xbfaecc1e	-1.3656042
213	0xbf1fa0c9	-0.62354714
214	0xbefcb49c	-0.49356544
215	0xbf876e99	-1.0580627
216	0xbfc65c1d	-1.5496861
217	0xc0f05fff	-7.5117183
218	0xbebaa00f	-0.3645024
219	0xbe3fb6b2	-0.18722036
220	0xbf4cc33b	-0.799854
221	0xbf0dc5a0	-0.55379677
222	0xbf8e9202	-1.1138308
223	0xbf26f78a	-0.65221465
224	0xbf046756	-0.5172018
225	0xbe9377b5	-0.28802267
226	0xbf19835f	-0.5996608
227	0xbf2cfd97	-0.6757445
228	0xbf32c64a	-0.69833815
229	0xbe794bdb	-0.24345343
230	0xbf672694	-0.9029324
231	0xbfa7fd74	-1.3124223
232	0xbfba9311	-1.4576131
233	0xbe813f5e	-0.25243658
234	0xbf1441b2	-0.57912743
235	0xbf79fe34	-0.9765351
236	0xbecbaeae	-0.39781708
237	0xbf0f36fb	-0.5594327
238	0xbf18a486	-0.5962604
239	0xbf293821	-0.6610127
240	0xbe6e235d	-0.23255678
241	0xbf1a28c1	-0.60218436
242	0xbf00f07b	-0.50366944
243	0xbea4beaa	-0.32176715
244	0xbe79c158	-0.24390161
245	0xc08e2b70	-4.4428024
246	0xc1024ac3	-8.143252
247	0xbf9a0a9e	-1.203449
248	0xbf1351ac	-0.57546496
249	0xbf103706	-0.5633396
250	0xbe9a6131	-0.30152276
251	0xbf324eae	-0.69651306
252	0xbf1264cd	-0.5718506
253	0xbf4e7127	-0.80641407
254	0xbe68d279	-0.22736539
255	0xbfc4feef	-1.53903

fc2.bias f4 [35]
0	0xc104c873	-8.298938
1	0xc1079144	-8.472965
2	0xc103c232	-8.234911
3	0xc0a1ec90	-5.0601273
4	0xc1074f33	-8.456836
5	0xc0801656	-4.0027266
6	0xc0a53015	-5.1621194
7	0xc104e18e	-8.305067
8	0xc094f152	-4.654458
9	0xbf89e427	-1.0772752
10	0xc106a780	-8.415894
11	0xc02b8d1e	-2.680488
12	0xc108b153	-8.543292
13	0xc107442a	-8.454142
14	0xc1064dfa	-8.394037
15	0xc036adc9	-2.854357
16	0xc01d0315	-2.453313
17	0xc0855061	-4.166062
18	0xc075d7b9	-3.8412917
19	0xc03e165f	-2.9701154
20	0xc04f858f	-3.2425268
21	0xc10929e4	-8.572727
22	0xc109680a	-8.5879
23	0xc08b6a2f	-4.356712
24	0xc101dd89	-8.116586
25	0xc0992b5e	-4.786544
26	0xc1092f03	-8.573977
27	0xc1084d0c	-8.51881
28	0xc0cffc23	-6.4995284
29	0xc0e85169	-7.259938
30	0xc106d9ce	-8.428175
31	0xc07ea20f	-3.9786413
32	0xc086a6db	-4.207868
33	0xc104c51a	-8.2981205
34	0xc106689b	-8.400538

fc3.weight f4 [17, 35]
0	0xc0c653c3	-6.197725
1	0xc0bd3df3	-5.913812
2	0xc0b1de8f	-5.558418
3	0xc089891a	-4.297986
4	0xc0ce5138	-6.4474144
5	0xc0bb1800	-5.8466797
6	0xc0341f52	-2.8144116
7	0xc0c2807f	-6.0781856
8	0xc0960afb	-4.6888404
9	0xc1087cbd	-8.530454
10	0xc0bdb734	-5.9286137
11	0xc0e57f84	-7.171816
12	0xc0b8aef1	-5.771355
13	0xc0d292ae	-6.580405
14	0xc0d7f696	-6.748851
15	0xc0e2e05c	-7.0898876
16	0xc0eb7273	-7.357721
17	0xc0acb360	-5.3968964
18	0xc0d74ac4	-6.7278767
19	0xc0dbd0b5	-6.869227
20	0xc0e2cc5b	-7.0874457
21	0xc0aa98ec	-5.331167
22	0xc0bc1597	-5.8776355
23	0xc09aac3f	-4.833526
24	0xc0c06258	-6.012005
25	0xc0631bd3	-3.5485733
26	0xc0ba7a6b	-5.8274436
27	0xc09a3600	-4.819092
28	0xc0d274c4	-6.5767536
29	0xc0ebbc0e	-7.366706
30	0xc0c48533	-6.1412597
31	0xc0ddbac2	-6.9290476
32	0xc09e3082	-4.9434214
33	0xc0b95c20	-5.7924957
34	0xc0d8d316	-6.7757673
35	0xc0c29bef	-6.081535
36	0xc0be8a76	-5.954402
37	0xc0b16ee1	-5.544785
38	0xc08601d5	-4.1877236
39	0xc0c86acd	-6.263037
40	0xc0ad3a5d	-5.4133744
41	0xc02e0808	-2.7192402
42	0xc0bda339	-5.9261746
43	0xc090f860	-4.530319
44	0xc104ace9	-8.292214
45	0xc0bac851	-5.8369527
46	0xc0e0f0db	-7.0294013
47	0xc0b42197	-5.6291003
48	0xc0cc5d01	-6.386353
49	0xc0ddd516	-6.9322615
50	0xc0df3dcb	-6.976293
51	0xc0e2f004	-7.091799
52	0xc0a5c718	-5.1805534
53	0xc0d0f0d0	-6.529396
54	0xc0d41ca5	-6.6284966
55	0xc0d3a43e	-6.613799
56	0xc0aad5bd	-5.338591
57	0xc0b414af	-5.627525
58	0xc09b1012	-4.8457117
59	0xc0b9070f	-5.7821116
60	0xc053f15d	-3.3116066
61	0xc0b1018e	-5.53144
62	0xc090c67e	-4.52423
63	0xc0d3115f	-6.5958705
64	0xc0e6da10	-7.214119
65	0xc0c2b883	-6.0850234
66	0xc0d5cdd8	-6.6813774
67	0xc093564d	-4.604285
68	0xc0b2e62b	-5.5905967
69	0xc0d6874d	-6.704016
70	0xc062b37d	-3.542205
71	0xc065f55d	-3.5931008
72	0xc04790cc	-3.1182127
73	0xc02760ef	-2.6152914
74	0xc055dbd4	-3.3415422
75	0xc09a8c5c	-4.8296337
76	0xbfa365eb	-1.2765478
77	0xc05b6172	-3.4278226
78	0xc01bb9bc	-2.4332113
79	0xc09c0e58	-4.876751
80	0xc05c5ff8	-3.4433575
81	0xc0d00a65	-6.501269
82	0xc04e0f03	-3.2196662
83	0xc0696c98	-3.647253
84	0xc0752137	-3.8301523
85	0xc0d32649	-6.5984235
86	0xc0cee246	-6.4651213
87	0xc08e4dc0	-4.446991
88	0xc026d17a	-2.6065354
89	0xc0c71094	-6.2207737
90	0xc0b65eef	-5.6990886
91	0xc03cfcd0	-2.9529305
92	0xc05d479f	-3.4574964
93	0xc07563a5	-3.8342068
94	0xc049a712	-3.1508222
95	0xbfd9edaa	-1.7025654
96	0xc055f3fb	-3.3430164
97	0xc02f729f	-2.741371
98	0xc07746a8	-3.8636875
99	0xc06a067e	-3.6566463
100	0xc0674c56	-3.6140342
101	0xc077e204	-3.87317
102	0xc08b8e18	-4.3610954
103	0xc03f07b4	-2.9848452
104	0xc069c3f9	-3.6525862
105	0xc0a29306	-5.080447
106	0xc09ef1c1	-4.967011
107	0xc093992a	-4.612447
108	0xc05ad242	-3.419083
109	0xc0b4842a	-5.6411333
110	0xc0a13588	-5.0377846
111	0xc005c2ef	-2.0900228
112	0xc0a164c9	-5.043553
113	0xc05e3f75	-3.472623
114	0xc0ddb4c0	-6.928314
115	0xc09ec198	-4.961132
116	0xc0d20386	-6.56293
117	0xc09121b3	-4.5353637
118	0xc0a77a4e	-5.23368
119	0xc0bf003d	-5.968779
120	0xc0c09b8d	-6.018988
121	0xc0d3c8f1	-6.618279
122	0xc0892499	-4.2857175
123	0xc0a83d92	-5.257516
124	0xc0afcf68	-5.494068
125	0xc0b86710	-5.762581
126	0xc088fb54	-4.2806797
127	0xc0943634	-4.6316166
128	0xc081c58a	-4.0553637
129	0xc098c42c	-4.773947
130	0xc02248fd	-2.5357049
131	0xc095114c	-4.6583614
132	0xc0833c79	-4.101132
133	0xc0b2c774	-5.5868473
134	0xc0c3514d	-6.1036744
135	0xc0a20aac	-5.0638027
136	0xc0b9d190	-5.8068314
137	0xc0867d31	-4.202782
138	0xc09837a4	-4.756792
139	0xc0bc71ad	-5.8888764
140	0xbf5284fc	-0.8223417
141	0xbe2c1137	-0.16803442
142	0xbf7db6b8	-0.9910693
143	0xc048d5e8	-3.1380558
144	0xbef8a7ac	-0.48565423
145	0xbfd8e2a5	-1.6944166
146	0xc044fdfc	-3.078002
147	0xbf61b2e3	-0.88163584
148	0xc054d1d7	-3.3253076
149	0x4086039b	4.18794
150	0xbdad4179	-0.084597535
151	0xc0169727	-2.3529756
152	0xbf149ed0	-0.5805483
153	0xbe90527d	-0.28187934
154	0xbf148a95	-0.5802396
155	0xc03af789	-2.9213583
156	0xc0121a28	-2.2828465
157	0xc008be52	-2.1366162
158	0xc053fb84	-3.3122263
159	0xc01ce624	-2.4515467
160	0xbfe542cc	-1.791101
161	0xbf1b8de3	-0.60763377
162	0xbebccc6c	-0.36874712
163	0xc039c1e3	-2.902459
164	0xbf8d75c4	-1.1051564
165	0xc050a4bb	-3.2600543
166	0xbe861f67	-0.26195833
167	0xbf51b060	-0.8190975
168	0x3fa3c545	1.2794577
169	0xbfd6c411	-1.6778585
170	0xbf271dd4	-0.6527989
171	0x4038519c	2.879981
172	0xbffaee94	-1.9604058
173	0xbf727cda	-0.9472176
174	0xbf12c6fa	-0.57334864
175	0xc0b43479	-5.6314054
176	0xc0b34992	-5.6027308
177	0xc0a068f1	-5.01281
178	0xc0657c06	-3.5856948
179	0xc0bff8c8	-5.999119
180	0xc09e9b7c	-4.95648
181	0xc013709e	-2.3037486
182	0xc0b4585c	-5.635786
183	0xc085b12e	-4.1778784
184	0xc0f03db6	-7.507533
185	0xc0ae0617	-5.4382434
186	0xc0d46a77	-6.637996
187	0xc0a06b58	-5.0131035
188	0xc0bb6957	-5.856609
189	0xc0cc69e5	-6.3879266
190	0xc0d18692	-6.547677
191	0xc0d75847	-6.729526
192	0xc0955324	-4.666399
193	0xc0bdad44	-5.9274006
194	0xc0c86b1b	-6.2630744
195	0xc0bd5fce	-5.917945
196	0xc096fdea	-4.7184954
197	0xc0a76b40	-5.231842
198	0xc08cbdfc	-4.3981915
199	0xc0af5bb9	-5.4799466
200	0xc03206d9	-2.781668
201	0xc0a92ad0	-5.286476
202	0xc08a3cfc	-4.3199444
203	0xc0bf3290	-5.974922
204	0xc0d4bf18	-6.648327
205	0xc0ad2dd8	-5.411846
206	0xc0c263ed	-6.074698
207	0xc08b7b29	-4.358784
208	0xc09fee0a	-4.9978075
209	0xc0c7e0f1	-6.2462087
210	0xc0a3fe41	-5.124787
211	0xc09b7e0b	-4.859136
212	0xc08dc837	-4.4306903
213	0xc05516ee	-3.3295245
214	0xc0a85fd0	-5.261696
215	0xc097f825	-4.749041
216	0xbff716c1	-1.9303819
217	0xc0a01b94	-5.0033665
218	0xc05a0af1	-3.4069178
219	0xc0defd33	-6.968408
220	0xc09b6101	-4.8555913
221	0xc0cb1f56	-6.347575
222	0xc092a76e	-4.582938
223	0xc0adf9de	-5.4367514
224	0xc0bae97d	-5.841002
225	0xc0c1485d	-6.0400834
226	0xc0c5b140	-6.177887
227	0xc08e516b	-4.4474387
228	0xc0a05b7e	-5.0111685
229	0xc0b20c5f	-5.56401
230	0xc0b20c39	-5.563992
231	0xc0900444	-4.5005207
232	0xc090c108	-4.5235634
233	0xc07b34a7	-3.9250886
234	0xc093557e	-4.604186
235	0xc023d436	-2.5598273
236	0xc09565b9	-4.6686673
237	0xc071799d	-3.7730477
238	0xc0afe4d2	-5.496682
239	0xc0b87dab	-5.7653403
240	0xc0a25bfa	-5.0737276
241	0xc0b44681	-5.6336064
242	0xc0806d2c	-4.0133266
243	0xc09a406f	-4.8203654
244	0xc0b617e9	-5.6904187
245	0xc0a3871f	-5.1102443
246	0xc098b72f	-4.7723613
247	0xc0943560	-4.6315155
248	0xc04c7d42	-3.1951451
249	0xc0ad0e74	-5.4080143
250	0xc095acc5	-4.67734
251	0xbffeacfc	-1.9896541
252	0xc09f2505	-4.973269
253	0xc0700b61	-3.7506945
254	0xc0dd109c	-6.9082775
255	0xc0a0265a	-5.0046816

fc3.bias f4 [17]
0	0xc0e51e3c	-7.1599407
1	0xc0f5fcc5	-7.6871057
2	0xc10a8395	-8.6571245
3	0xc10b650f	-8.7121725
4	0xc053c7f0	-3.3090782
5	0xc105b0d5	-8.355672
6	0xc10f0852	-8.939531
7	0xc10f1426	-8.942419
8	0xc10f0df1	-8.940904
9	0xc10d4578	-8.82946
10	0xc1076650	-8.462479
11	0xc10b6f22	-8.714632
12	0xc10a686b	-8.650493
13	0xc11ab54e	-9.669264
14	0xc10804b2	-8.501146
15	0xc10da779	-8.853387
16	0xc0fffef1	-7.999871

output.weight f4 [1, 17]
0	0x408f0d40	4.4703674
1	0x4089ec88	4.3101234
2	0x407d9a97	3.9625604
3	0x406b7ac0	3.679367
4	0x400690ab	2.1025798
5	0x407d209e	3.9551158
6	0x40680cba	3.6257768
7	0x406ba919	3.682196
8	0x406f0717	3.7348077
9	0x4073feef	3.812435
10	0x408365e5	4.1061883
11	0x407a9c37	3.9157846
12	0x407dba43	3.9644935
13	0x404a82bb	3.1642292
14	0x40825ec5	4.0740685
15	0x40742161	3.8145373
16	0x40822f63	4.0682845
