training_nn/model/Theta_net.pth (torch, 7063 bytes, 7 tensors)

fc1.weight f4 [30, 15]
000000 c3 a3 b2 bf 80 26 4e c2 12 fd 1b 41 f9 62 28 42
       -1.3956226 -51.537598 9.749285 42.096653
000010 1b ba e5 c0 bd fd e7 3f a5 1f 6a c2 e8 0f cf 40
       -7.178968 1.812431 -58.530903 6.4706917
000020 a8 b2 ee c0 c9 85 f5 be 08 06 cb 3e ec 45 da c0
       -7.4593086 -0.47953632 0.3965304 -6.8210354
000030 d9 19 40 c1 36 33 c1 40 af f1 02 3f e0 f4 c7 bf
       -12.00631 6.0375013 0.5115003 -1.5621605
000040 e5 89 59 c2 6e 0c bc 40 14 e9 31 42 58 8e 1c c0
       -54.384663 5.8765173 44.477615 -2.446188
000050 79 80 a3 bf b1 c2 3f 42 a8 65 16 c1 e4 14 db 40
       -1.2773582 47.94013 -9.399818 6.8463
000060 56 e7 62 40 51 60 98 3f 79 1c 44 c1 1e 02 6a c1
       3.5453696 1.1904393 -12.256951 -14.625517
000070 bd d2 4e c1 82 7e 0c 40 49 9b 1b c0 64 a3 1d c2
       -12.92645 2.1952214 -2.4313529 -39.40956
000080 90 6b a4 40 57 f1 01 42 a9 4c 3e c0 25 96 d3 3f
       5.13813 32.485683 -2.973429 1.6530195
000090 3e d8 5b c2 94 7f c3 40 b2 d7 af c0 81 b6 4b 3d
       -54.961174 6.1093235 -5.49508 0.049734596
0000a0 ef 55 39 3f 63 d6 4f c0 03 a1 c4 c0 83 62 d9 40
       0.7239675 -3.2474601 -6.1446548 6.7932754
0000b0 cc a3 28 c0 2d d4 a0 c0 ee d4 e0 3e bd 4a b5 bd
       -2.6349974 -5.0259004 0.43912452 -0.08852146
0000c0 39 bb 36 3f 04 02 a8 3d 2c bf ef 3c 5a a0 3f c0
       0.7137943 0.082035094 0.029265963 -2.994162
0000d0 0b 4f cd 3c 9e 81 98 be 20 55 5c 3d f9 b3 1c 3f
       0.025062105 -0.2978639 0.05379212 0.61212116
0000e0 81 c3 e6 bd 4c d6 7d 3d 3a 83 5f 3e 51 02 34 bf
       -0.11267758 0.061971948 0.21827403 -0.70316035
0000f0 2f 76 be bf 45 94 55 c1 c0 78 ad 3f fa 2a 8f 41
       -1.4879817 -13.348699 1.3552475 17.895985
000100 16 ac de 3f 68 14 ae c0 16 2d 68 42 af 08 bb c1
       1.7396266 -5.439991 58.04403 -23.37924
000110 dc d3 a7 41 0b 1b 85 40 75 46 94 be 96 de 6d c1
       20.978447 4.159551 -0.28960004 -14.866842
000120 23 e1 59 c1 54 d7 a5 c1 c0 fb ba 3f b0 25 1c c0
       -13.617465 -20.73014 1.4608078 -2.4398003
000130 d2 98 9f c1 da 5b 16 40 86 0c be 41 8c 71 9d 3e
       -19.94962 2.3493562 23.756115 0.30750692
000140 3d c0 a9 c0 7e 2a 4f 42 69 84 80 c1 ed ba 64 41
       -5.3047166 51.791496 -16.064653 14.295636
000150 87 e5 4a 40 59 88 57 be 23 06 10 c1 17 45 28 c1
       3.1702592 -0.21048106 -9.001498 -10.516868
000160 f2 82 76 c1 92 2b cf 3f f3 7a d6 bf 51 a0 74 bf
       -15.406969 1.6185172 -1.6756271 -0.95557123
000170 e5 16 89 41 4f 7e a6 40 4d 0d 63 c1 84 fb 1d 41
       17.136179 5.2029185 -14.190747 9.873905
000180 4c 50 8b c2 f6 c3 6e 41 5a a1 88 c1 f7 68 6c bf
       -69.65683 14.922842 -17.078785 -0.92347664
000190 68 7f 38 bd d8 32 87 c0 bf 3b 0a c1 f8 71 92 41
       -0.04504338 -4.2249565 -8.639586 18.305649
0001a0 9b b7 f5 40 a7 4c 46 c0 06 e5 58 c1 ca bf bc 3e
       7.678663 -3.0984285 -13.555914 0.36865073
0001b0 33 a6 87 41 ad d9 7a 3f ea b4 b3 c0 11 18 47 42
       16.956152 0.97988397 -5.615834 49.773502
0001c0 4b b5 83 c1 f2 c1 62 41 c9 6f 01 40 95 a0 b5 3e
       -16.463522 14.17235 2.0224478 0.35474077
0001d0 c4 e7 96 c0 d5 96 ad c0 44 32 60 c1 61 55 82 3f
       -4.7157917 -5.424662 -14.012272 1.0182306
0001e0 fd 60 57 c0 44 ed 9d c1 4f c6 d8 3f 6c 57 a9 41
       -3.3652947 -19.740852 1.6935519 21.167686
0001f0 4d c0 47 3f df 9d 9f c0 33 5c 39 42 92 2b 5c c1
       0.780278 -4.9880214 46.34004 -13.760637
000200 d9 20 41 41 a7 ae 09 40 27 35 bc 3e bd d5 89 c0
       12.070519 2.151285 0.36759302 -4.307341
000210 74 d4 cb c0 89 24 45 c1 fe 76 a9 3f 28 07 f8 bf
       -6.369684 -12.32142 1.3239439 -1.9377184
000220 1a 45 8d c1 a6 5f d5 40 9b 80 9d 41 24 cc 9f c0
       -17.658741 6.667926 19.687796 -4.9936695
000230 02 00 79 40 5c cb 6e c2 4b 7c 5c 41 6e 86 29 c1
       3.8906255 -59.698593 13.780345 -10.59532
000240 96 62 7a bf 17 4d b4 bf 00 b0 b8 bf 12 4f 14 c1
       -0.9780668 -1.4086026 -1.4428711 -9.269304
000250 3d f7 0d 41 cd 3a 99 c1 3b 3a fe bf 2b d3 0b c1
       8.872861 -19.153711 -1.986152 -8.739055
000260 0a bb 53 41 aa 02 2e 41 e0 72 21 c1 e7 72 f0 40
       13.233164 10.87565 -10.090546 7.514026
000270 e9 83 86 c2 a6 ef 79 41 e5 36 79 c1 34 d5 0b bf
       -67.25764 15.621008 -15.575902 -0.546222
000280 22 05 03 bf 72 0e 6e c0 20 62 f5 c0 7e cb 7d 41
       -0.5117971 -3.7196317 -7.668228 15.862181
000290 30 c0 a7 40 9b 18 04 c0 e5 b8 de c0 74 46 4a 41
       5.2422104 -2.0640018 -6.96007 12.6422
0002a0 b7 95 16 41 6c 21 14 c1 20 2a e8 40 c3 ee 83 c2
       9.411551 -9.25816 7.255142 -65.96633
0002b0 9c aa 36 41 ad 15 5f c1 4a 6b 21 bf d7 10 04 c0
       11.416653 -13.942792 -0.63054335 -2.0635278
0002c0 28 1e 38 c0 88 be 81 c0 8b b2 a6 41 d0 44 45 41
       -2.8768406 -4.054508 20.83718 12.3293
0002d0 8b f5 8e bf 0e cd 29 c1 91 05 15 3f c5 67 7e 41
       -1.1168684 -10.612562 0.5821162 15.900334
0002e0 ad 01 24 40 d4 39 a1 c0 b9 04 72 42 ab 8f c0 c1
       2.5626023 -5.038309 60.504612 -24.07015
0002f0 69 0b af 41 5a 61 98 40 70 83 08 bf 4e d3 85 c1
       21.880571 4.7618837 -0.5332556 -16.728176
000300 74 52 74 c1 27 22 b4 c1 1c 76 8a 3f ae bd 19 c0
       -15.27013 -22.516676 1.0817294 -2.4022021
000310 bf 0d 34 c1 a3 ab 1d 41 4b 2e 43 41 71 55 e4 c0
       -11.253356 9.8544035 12.198802 -7.13543
000320 4d 85 c4 40 69 f9 80 c2 18 5c 69 41 fb 23 5b c1
       6.141272 -64.48713 14.584984 -13.696284
000330 39 01 39 bf 64 ee 58 bf 84 9d 4f c0 6a 0f b4 c0
       -0.7226749 -0.84738755 -3.243989 -5.6268816
000340 65 aa 74 41 89 35 aa 40 f5 4e 74 c0 18 d8 9f c1
       15.2916 5.319035 -3.8173192 -19.980515
000350 00 48 a0 3f 26 33 9e 41 18 0a 32 3f 9c c5 83 c0
       1.2521973 19.774975 0.6954665 -4.117872
000360 53 72 29 42 1e b1 30 c1 e6 94 19 41 ca 0b f0 3f
       42.361645 -11.0432415 9.598852 1.8753598
000370 6b 06 99 3f 57 f9 18 c0 d4 1a 6d c0 72 6f 1c c1
       1.1955084 -2.3902185 -3.7047625 -9.777208
000380 64 f4 36 40 c8 c6 13 c0 34 21 88 c1 e6 44 bd 3f
       2.8586664 -2.3090076 -17.016212 1.4786651
000390 fb 4c aa 41 dc df 44 3f 8c 04 b4 c0 1c 57 52 42
       21.287588 0.7690408 -5.625555 52.585068
0003a0 31 9d 87 c1 97 89 70 41 19 ae 22 40 a1 f8 5c be
       -16.951754 15.033591 2.541876 -0.2157922
0003b0 7c fb 08 c1 2a a0 1c c1 e0 77 77 c1 84 9c a2 3f
       -8.561398 -9.789103 -15.466766 1.2704015
0003c0 ed f2 a3 bf 61 d3 22 bf 2c 60 c2 41 c7 dc b0 40
       -1.280851 -0.6360379 24.296959 5.5269504
0003d0 9a 6b a7 c1 cc 95 42 41 e3 15 91 c2 9c 98 73 41
       -20.92754 12.1615715 -72.54275 15.224758
0003e0 48 4e 91 c1 8b 8d 6c bf db 02 9e 3e 8a bc b9 c0
       -18.163223 -0.9240348 0.30861554 -5.804265
0003f0 4b 04 40 c1 d1 8c 82 41 aa bf 84 40 c7 e8 93 bf
       -12.001048 16.318758 4.1483965 -1.1555413

fc1.bias f4 [30]
000000 72 5c d5 bf fb f3 9d bf 8a 42 05 c0 2a 19 a8 c0
       -1.6668837 -1.2340082 -2.0821862 -5.253072
000010 56 d3 d4 bf 4c cb 15 c0 73 48 b6 bf 39 ff 35 c0
       -1.6626995 -2.3405333 -1.424086 -2.8437026
000020 43 15 4a c0 14 5b 03 c0 63 52 07 c0 78 cc fb bf
       -3.1575477 -2.052434 -2.1144035 -1.9671774
000030 83 98 b6 bf 3c 88 14 c0 4b 40 74 c0 fc 01 20 c0
       -1.4265293 -2.320815 -3.8164241 -2.500121
000040 24 f6 64 bf 6d ee 37 bf b1 94 ff bf f2 bb 5c c0
       -0.8943808 -0.71848184 -1.9967252 -3.4489713
000050 25 11 88 c0 e1 7c 1d c0 64 2d 1f c0 5e 1f e6 bf
       -4.252093 -2.460747 -2.4871454 -1.7978323
000060 21 c5 5c c0 81 c2 9c c0 73 ee a0 c0 ef 7f 78 bf
       -3.4495318 -4.898743 -5.0291076 -0.9707021
000070 e8 37 43 c0 c5 81 28 c0
       -3.0502872 -2.6329205

fc2.weight f4 [15, 30]
000000 c9 d2 3e c0 81 9f 57 c0 73 64 13 c0 e1 d1 09 be
       -2.9816153 -3.3691103 -2.303006 -0.13458969
000010 56 ce 91 c0 f0 53 49 c0 a1 39 19 c0 bf 26 3f c0
       -4.5564375 -3.1457481 -2.3941424 -2.9867399
000020 86 89 3a c0 1f f4 f8 bf 7f 0b 29 c0 6c 27 1d c0
       -2.9146438 -1.94495 -2.6413267 -2.4555311
000030 7d 09 9b c0 1e cf 19 c0 84 bd 24 c0 b4 11 68 c0
       -4.844908 -2.4032664 -2.574067 -3.6260805
000040 e3 0e 2e c0 36 dd 4e c0 b2 98 22 c0 1c a8 d7 bf
       -2.7196586 -3.2322516 -2.5405698 -1.6848178
000050 33 c7 bd bf 34 51 fe bf b7 ab 0a c0 77 88 75 c0
       -1.4826416 -1.9868531 -2.1667306 -3.8364542
000060 60 0f 30 c0 6f 49 5d bf a6 a6 0f bf 79 97 b8 c0
       -2.7509384 -0.86440176 -0.5611366 -5.7684903
000070 25 b7 3a c0 2d fb 02 c0 5d 80 2c c0 b4 44 47 c0
       -2.9174283 -2.0465806 -2.6953347 -3.1135683
000080 bc cf 1c c0 9f 98 84 be b0 d0 2a c0 e5 78 31 c0
       -2.450179 -0.2589769 -2.6689873 -2.7730038
000090 c9 ca 3f c0 92 c1 e8 bf ad 43 24 c0 60 7d 1c c0
       -2.996752 -1.8184073 -2.5666306 -2.4451523
0000a0 54 b1 37 c0 7f 68 37 c0 ea a6 3b c0 c5 bb 35 c0
       -2.8701982 -2.865753 -2.9320626 -2.8395855
0000b0 da 6a 1a c0 be 69 1c c0 92 fd 52 c0 e9 57 52 c0
       -2.4127717 -2.443954 -3.2967267 -3.2866156
0000c0 d9 09 4a c0 9e 22 1c c0 bc 61 03 c0 32 8a 31 c0
       -3.156851 -2.4396129 -2.0528402 -2.7740598
0000d0 f6 5b 36 c0 ff 74 24 c0 0e 75 13 c0 cd f6 28 bf
       -2.8493629 -2.5696409 -2.3040195 -0.6600159
0000e0 d6 7a 28 bf b6 7a 5a c0 18 fe 17 c0 d5 4a 25 c0
       -0.6581243 -3.4137397 -2.3748837 -2.5826924
0000f0 17 79 b0 bf 62 0e 42 c0 39 e7 94 bf d8 cd 9a bd
       -1.3786954 -3.0321279 -1.1633064 -0.07558793
000100 09 17 8f c0 55 52 64 c0 19 d2 81 be b1 38 51 c0
       -4.471562 -3.5675251 -0.25355604 -3.2690852
000110 bd f6 47 c0 6c 24 da be de 1d bf be 9f 13 bc be
       -3.1244347 -0.42605913 -0.37327474 -0.3673372
000120 ce a7 9b c0 78 be 39 bf 9c d6 34 c0 bc 46 64 c0
       -4.864234 -0.7255626 -2.8255987 -3.5668173
000130 33 63 9f bd 2c 2e af 3e 88 77 a0 bd ce 1c 4f bf
       -0.077825926 0.34214914 -0.07835299 -0.8090333
000140 a3 aa 32 bf 15 9d 39 bf 92 e2 3b bf e6 45 74 c0
       -0.6979162 -0.72505313 -0.73392594 -3.8167663
000150 12 15 3b c0 d2 7d 26 bf a2 1a b5 be 9e 7d a6 c0
       -2.923161 -0.65035737 -0.35371882 -5.202834
000160 d4 88 3f c0 6e 58 5e bf 79 8e 12 41 29 c0 03 41
       -2.9927263 -0.86853683 9.159783 8.234414
000170 e7 c9 9d 40 5a 1f 73 3e da 74 b7 40 4e 3f 9e 40
       4.9308963 0.23742428 5.733014 4.9452276
000180 1b 1c 87 40 8f 4e 68 40 cf 43 50 40 62 d9 9d 40
       4.222181 3.6297948 3.2541387 4.932786
000190 20 47 a3 40 8b f7 a5 40 6f c9 ae 40 77 84 9b 40
       5.1024323 5.1864676 5.462089 4.85992
0001a0 71 e7 1d 40 fe 27 95 40 5f 44 7a 40 07 97 7e 40
       2.467251 4.661132 3.910423 3.977968
0001b0 36 a6 9d 40 8c 85 24 40 27 01 b2 3f 10 34 8b 40
       4.9265394 2.570651 1.3906602 4.3501053
0001c0 fe 18 94 40 b6 08 a8 40 a3 69 38 40 22 d7 11 3f
       4.628051 5.2510633 2.8814476 0.5696889
0001d0 be 72 29 3f d6 0f ae 40 26 9d 58 40 a5 f9 61 40
       0.6619071 5.439433 3.3845916 3.530862
0001e0 8e 22 05 c0 4b f7 12 c0 08 e0 09 c0 94 9b cd bc
       -2.080234 -2.2963436 -2.1542988 -0.0250986
0001f0 2b 4f dd bf a1 43 d4 bf 58 3c 72 c0 b7 01 c7 bf
       -1.7289785 -1.6583139 -3.784933 -1.5547398
000200 f2 8b fe bf a8 4c 35 c0 dd ca 68 c0 91 13 54 c0
       -1.9886458 -2.8328037 -3.6373818 -3.3136942
000210 8a 95 f7 bf d1 61 4b c0 6f 17 d7 bf 3c 42 e3 bf
       -1.9342511 -3.1778452 -1.6804026 -1.7754588
000220 91 0f 8c c0 a5 71 8e c0 21 86 6a c0 ea c3 38 c0
       -4.3769 -4.4513726 -3.6644366 -2.8869576
000230 95 52 0c c0 a6 84 61 c0 b9 76 46 c0 27 54 da bf
       -2.1925404 -3.5237212 -3.1009963 -1.7056931
000240 da 41 cd bf 84 a8 69 bf 7c 37 4a bf 5d 66 e5 bf
       -1.6035721 -0.9127276 -0.7899091 -1.7921864
000250 7d 2a e0 bf 0b 9b 2c c0 27 a7 35 c0 4b a8 5a c0
       -1.7512966 -2.696963 -2.8383272 -3.4165218
000260 39 5f 32 c0 3b ef 4e be 96 53 34 c0 a1 19 3d c0
       -2.787062 -0.20208447 -2.8176017 -2.9546893
000270 e4 44 4a c0 f3 45 f6 bf 99 b7 26 c0 0b 11 1e c0
       -3.1604548 -1.9240097 -2.604956 -2.4697902
000280 b9 f4 49 c0 89 a0 2e c0 51 75 41 c0 be bd 3b c0
       -3.1555617 -2.7285483 -3.0227854 -2.933456
000290 56 6b 0f c0 ca 3d 23 c0 4b a3 54 c0 3c b4 56 c0
       -2.2409263 -2.5506463 -3.3224666 -3.3547506
0002a0 82 3d 37 c0 bb 06 20 c0 85 89 11 c0 ee 4b 2f c0
       -2.8631291 -2.5004108 -2.2740185 -2.7390094
0002b0 38 e4 2c c0 fe 75 25 c0 aa ed 19 c0 e1 b4 02 bf
       -2.7014294 -2.5853267 -2.4051309 -0.5105725
0002c0 b6 f9 78 bf 77 22 65 c0 64 9d 2c c0 54 ad 1e c0
       -0.9725603 -3.5802286 -2.6971064 -2.479329
0002d0 90 23 25 c0 70 82 44 c0 e1 81 16 c0 28 c3 51 be
       -2.5802956 -3.0704613 -2.3516772 -0.20484602
0002e0 7c e3 f4 bf 8e bf 06 c0 5a 1a 66 c0 81 d1 ce bf
       -1.9131923 -2.1054416 -3.5953584 -1.6157686
0002f0 16 df 07 c0 75 e6 28 c0 8d bc 52 c0 5d b8 40 c0
       -2.122991 -2.639066 -3.2927582 -3.0112526
000300 51 88 fa bf a9 89 41 c0 fb 19 0e c0 00 f9 08 c0
       -1.957285 -3.024027 -2.2203357 -2.1401978
000310 d7 00 73 c0 02 07 50 c0 b1 80 4d c0 ac 6c 1d c0
       -3.7969263 -3.2504277 -3.2109797 -2.4597578
000320 b9 5b fb bf db dc 4e c0 66 9b 28 c0 e2 ca f6 bf
       -1.9637367 -3.23223 -2.6344848 -1.9280665
000330 1d b5 f8 bf 79 d9 7d bf 2f 5a 54 bf ec 36 0b c0
       -1.9430271 -0.9915996 -0.8295011 -2.1752272
000340 e9 11 18 c0 df 21 33 c0 69 81 48 41 f5 65 27 41
       -2.3760931 -2.7989423 12.531594 10.462392
000350 28 b5 f6 40 ad 2e 97 3e d9 77 af 40 4e 79 b7 40
       7.709614 0.29527798 5.48338 5.7335577
000360 0a f7 4d 40 4b a2 7b 40 de fc 7f 40 af e3 c0 40
       3.218203 3.9317806 3.9998088 6.0277934
000370 5b 7a a5 40 fd a0 a6 40 7a 2f 9f 40 c6 d7 ab 40
       5.171186 5.207152 4.9745455 5.3700895
000380 dd 0a 47 40 19 0d a2 40 62 0f 22 40 a6 56 37 40
       3.110038 5.064099 2.532189 2.8646636
000390 52 7c 9a 40 6f cc 3b 40 69 ce c7 3f e3 d7 a0 40
       4.827676 2.9343526 1.5609866 5.0263534
0003a0 59 20 c4 40 a8 4a a9 40 eb 2f 6c 40 85 14 1b 3f
       6.1289487 5.2903633 3.6904247 0.60578185
0003b0 ba 23 20 3f db 28 92 40 2a 3d 8b 40 c1 e8 9b 40
       0.62554514 4.5674872 4.3512163 4.8721623
0003c0 5f c8 49 c0 18 58 54 c0 90 3f 2b c0 26 9b 95 be
       -3.1528547 -3.3178768 -2.6757545 -0.2921993
0003d0 fc 6b 4c c0 b5 a0 31 c0 0f 10 40 c0 93 6b 00 c0
       -3.1940908 -2.7754338 -3.0009801 -2.0065658
0003e0 2e cd 2f c0 f9 99 1d c0 f6 43 4f c0 4e 52 38 c0
       -2.7468982 -2.4625227 -3.238523 -2.8800235
0003f0 4a 63 56 c0 97 2e 2e c0 12 35 12 c0 95 7f 2c c0
       -3.3498101 -2.7215936 -2.2844892 -2.695287

fc2.bias f4 [15]
000000 4f b0 d8 c0 e9 c4 ea c0 5b ea b5 c0 cc 8c e1 3f
       -6.771522 -7.336537 -5.684858 1.7621093
000010 17 f2 f2 c0 fc 9f e7 c0 1b 9d f3 c0 67 73 bd bd
       -7.592052 -7.2382793 -7.612928 -0.09250527
000020 be c5 e2 c0 0e 06 b1 bf 79 97 60 bf a6 a7 af c0
       -7.0866385 -1.3829973 -0.8773113 -5.489215
000030 b5 03 db c0 38 a2 f2 c0 c0 c6 e5 c0
       -6.8442025 -7.582302 -7.1805115

fc3.weight f4 [7, 15]
000000 02 f1 d7 3c b5 50 9b bd 51 36 46 c0 87 95 b7 bf
       0.026360039 -0.07583753 -3.0970652 -1.4342507
000010 65 f1 c7 bd fd 8f 39 bc 58 5f 2b be 65 0d c3 bf
       -0.09762839 -0.011325833 -0.1673559 -1.5238463
000020 34 26 6a 3d 22 0e cd c0 27 38 c9 3e c1 00 e9 3e
       0.05716534 -6.407975 0.39300653 0.45508388
000030 21 6c 5a 3d f7 2b 05 be 31 f5 d0 3e 53 29 36 c0
       0.053325776 -0.13005053 0.40812066 -2.8462722
000040 81 d4 58 be 59 7d 9b c0 7e 95 56 c0 ea 5c 8c bf
       -0.21174814 -4.859051 -3.3528743 -1.0965855
000050 b6 42 8c be 25 3f 78 bf f8 c0 57 c0 d9 7b c1 3c
       -0.27394646 -0.9697135 -3.3711529 0.023618625
000060 10 dd d9 c0 ca 4c 91 be f1 b2 77 bf 7f 53 aa bf
       -6.808235 -0.28378898 -0.9675742 -1.3306731
000070 70 9b 71 bf 83 2b aa bf 1a b5 0f c0 95 8a 85 be
       -0.94377804 -1.3294529 -2.2454286 -0.26082292
000080 e1 c7 69 c0 85 96 64 c0 ed a2 87 bf 03 c9 cd be
       -3.6528246 -3.571687 -1.0596596 -0.40192422
000090 25 12 5e bf 33 f4 5d c0 61 2e 45 bd ab 30 c5 c0
       -0.86746436 -3.4680297 -0.048139933 -6.162191
0000a0 0b a5 10 3f 7b c1 a2 bf eb 7d 99 bf 8a 8d 9e bf
       0.56501836 -1.2715296 -1.1991552 -1.2386944
0000b0 e4 28 6d bf d3 c4 05 c0 c2 d5 ea be 67 f5 64 c0
       -0.9264052 -2.0901382 -0.4586621 -3.5774782
0000c0 c2 5e 5d c0 5a 18 4d bf a0 e3 23 bf 37 24 2c bf
       -3.4589086 -0.8011528 -0.64019203 -0.6724276
0000d0 d1 52 7f c0 4b 2c b3 bd ad 6c c5 c0 32 09 08 3f
       -3.9894297 -0.087486826 -6.169516 0.5313903
0000e0 5c e8 c1 bf 19 3e 88 bf 7d 59 4c bf 8f 82 0e bf
       -1.5149035 -1.0643951 -0.7982405 -0.55667967
0000f0 cb 13 11 c0 e0 79 5e be f2 52 8e c0 af 53 5d c0
       -2.266833 -0.21726179 -4.447625 -3.4582326
000100 0d d7 7d bf a0 ea 2c be fe d8 21 bf 03 ff 62 c0
       -0.99156266 -0.16886377 -0.6322173 -3.5468147
000110 6b d3 0a be 49 91 d1 c0 44 8b cb 3b 09 42 9b bf
       -0.13557212 -6.548985 0.00621167 -1.2129527
000120 7a 18 84 bf ba 33 91 bf 93 ad 8a bf 58 f2 c0 bf
       -1.031997 -1.1343911 -1.0834221 -1.5073957
000130 20 f5 d8 bd c1 20 0a c0 f6 75 86 c0 12 ce 9e bf
       -0.10593629 -2.1582491 -4.2018995 -1.2406638
000140 76 78 49 be 3b 5c 69 bf d3 0b 73 c0 c8 b1 20 bd
       -0.19674858 -0.9115636 -3.7975967 -0.039232045
000150 b1 6c 9c c0 90 9b ad bf 0f ef 83 bf 29 5a 31 bf
       -4.888268 -1.3563099 -1.030733 -0.692782
000160 5b 41 63 bf c5 4e 0f c0 d4 8a ac 3f 79 45 44 3f
       -0.887716 -2.2391827 1.3479867 0.76668507
000170 b6 48 b7 bf 45 78 df bf fe 17 fe bf 3b 41 7b 3f
       -1.4319065 -1.7458578 -1.9851072 0.9814641
000180 08 8b 34 bf ab 91 eb bf d5 1f 99 3f 6c cb c0 3e
       -0.70524645 -1.8403829 1.1962839 0.376552
000190 c3 a9 27 c1 73 f5 28 40 19 4f ad 3f f7 fa 39 bf
       -10.478946 2.639981 1.3539764 -0.72648567
0001a0 50 53 93 c0
       -4.60392

fc3.bias f4 [7]
000000 90 05 b9 bf e8 0c 22 c0 06 bf 3b c0 8e d2 25 c0
       -1.4454823 -2.5320377 -2.9335341 -2.5909762
000010 4b 71 24 c0 06 c6 3d c0 9b 97 a8 bf
       -2.5694149 -2.9652114 -1.3171266

output.weight f4 [1, 7]
000000 cc 8a 4e c0 cc dc 53 c0 43 12 54 c0 a5 c6 51 c0
       -3.2272215 -3.3103514 -3.3136146 -3.2777493
000010 be dd 52 c0 7c f4 de bf aa 3c 5f 40
       -3.294784 -1.7418361 3.4880776
