training_nn/model/Theta_net_ep2.pth (torch, 6844 bytes, 3 tensors)

fc1.weight f4 [35, 35]
0	0xc03a8b8b	-2.914767
1	0xbf1b7686	-0.6072773
2	0x3fade4d8	1.3585463
3	0x3e7ba121	0.24573185
4	0x41840474	16.502174
5	0x3e565e81	0.20934488
6	0xbf1c94c1	-0.6116448
7	0x41c34843	24.410284
8	0xbe2c2ecc	-0.16814727
9	0xbf384b9a	-0.7199036
10	0x42288682	42.131355
11	0xc2384bfd	-46.074207
12	0x3ff057c5	1.8776785
13	0x428540a3	66.62624
14	0xbf2232ac	-0.6335857
15	0xbebaaf3b	-0.36461815
16	0xc18fece8	-17.990677
17	0xbf1957b4	-0.5989945
18	0x3f31b78e	0.6942071
19	0xbff73708	-1.9313669
20	0x3d4d8904	0.050179496
21	0x3ed49017	0.41516182
22	0xbf101de1	-0.5629559
23	0xc16d57f3	-14.833972
24	0xbeeaf454	-0.45889533
25	0x4003f0c3	2.06157
26	0xc1683542	-14.513002
27	0x4039b420	2.901619
28	0xc0d5a536	-6.6764174
29	0x3f357f97	0.7089781
30	0x400cf58a	2.2024865
31	0xc0252b28	-2.580759
32	0x41b66f14	22.804237
33	0x41d10c7b	26.131094
34	0x40ac30da	5.3809633
35	0xc0db6b64	-6.856859
36	0xc09664a3	-4.6997848
37	0xbe44cd22	-0.19218877
38	0x3cbc2d2a	0.022970755
39	0x40f8115a	7.752118
40	0xbf7972a1	-0.97440535
41	0x3da7a2fb	0.08185383
42	0xbe043bc7	-0.12913428
43	0x3d8a11ee	0.06741701
44	0xbcf8661f	-0.030322133
45	0xc160499a	-14.017969
46	0x413b8820	11.720734
47	0xbd037ff6	-0.032104455
48	0xc1191f45	-9.570134
49	0xbd305725	-0.043051858
50	0x3e3099f8	0.17246234
51	0xc0a340e0	-5.1016693
52	0x3d1c225e	0.038118713
53	0x3db915c2	0.09037353
54	0xbe853e6f	-0.26024196
55	0x3f5456b2	0.82944787
56	0x3ede234a	0.43386298
57	0xbe49d77f	-0.19711111
58	0xbfaafdd4	-1.3358712
59	0x3eb310cf	0.3497376
60	0xbe8688d3	-0.26276264
61	0x40828756	4.0790205
62	0xbf016d02	-0.5055696
63	0x3e95bf0a	0.29247314
64	0x3ebab0b4	0.3646294
65	0xc011a6fe	-2.2758174
66	0xbedac650	-0.42729425
67	0x3faa1a73	1.3289322
68	0xc0809d0c	-4.0191708
69	0xc03c99a4	-2.9468775
70	0xc0d54d63	-6.6656966
71	0xc0a31a67	-5.096973
72	0xbe09f0d7	-0.1347078
73	0xbe3cdaa5	-0.18442781
74	0x410be89b	8.744288
75	0xbf6645b1	-0.8995009
76	0x3e692785	0.22768982
77	0xbe642afe	-0.22282025
78	0x3d23e71d	0.04001533
79	0x3dffa41e	0.12482475
80	0xc175c957	-15.361655
81	0x415c8266	13.781836
82	0xbeb7a9f1	-0.35871843
83	0xc133d1b5	-11.238698
84	0xbe4cebd9	-0.20011844
85	0x3b0a929e	0.002114452
86	0xc0beb35a	-5.9593935
87	0xbdeadc87	-0.114678435
88	0x3e429404	0.19001776
89	0xbdc6a2e5	-0.096990384
90	0x3f45c557	0.7725424
91	0x3f216841	0.63049704
92	0xbe2de89f	-0.16983269
93	0xbfbbbf1b	-1.4667696
94	0x3dcb365b	0.09922477
95	0xbeab0026	-0.3339855
96	0x4090acfd	4.5211167
97	0xbf6d8dbe	-0.92794406
98	0x3f19b40e	0.60040367
99	0x3ed497a6	0.4152195
100	0xc002e2f0	-2.0451012
101	0xbe812564	-0.2522384
102	0x3fbb9cf9	1.4657279
103	0xc09bd488	-4.8696938
104	0xc050a829	-3.2602637
105	0xc0d6936b	-6.7054954
106	0xbfd30645	-1.6486288
107	0xbf504123	-0.8134939
108	0x3e072400	0.13197327
109	0x408eb01e	4.4589987
110	0x4006676f	2.100063
111	0xbd7aa2af	-0.061190303
112	0xc019176e	-2.392055
113	0xbd987093	-0.07443347
114	0x3ccd54ed	0.02506491
115	0x41636814	14.21291
116	0xc11a14cb	-9.630076
117	0x3e98911a	0.29798204
118	0x40ec6480	7.387268
119	0xbd4feef6	-0.050765
120	0xbdd962c6	-0.10614543
121	0x40288aee	2.6334796
122	0x3e09a543	0.13441949
123	0xbe35c528	-0.1775099
124	0x3cb84e84	0.022498377
125	0x3ef7a5a8	0.48368573
126	0x3f1f5538	0.6223941
127	0x3dddb0e9	0.108247586
128	0x3d0942d7	0.03351101
129	0xbe639bc9	-0.22227396
130	0x3e983117	0.29724953
131	0xc0675667	-3.6146486
132	0x3f0097af	0.5023145
133	0xbeae7763	-0.3407546
134	0xbebc5d94	-0.36790144
135	0xbe29dcfe	-0.16588208
136	0xbea125e8	-0.31474233
137	0xbe00d074	-0.12579519
138	0x407c1931	3.9390376
139	0x4024ff9c	2.5781012
140	0xc0dd2583	-6.910829
141	0xbf777ded	-0.9667652
142	0xbf2b125f	-0.6682491
143	0x3e1fd397	0.15608059
144	0x403e778b	2.9760463
145	0x3fb72156	1.4307048
146	0x3cc24376	0.023713809
147	0xbfd8e717	-1.6945523
148	0x3c9ab2a5	0.018884012
149	0x3e466ca5	0.19377382
150	0x412c186a	10.75596
151	0xc0d4da71	-6.651665
152	0x3e8b5bfd	0.2721862
153	0x4091ad5f	4.5524135
154	0xbc3d6a15	-0.011560936
155	0x3c076db6	0.008265903
156	0x3fb1b96b	1.388471
157	0x3d1cc4e5	0.03827371
158	0x3e1556c5	0.14583881
159	0x3e933a9a	0.28755647
160	0x3f18ba63	0.59659404
161	0x3f0223be	0.5083579
162	0x3e2761e1	0.16345932
163	0x3e550ec5	0.20806415
164	0xbe8273b8	-0.2547891
165	0x3eb6967b	0.35661682
166	0xc027765d	-2.6165993
167	0x3ed2018f	0.41016814
168	0xbd8af23f	-0.06784486
169	0xbe26c456	-0.16285834
170	0xbeb75457	-0.35806534
171	0x3b1f7fd0	0.0024337657
172	0xbe11d1da	-0.14240208
173	0x40336941	2.8032992
174	0x3feb77cd	1.8395935
175	0xc0e7c6d8	-7.243023
176	0xbed63e76	-0.4184453
177	0xbf37564f	-0.7161607
178	0x3dd98098	0.106202304
179	0x40162ab3	2.3463562
180	0x3f96a88c	1.1770186
181	0xbdb99967	-0.09062462
182	0xbfa8a90a	-1.3176587
183	0x3c699515	0.014256735
184	0xbd92568e	-0.07145415
185	0x40fded3d	7.9352098
186	0xc0986881	-4.762757
187	0x3d075aa3	0.033045422
188	0x4032c098	2.793005
189	0x3dc21869	0.09477312
190	0x3e1a04ed	0.15040942
191	0x3f794c3c	0.9738195
192	0x3d547359	0.051867817
193	0xbe184e18	-0.1487354
194	0x3e2c741f	0.16841172
195	0x3f1e443c	0.6182287
196	0x3e9c4752	0.30523163
197	0x3eb3376f	0.3500323
198	0x3e9cd5a9	0.3063176
199	0xbe72f24c	-0.23725241
200	0x3e5e5723	0.21712928
201	0xbfd48be3	-1.660519
202	0x3e08a5ef	0.13344549
203	0x3d90ed53	0.07076516
204	0xbd526d68	-0.05137387
205	0xbf29059f	-0.660242
206	0xbcd010a5	-0.025398562
207	0xbe34cd46	-0.1765643
208	0x4000e0bd	2.013717
209	0x3fbcaef7	1.4740895
210	0xc03b7f4c	-2.9296446
211	0xbf8539ad	-1.0408226
212	0x41df8393	27.939245
213	0x3d91359e	0.07090305
214	0x41a5a429	20.705156
215	0xc2123648	-36.55301
216	0x3ef4a955	0.4778544
217	0x3fc31411	1.5240499
218	0x3f1908d9	0.59779125
219	0x3ebfea6a	0.3748353
220	0xc2104c47	-36.07449
221	0x41e1a890	28.207306
222	0xbfbca90d	-1.473909
223	0xc2606661	-56.09998
224	0x3f493a61	0.78604704
225	0x3e641fcc	0.22277755
226	0xc25e1cc0	-55.528076
227	0x3f86336d	1.0484444
228	0x3f24bb54	0.6434834
229	0x4013ce6f	2.3094747
230	0x3e8adf6f	0.2712359
231	0x40eea389	7.457463
232	0xc00da760	-2.2133408
233	0xc1a6fbab	-20.872885
234	0x3f99fa73	1.2029556
235	0x3de4b5c2	0.1116748
236	0x4113add9	9.229943
237	0xc0354da3	-2.8328636
238	0x40b0b074	5.5215397
239	0x40401cc2	3.0017552
240	0xc006beec	-2.105403
241	0x414f2c97	12.948386
242	0xc11cd20c	-9.801281
243	0xc1b5bdf3	-22.717749
244	0xc1599a6c	-13.600201
245	0xc0ab690f	-5.3565745
246	0xbfbb0b87	-1.4612893
247	0xbf208c55	-0.6271413
248	0xbcc1c26d	-0.02365228
249	0x414ec0f3	12.922107
250	0x407aedf3	3.9207733
251	0xbbc0483d	-0.0058679865
252	0xc0638304	-3.5548716
253	0xbe22143e	-0.15828034
254	0x3e36b087	0.17840777
255	0x4214cc0f	37.199276

fc1.bias f4 [35]
0	0xc0402e26	-3.0028167
1	0xc0d6ce84	-6.7127094
2	0xc0d89b82	-6.768983
3	0xc0de1d1a	-6.9410524
4	0xc0e1b8e7	-7.053821
5	0xc0dff4ce	-6.9986334
6	0xc03a9af9	-2.9157088
7	0xc0a4baa4	-5.1477833
8	0xc0d4454a	-6.633458
9	0xc0329f4b	-2.7909725
10	0xc0e6952c	-7.2057095
11	0xc0c5e5c9	-6.1843
12	0xc0d5b085	-6.677798
13	0xc035a1f0	-2.8380089
14	0xc0c4d920	-6.1515045
15	0xc04a35c2	-3.159531
16	0xc0895100	-4.2911377
17	0xc0dc2297	-6.8792224
18	0xc0c44624	-6.133562
19	0xc09ef571	-4.967461
20	0xc0974a7d	-4.727843
21	0xc0da3e23	-6.820085
22	0xc06bca4f	-3.684223
23	0xc0e6d527	-7.2135196
24	0xc0c198f9	-6.0499234
25	0xc0e99da4	-7.3004932
26	0xc0c511cc	-6.1584225
27	0xc0348053	-2.8203323
28	0xc0e4f73f	-7.1551814
29	0xc0e30d9c	-7.0954113
30	0xc0d370f1	-6.607537
31	0xc036d411	-2.8566935
32	0xc0529a41	-3.290665
33	0xc0e6070a	-7.1883593
34	0xc059ce89	-3.403231

output.weight f4 [1, 35]
0	0xc01f8006	-2.492189
1	0x3f8902b0	1.0703945
2	0x3f90da54	1.1316628
3	0xbf87bb43	-1.0604023
4	0xbf5d20c5	-0.8637813
5	0xbf2774ef	-0.654128
6	0x4025809a	2.5859742
7	0xbfdaab19	-1.7083465
8	0x3f99e945	1.2024313
9	0xc025d1ad	-2.5909226
10	0x3ec4db63	0.3844863
11	0xbfba4f88	-1.4555521
12	0x3f9e5b65	1.2371641
13	0x4027df46	2.6230025
14	0xbfbbd897	-1.4675473
15	0xc016b857	-2.3550012
16	0xbffd99e5	-1.981259
17	0xbf8e158c	-1.1100326
18	0xbfb5e015	-1.420901
19	0xbfe0a6f6	-1.7550952
20	0xbfe71ba5	-1.8055311
21	0x3f82737d	1.0191494
22	0x400a2e2c	2.159068
23	0x3e27e790	0.16396928
24	0x3fb7c501	1.4356996
25	0xbe84749f	-0.25870225
26	0x3fb91647	1.4459924
27	0x402bee3d	2.686416
28	0x3f094735	0.5362428
29	0x3f35af7f	0.7097091
30	0x3f944a7c	1.1585231
31	0xc0254b13	-2.5827072
32	0x40199538	2.3997326
33	0x3f18aaf1	0.59635836
34	0xc01469b0	-2.3189507
