training_nn/model/Theta_net_ep0.pth (torch, 6844 bytes, 3 tensors)

fc1.weight f4 [35, 35]
00000000: 2da2 2fc0 e5ee cbbf 51f3 243e d375 a43e
00000010: b30e 6b41 3cd1 0640 913e 12bf 9d73 d340
00000020: e162 60be de13 7ebd 153c 2142 1199 37c2
00000030: 827a c13f f47f 8042 a689 91be 4a3c 64bf
00000040: 3937 d9bf 0bea 11bf bba3 f13e d86f 9abf
00000050: 2b05 e5bc 10ba 213f e46c bdbb 6eb7 fdc0
00000060: 8999 1cbf bcd5 1040 1872 50c1 e8a5 2c40
00000070: 43e5 b5c0 808c a43e 1a57 0a40 2572 78c0
00000080: 8a12 5941 707f cc41 0493 cc40 7471 dac0
00000090: e421 97c0 78a7 47be 86f8 bb3c 7242 f740
000000a0: b1a7 78bf 419e a73d e122 03be b308 8a3d
000000b0: 32ad f8bc 6f19 5fc1 6c89 3b41 2383 03bd
000000c0: e91d 19c1 a262 30bd 1798 303e 4736 a3c0
000000d0: 3c0b 1c3d 8a0c b93d cb41 85be d653 5b3f
000000e0: b65a dc3e cfc5 49be be56 aabf 480f b33e
000000f0: 598f 86be 1996 8240 226d 01bf 57b9 953e
00000100: 80ab ba3e 1733 12c0 5d1f dbbe eb55 aa3f
00000110: f89e 80c0 cc74 3cc0 c84a d4c0 a6e2 a3c0
00000120: ea6d 0dbe d1dd 3cbe 8e6f 0b41 534d 65bf
00000130: 8224 693e 7c05 63be 11bf 233d a394 ff3d
00000140: 5179 74c1 1384 5c41 4cab b7be f6cf 33c1
00000150: 8cee 4cbe 3e07 123b f8a2 bec0 e2e7 eabd
00000160: c38e 423e 28cf c6bd c859 4f3f eb51 203f
00000170: 12d0 2dbe 82fa babf 7939 cb3d 7d08 abbe
00000180: babd 9040 ea8d 6dbf edb2 193f 4c8e d43e
00000190: c87b 03c0 ff90 81be 3fe6 bb3f add7 9bc0
000001a0: 7073 50c0 6d1c d7c0 0e2e d2bf 24f8 4fbf
000001b0: a125 073e 4ee8 8f40 605d 0640 c89b 7abd
000001c0: f846 19c0 a369 98bd 9803 ce3c 830f 6241
000001d0: 1415 1ac1 5391 983e 2264 ec40 85ee 4fbd
000001e0: 5f66 d9bd 4998 2840 31a6 093e 34c4 35be
000001f0: bb12 b93c d9d1 e33e adb2 1f3f bcaf dd3d
00000200: 5187 073d ca99 63be 3132 983e 9258 67c0
00000210: cb97 003f f774 aebe c55d bcbe 5a6f 15be
00000220: c318 a1be aabb 02be ad1a 7c40 cec7 2440
00000230: f022 ddc0 d38e 75bf 4fe8 2abf 82d4 1f3e
00000240: acfc 3f40 dd0f b73f 8748 c23c b921 d9bf
00000250: 5ec7 9a3c 276f 463e 7f34 2b41 d5da d4c0
00000260: 265c 8b3e 11ad 9140 1726 3dbc 848a 063c
00000270: 9dc5 b13f 07c8 1c3d 6f57 153e 293b 933e
00000280: 7d9a 133f ba64 023f e961 273e cb56 543e
00000290: a572 82be c796 b63e 397d 27c0 b501 d23e
000002a0: a6d4 8abd e1c2 26be 5030 b0be 5e88 273b
000002b0: def6 12be b069 3340 a52a eb3f 61be e6c0
000002c0: ef16 d3be 2246 37bf c281 d93d 9508 1740
000002d0: 79a1 963f e297 b9bd f0c1 a8bf 0fb2 693c
000002e0: 2c53 92bd 01d1 fc40 c768 98c0 2f5b 073d
000002f0: 25c0 3240 be18 c23d 1905 1a3e f155 793f
00000300: 4175 543d a64d 18be e374 2c3e 939b 1b3f
00000310: 7997 9c3e 1738 b33e 0886 9c3e 19f1 72be
00000320: e857 5e3e 1c95 d4bf 34a6 083e 42f7 903d
00000330: 145f 52bd dece 26bf 0b3b cfbc 4a7b 35be
00000340: aee0 0040 b47f bc3f c83b 36c0 9387 23c0
00000350: 5138 3341 6fd9 adbd 4be0 a241 9da2 95c1
00000360: 1c08 1a3f 7fd6 3ac0 5453 9e3e 5103 ed3e
00000370: 8f47 0ec2 44a2 0642 6e3e 97bf b110 5ec2
00000380: ab20 a03e 6241 2b3f 213f 14c2 325a 393f
00000390: 0509 f03e 44ad b33f 3ed3 9c3e 946a 2a40
000003a0: c31e 9abf d5bc 62c1 746a 833f 68cb a8be
000003b0: 7872 4b41 07d7 22c0 b81a 9040 a68e ef3f
000003c0: ffee dcbf 640d 1141 e9fb fbbf e488 b1c1
000003d0: da98 3ec1 8b17 95c0 65a8 01c0 47fa 20bf
000003e0: 6bcf b8bc 276a 5241 f186 7b40 be9d aebb
000003f0: 3de2 7ac0 a977 22be 742e 3f3e 9f0e 1042
-2.7442734 -1.593228 0.16108443 0.32121143 14.691089 2.1065207 -0.5712672 6.607863
-0.2191272 -0.062030666 40.308674 -45.89948 1.5115511 64.24991 -0.2842533 -0.89154494
-1.6969978 -0.56997746 0.4719523 -1.2065382 -0.027956566 0.63174534 -0.005780803 -7.9286413
-0.61171776 2.2630453 -13.027855 2.697626 -5.684236 0.32138443 2.1615663 -3.8819668
13.567026 25.562225 6.3929462 -6.8263493 -4.722887 -0.19497478 0.022945654 7.726861
-0.97130877 0.081844814 -0.12806274 0.067399405 -0.030356023 -13.943709 11.72105 -0.032107484
-9.569802 -0.043062814 0.17245518 -5.1003757 0.03809665 0.09035595 -0.2602676 0.856748
0.43037957 -0.19704364 -1.3307722 0.34972596 -0.2628124 4.0808225 -0.5055715 0.29242966
0.3645897 -2.2843683 -0.42797366 1.330747 -4.0194054 -2.9446287 -6.6341286 -5.121417
-0.1381146 -0.18443991 8.714735 -0.8957111 0.22767833 -0.22170061 0.039977137 0.12479522
-15.279618 13.782245 -0.35872877 -11.238272 -0.20012873 0.0022282149 -5.9573936 -0.114700094
0.18999772 -0.09707481 0.8099637 0.62624997 -0.16973904 -1.4607699 0.099230714 -0.33404914
4.52316 -0.9279467 0.60038644 0.41514814 -2.05443 -0.25305936 1.467964 -4.8700776
-3.2570457 -6.72222 -1.6420305 -0.8123801 0.13197948 4.4971075 2.0994492 -0.06118372
-2.3949566 -0.074420236 0.025148198 14.128787 -9.630146 0.29798374 7.3872232 -0.05076458
-0.10615229 2.6342947 0.13442303 -0.17750627 0.02259194 0.4449604 0.6238201 0.10824534
0.033088032 -0.22226635 0.29725793 -3.614781 0.5023162 -0.34073612 -0.3679029 -0.14593259
-0.31464204 -0.127669 3.9391282 2.574695 -6.910515 -0.9592106 -0.66760725 0.15608409
2.9997969 1.4301716 0.023716224 -1.6963416 0.018893894 0.19378339 10.700316 -6.651713
0.2721874 4.5523763 -0.011544726 0.008211736 1.3888432 0.0382767 0.14584135 0.28756073
0.57657605 0.50934947 0.16345944 0.20736234 -0.25478092 0.3566191 -2.617018 0.41016927
-0.06778841 -0.16285278 -0.3441186 0.002556346 -0.14351985 2.8033257 1.8372389 -7.2107396
-0.41228434 -0.7159139 0.106204525 2.3598988 1.1768028 -0.090621725 -1.3184185 0.014263644
-0.0714477 7.900513 -4.76279 0.033045944 2.7929776 0.094773754 0.15041007 0.9739676
0.051869635 -0.1487337 0.16841464 0.6078426 0.30584314 0.3500373 0.30571008 -0.23724784
0.21713221 -1.6608005 0.13344651 0.07078411 -0.051360205 -0.65159404 -0.025296709 -0.17722812
2.0137134 1.4726472 -2.8473988 -2.5551498 11.201249 -0.08488738 20.359518 -18.704401
0.60168624 -2.9193418 0.3092295 0.46291593 -35.56988 33.658463 -1.1815927 -55.5163
0.31274924 0.6689664 -37.06165 0.7240325 0.4688188 1.4037251 0.30629915 2.662755
-1.2040638 -14.171102 1.0266862 -0.32967687 12.715446 -2.5443742 4.5032616 1.8715408
-1.7260436 9.065769 -1.9686252 -22.191841 -11.912317 -4.659124 -2.025903 -0.6288189
-0.022559842 13.150916 3.9301112 -0.005328863 -3.9200585 -0.15865959 0.18670064 36.01428

fc1.bias f4 [35]
00000000: c844 35c0 94d4 d5c0 e798 d7c0 1ca6 dec0
00000010: 54b6 e1c0 57ec dec0 7557 35c0 2069 8ec0
00000020: a6e7 d2c0 b562 2cc0 7837 e4c0 3ee6 b5c0
00000030: 6deb d3c0 0092 32c0 c94b b5c0 436d 39c0
00000040: 557b 6dc0 f2be dcc0 56ca b9c0 a09a 88c0
00000050: 6589 81c0 f256 d9c0 ce19 4fc0 992a e4c0
00000060: 2910 b3c0 f936 e7c0 898f b6c0 ec13 35c0
00000070: f5fe e2c0 ba7f e1c0 6353 d2c0 4ad4 30c0
00000080: 72a2 43c0 f833 e4c0 f5bf 44c0
-2.832323 -6.6821995 -6.737415 -6.957777 -7.053507 -6.96635 -2.833463 -4.4503326
-6.5907774 -2.6935246 -7.131771 -5.6843557 -6.6224885 -2.7901611 -5.665501 -2.8972938
-3.7106526 -6.8983088 -5.805949 -4.268875 -4.048022 -6.7918634 -3.23595 -7.1302
-5.5957227 -7.2254605 -5.7050214 -2.829341 -7.0936227 -7.0468416 -6.572679 -2.762957
-3.0567899 -7.131344 -3.0742161

output.weight f4 [1, 35]
00000000: 4865 fcbf 118e 4a3f 9ca7 513f 1a03 41bf
00000010: c91c 1fbf 09a1 f3be 1e9e ff3f 7d65 bbbf
00000020: 5645 5a3f 7d7b 01c0 8cd4 9d3e d510 89bf
00000030: c879 5c3f d2aa 0040 ec37 8abf 2489 f1bf
00000040: e732 ddbf 3935 48bf d1d0 7cbf 213f c3bf
00000050: b107 cabf 51dc 423f 0b93 eb3f 32c4 0d3e
00000060: cfda 873f 982e 40be 3600 893f 2c90 0140
00000070: 95fd d73e 5578 0d3f c832 553f ad8f 00c0
00000080: 1249 f53f 8192 ef3e 6928 f5bf
-1.9718409 0.79123026 0.81896377 -0.7539536 -0.621533 -0.47583798 1.9970129 -1.4640347
0.8526205 -2.0231621 0.30826223 -1.0708262 0.86123323 2.010426 -1.0798316 -1.8869977
-1.7281159 -0.7820621 -0.9875613 -1.525364 -1.5783597 0.76117426 1.8404249 0.13844374
1.061365 -0.18767774 1.0703189 2.0244246 0.42185655 0.5526174 0.8328061 -2.0087693
1.9162924 0.4679146 -1.9152957
