training_nn/model/Theta_net_ep4.pth (torch, 25366 bytes, 7 tensors)

fc1.weight f4 [70, 35]
-5.1091695 2.411031 -0.05079972 -0.07287408 -1.607147 -0.046324354 0.04651369 -0.17117962
-0.13414474 0.06305893 14.409095 -0.207105 0.14658038 0.08177412 0.09556354 0.08612335
-0.056655485 0.0049815574 -0.0396687 0.06374545 1.0999331 -0.115874924 -0.0813152 0.13418214
-0.07099564 0.08271917 -1.4042687 0.14497547 -0.116516024 -0.12196069 -0.5790338 -0.06763515
-0.041071534 0.15644294 1.0681728 -5.0711746 5.7930236 -0.32889134 -0.11338196 -3.9275646
0.11754083 0.011406794 0.032166768 0.0045239218 0.01708394 17.8989 -0.8946804 -0.078023404
0.63291943 0.018540384 0.07576708 0.44413856 -0.08345481 -0.102110945 -0.0024601237 1.4832343
-0.21466693 0.038078886 0.13800474 -0.114798985 0.0055147936 -2.3494546 -0.031815495 -0.14894089
-0.10087603 -0.71241844 0.17249915 -0.353231 0.7715014 2.4005084 -3.6213806 -13.701323
-0.04686971 0.1867294 14.653584 2.6123981 -0.11693967 -4.8317275 -0.13583134 0.09517365
52.98988 -15.766236 0.19837193 14.027428 0.17189963 -0.10028549 5.8950243 0.10983144
-0.08671519 0.11645943 0.25258583 -0.13016492 0.15033765 -1.9919524 0.048469566 0.44206724
-11.051219 0.24615066 -0.27935085 -0.09726761 2.9095607 0.3598473 2.1338181 6.53092
8.075284 -4.849855 4.2021375 -0.31832924 -0.039057646 -1.8153081 0.60853845 -0.11314649
-0.36670592 0.11128428 -0.1458823 23.35808 -3.1264954 0.12172041 2.1275961 -0.02279236
0.12496408 1.6574564 0.11390333 0.048815675 -0.057606354 1.3017266 -0.07852233 -0.1006645
0.07654804 -0.12660177 0.20749538 -4.4960604 0.08501585 -0.025653861 0.13101147 0.3449965
0.18982328 -0.3368818 1.5018277 3.8280523 -5.1779814 0.79811597 -0.14481704 0.009646958
0.37801796 0.028974352 -0.05288258 -0.14429414 -0.04092712 0.053037565 1.1960034 0.21003257
-0.14183623 -0.059811804 -0.0953191 -0.117898665 -0.31549987 -0.0750921 -0.0012376518 -0.15927611
1.4670612 0.09965475 0.10332388 -0.043786056 -0.0444983 0.121709034 0.30876642 -0.06650163
0.09160449 -0.100753486 -2.7225628 0.080562405 0.28756335 -0.14838138 0.28762415 -1.8532827
-18.11527 1.9292817 0.24828072 19.27574 3.1349747 0.08164008 -1.5826509 0.067207545
0.029667491 66.69054 -27.062931 0.13151257 24.817394 0.13199684 -0.17972705 9.193757
0.0076882853 0.15978979 0.11646565 0.123912096 -6.890252 -0.13054332 -7.478302 -0.015940472
0.8341399 -14.600493 0.22918724 -0.89508146 -0.12769158 3.5611682 4.0521398 11.962159
10.120086 8.552573 -2.609373 -18.155993 0.8158719 0.10947617 17.877722 3.1228535
-0.15406983 -4.2192807 -0.055859365 -0.02320461 62.453068 -20.180145 0.19028273 18.444185
0.10973329 -0.051923104 7.0727124 -0.23216735 -0.04128403 -0.032346968 0.4275781 -2.6676562
0.1504283 -4.6356983 0.087441385 0.697174 -12.514738 0.35129234 -0.530959 -0.22303486
2.9153676 1.4824538 6.0297194 8.196668 8.743827 -1.1957241 -19.214296 15.464418
0.012746818 20.719688 -16.464682 0.39045995 -8.7883415 -0.161372 0.38525513 -55.744514
00000000: 517e a3c0 554e 1a40 5e13 50bd 013f 95bd
00000010: feb6 cdbf 9bbe 3dbd 2485 3e3d b649 2fbe
00000020: 3d5d 09be 0a25 813d a78b 6641 5513 54be
00000030: 2b19 163e 3179 a73d d1b6 c33d 7061 b03d
00000040: 950f 68bd 553c a33b a67b 22bd f98c 823d
00000050: 9cca 8c3f d54f edbd 9588 a6bd 0b67 093e
00000060: 2966 91bd ab68 a93d 14bf b3bf 7374 143e
00000070: f49f eebd 87c6 f9bd 8f3b 14bf 4c84 8abd
00000080: a03a 28bd 9432 203e e3b9 883f 1047 a2c0
00000090: 7360 b940 7264 a8be cd34 e8bd 385d 7bc0
000000a0: 3fb9 f03d 90e3 3a3c 4dc1 033d 683d 943b
000000b0: 9ef3 8b3c f230 8f41 c609 65bf bcca 9fbd
000000c0: 0207 223f 01e2 973c c52b 9b3d 2166 e33e
000000d0: 5bea aabd 8b1f d1bd 073a 21bb 9fda bd3f
000000e0: a6d1 5bbe 9bf8 1b3d 1d51 0d3e bb1b ebbd
000000f0: 71b5 b43b 775d 16c0 f750 02bd f683 18be
00000100: 1898 cebd 0e61 36bf 9ea3 303e b2da b4be
00000110: 1e81 453f eea1 1940 b3c4 67c0 9e38 5bc1
00000120: 74fa 3fbd fe35 3f3e 1475 6a41 8831 2740
00000130: 117e efbd 839d 9ac0 5f17 0bbe 67ea c23d
00000140: a3f5 5342 8142 7cc1 0322 4b3e 5870 6041
00000150: 7506 303e 7b62 cdbd 0aa4 bc40 4eef e03d
00000160: bc97 b1bd 4882 ee3d ee52 813e f449 05be
00000170: 1df2 193e 4cf8 febf 0688 463d a356 e23e
00000180: cbd1 30c1 eb0e 7c3e 1307 8fbe 3e34 c7bd
00000190: 3e36 3a40 e83d b83e 7a90 0840 4cfd d040
000001a0: 5d34 0141 0332 9bc0 e977 8640 0dfc a2be
000001b0: e9fa 1fbd 045c e8bf 2dc9 1b3f 59b9 e7bd
000001c0: e1c0 bbbe 03e9 e33d 2b62 15be 59dd ba41
000001d0: 8018 48c0 8d48 f93d 892a 0840 0bb7 babc
000001e0: 2bed ff3d 8827 d43f 2646 e93d f2f2 473d
000001f0: a4f4 6bbd fa9e a63f 51d0 a0bd 3029 cebd
00000200: 38c5 9c3d e5a3 01be ab79 543e badf 8fc0
00000210: ca1c ae3d 0c28 d2bc df27 063e 62a3 b03e
00000220: 0961 423e c57b acbe e43b c03f cffe 7440
00000230: 06b2 a5c0 5451 4c3f eb4a 14be 460e 1e3c
00000240: 928b c13e 9f5b ed3c 679b 58bd d8c1 13be
00000250: 32a3 27bd eb3d 593d a416 993f c712 573e
00000260: 843d 11be 39fd 74bd a936 c3bd db74 f1bd
00000270: 3389 a1be e3c9 99bd b438 a2ba 4719 23be
00000280: a9c8 bb3f ca17 cc3d 789b d33d 0259 33bd
00000290: d943 36bd 9642 f93d a216 9e3e 0232 88bd
000002a0: 239b bb3d d857 cebd 783e 2ec0 e7fd a43d
000002b0: 813b 933e 4af1 17be 7943 933e 5e38 edbf
000002c0: 13ec 90c1 b4f2 f63f 4d3d 7e3e b734 9a41
000002d0: 6da3 4840 ea32 a73d 4e94 cabf 1ca4 893d
000002e0: 3d09 f33c 8e61 8542 e280 d8c1 3bab 063e
000002f0: 068a c641 2e2a 073e 5e0a 38be a119 1341
00000300: 03ee fb3b ef9f 233e 8b85 ee3d a0c5 fd3d
00000310: f27c dcc0 26ad 05be 404e efc0 9895 82bc
00000320: 318a 553f 9f9b 69c1 0fb0 6a3e 0f24 65bf
00000330: 95c1 02be 2eea 6340 21ab 8140 0165 3f41
00000340: dfeb 2141 57d7 0841 f8ff 26c0 793f 91c1
00000350: fbdc 503f 0b35 e03d 9305 8f41 d5dc 4740
00000360: 7bc4 1dbe 5904 87c0 cacc 64bd 9817 bebc
00000370: f1cf 7942 f070 a1c1 7ad9 423e b18d 9341
00000380: d9bb e03d 52ad 54bd a953 e240 47bd 6dbe
00000390: 7119 29bd 417e 04bd 84eb da3e e1ba 2ac0
000003a0: e009 1a3e a457 94c0 7814 b33d ff79 323f
000003b0: 5e3c 48c1 97dc b33e eeec 07bf 4063 64be
000003c0: 6295 3a40 0cc1 bd3f 76f3 c040 8d25 0341
000003d0: b7e6 0b41 7d0d 99bf e1b6 99c1 426e 7741
000003e0: 08d8 503c ecc1 a541 abb7 83c1 5eea c73e
000003f0: 0c9d 0cc1 b43e 25be 2940 c53e 62fa 5ec2

fc1.bias f4 [70]
-4.9374323 -4.753225 -3.694231 -4.712513 -5.028162 -1.9755301 -2.4482248 -1.0420713
-5.1874795 -1.648567 -4.5742426 -4.9683785 -4.5883408 -5.0202394 -5.2981853 -5.021189
-4.7677956 -4.6847873 -4.5836973 -5.1254153 -1.9627417 -4.4246244 -2.5591762 -5.0751457
-1.6234697 -1.704448 -1.7680553 -4.9171147 -5.060643 -4.8209796 -5.2252126 -4.7869816
-5.09938 -5.21582 -5.1668634 -1.5014578 -1.0659846 -4.4430003 -5.0563912 -4.783239
-5.169895 -4.653135 -5.0089016 -1.8113173 -5.134146 -4.0474086 -5.1098943 -5.0195837
-1.8166385 -5.0568285 -4.9860563 -4.371776 -5.0283923 -5.2346644 -5.16024 -5.149599
-4.82812 -1.7023602 -5.1627507 -5.2472563 -5.014303 -4.640025 -5.1082315 -4.4220095
-1.7160611 -5.094731 -5.21864 -4.583507 -4.881913 -4.180767
00000000: 72ff 9dc0 6b1a 98c0 486e 6cc0 e8cc 96c0
00000010: b4e6 a0c0 2cde fcbf b7af 1cc0 9862 85bf
00000020: d5ff a5c0 3e04 d3bf 3260 92c0 f5fc 9ec0
00000030: b0d3 92c0 cda5 a0c0 bc8a a9c0 95ad a0c0
00000040: c891 98c0 c7e9 95c0 a6ad 92c0 6703 a4c0
00000050: 1f3b fbbf 8696 8dc0 8bc9 23c0 9867 a2c0
00000060: dbcd cfbf 5a2b dabf a34f e2bf 0159 9dc0
00000070: caf0 a1c0 7745 9ac0 f134 a7c0 f42e 99c0
00000080: 1f2e a3c0 ffe7 a6c0 f256 a5c0 c52f c0bf
00000090: 2f72 88bf 0f2d 8ec0 f5cd a1c0 4b10 99c0
000000a0: c86f a5c0 7be6 94c0 ec48 a0c0 3fd9 e7bf
000000b0: ed4a a4c0 5f84 81c0 4184 a3c0 6ea0 a0c0
000000c0: 9c87 e8bf 8ad1 a1c0 c68d 9fc0 97e5 8bc0
000000d0: 97e8 a0c0 5f82 a7c0 b020 a5c0 84c9 a4c0
000000e0: f67f 9ac0 f0e6 d9bf 4135 a5c0 86e9 a7c0
000000f0: 2c75 a0c0 167b 94c0 a276 a3c0 1a81 8dc0
00000100: e4a7 dbbf 0908 a3c0 19ff a6c0 17ac 92c0
00000110: a238 9cc0 d8c8 85c0

fc2.weight f4 [35, 70]
-0.5734393 -0.6643128 -2.6714067 -0.80392957 -0.6798921 -3.2562764 -3.1283574 -4.1312823
-0.4146227 -3.77178 -1.4144889 -0.67422414 -1.8753386 -0.7901272 -0.6058135 -0.5068783
-1.064012 -1.0010291 -0.7836161 -0.35470337 -3.2910798 -2.0198488 -2.9091976 -0.406578
-3.5966408 -3.3111196 -3.5748923 -0.6248003 -0.72476065 -0.9939725 -0.3818032 -0.65034914
-0.46965107 -0.41960517 -0.34779623 -2.6061301 -4.664118 -1.8264925 -0.71856153 -0.54397684
-0.430856 -0.9135663 -0.6750487 -3.4363518 -0.30951533 -2.4268992 -0.3214256 -0.7455307
-3.5298088 -0.37961766 -0.32642594 -2.1356623 -0.7070188 -0.3089974 -0.30706432 -0.7142827
-0.54524696 -3.2840457 -0.5012683 -0.34113687 -0.58757496 -1.0928692 -0.6899046 -1.9571648
-3.4849868 -0.41224968 -0.4326275 -1.8153747 -0.54359585 -2.3163238 -0.74797726 -0.92656946
-3.1624115 -0.98689234 -0.7972655 -4.599579 -3.9297738 -3.5103784 -0.45034778 -5.2732134
-1.2935185 -0.9312952 -1.8229111 -0.83988273 -0.6198066 -0.33984601 -1.0204245 -1.0274191
-1.0005533 -0.3163111 -4.589099 -2.065541 -3.6494203 -0.27133504 -5.0841513 -4.5747294
-4.8686366 -0.6884397 -0.6596639 -0.9645301 -0.4470861 -0.8430204 -0.64047277 -0.38065934
-0.30709806 -2.4131846 -4.0574574 -2.2145348 -0.9609565 -0.9600177 -0.546006 -0.84711206
-0.6666232 -4.771181 -0.36639774 -2.812647 -0.39704764 -0.8861042 -4.8338923 -0.3293272
-0.2869827 -2.2085366 -0.94082904 -0.43805835 -0.2898956 -0.93412864 -1.0753622 -4.2491035
-0.427732 -0.31559712 -0.62084097 -1.0979625 -0.71965134 -2.0175045 -4.879499 -0.574371
-0.44710353 -1.850064 -1.0659871 -2.7431402 -0.68227655 -0.77495825 -2.5603096 -0.74867445
-0.75970924 -3.177747 -2.7733974 -4.247559 -0.5249413 -3.2699025 -1.2304587 -0.71283776
-1.7125924 -0.72762525 -0.6099765 -0.486392 -0.89090884 -1.0248977 -1.0550185 -0.26446307
-3.083259 -1.8335211 -2.7737794 -0.33311215 -3.2889433 -3.001792 -3.3535686 -0.6461714
-0.7859792 -1.158157 -0.4318974 -0.7756116 -0.57076085 -0.5057899 -0.27751368 -2.7462165
-4.604543 -1.8699586 -0.7671058 -0.614803 -0.40380046 -1.0767472 -0.55189747 -3.0596786
-0.38904378 -2.4188542 -0.32842374 -0.591593 -3.193718 -0.41134268 -0.29706362 -1.9184728
-0.5942612 -0.49967042 -0.3232406 -0.59866905 -0.5720582 -2.949659 -0.3962206 -0.3477705
-0.7060098 -1.2581575 -0.6772872 -1.8165908 -3.1704073 -0.4140844 -0.2590855 -1.7757697
-0.78256786 -2.3450332 -0.5904937 -0.6324777 -1.3652135 -0.624411 -0.49364185 -1.042431
-1.5392568 -7.444984 -0.36466122 -0.22551228 -0.800482 -0.5543283 -1.1142876 -0.6523205
-0.51730216 -0.28823018 -0.6003775 -0.6763748 -0.69905967 -0.24357836 -0.9070168 -1.3129032
-1.4485408 -0.25259528 -0.58933485 -0.96455705 -0.4221968 -0.55984724 -0.59670997 -0.661685
-0.23268019 -0.6030374 -0.5039345 -0.32200947 -0.24402559 -4.3347855 -8.099918 -1.203913
-0.57557636 -0.56418943 -0.30163166 -0.697112 -0.5722798 -0.81441826 -0.22753452 -1.5389535
00000000: ebcc 12bf 6710 2abf 54f8 2ac0 54ce 4dbf
00000010: 690d 2ebf d566 50c0 0237 48c0 7733 84c0
00000020: 6d49 d4be d864 71c0 f90d b5bf f499 2cbf
00000030: 180b f0bf c745 4abf 9816 1bbf c7c2 01bf
00000040: 8c31 88bf b921 80bf 119b 48bf ae9b b5be
00000050: 0da1 52c0 3445 01c0 4b30 3ac0 fe2a d0be
00000060: 5d2f 66c0 62e9 53c0 09cb 64c0 eaf2 1fbf
00000070: ea89 39bf fb74 7ebf b67b c3be 487d 26bf
00000080: 1b76 f0be 7dd6 d6be 5912 b2be d6ca 26c0
00000090: 7440 95c0 82ca e9bf a6f3 37bf 1142 0bbf
000000a0: 2899 dcbe 7bdf 69bf fecf 2cbf 30ed 5bc0
000000b0: cb78 9ebe 5152 1bc0 e591 a4be 1adb 3ebf
000000c0: 63e8 61c0 3f5d c2be 4d21 a7be b1ae 08c0
000000d0: 2fff 34bf e834 9ebe 8937 9dbe 3bdb 36bf
000000e0: 4e95 0bbf ce2d 52c0 1f53 00bf 7ea9 aebe
000000f0: 506b 16bf 23e3 8bbf 969d 30bf 6084 fabf
00000100: 060a 5fc0 6412 d3be 5a81 ddbe 335e e8bf
00000110: 1929 0bbf a63e 14c0 707b 3fbf a833 6dbf
00000120: f364 4ac0 faa4 7cbf 9819 4cbf c02f 93c0
00000130: 6a81 7bc0 0aaa 60c0 fc93 e6be 2abe a8c0
00000140: 0492 a5bf 5d69 6ebf 2755 e9bf 8e02 57bf
00000150: a5ab 1ebf 4c00 aebe 459d 82bf 7882 83bf
00000160: 2112 80bf 87f3 a1be e6d9 92c0 d331 04c0
00000170: 1a90 69c0 6dec 8abe 5eb1 a2c0 2f64 92c0
00000180: dfcb 9bc0 963d 30bf bcdf 28bf 72eb 76bf
00000190: 78e8 e4be 2fd0 57bf 06f6 23bf c8e5 c2be
000001a0: f53b 9dbe 9e71 1ac0 b1d6 81c0 f0ba 0dc0
000001b0: 3f01 76bf b8c3 75bf 0dc7 0bbf 56dc 58bf
000001c0: d1a7 2abf 84ad 98c0 7c98 bbbe 6902 34c0
000001d0: d449 cbbe bad7 62bf 3faf 9ac0 939d a8be
000001e0: 65ef 92be aa58 0dc0 2cda 70bf 2f49 e0be
000001f0: 326d 94be 0e23 6fbf 78a5 89bf a8f8 87c0
00000200: b0ff dabe f295 a1be 6fef 1ebf 098a 8cbf
00000210: 123b 38bf cb1e 01c0 db24 9cc0 fa09 13bf
00000220: c1ea e4be e6ce ecbf 4472 88bf 9c8f 2fc0
00000230: ada9 2ebf aa63 46bf 1ddc 23c0 21a9 3fbf
00000240: 4e7c 42bf 3560 4bc0 587f 31c0 01ec 87c0
00000250: 8e62 06bf 1546 51c0 ac7f 9dbf 897c 36bf
00000260: 3a36 dbbf a645 3abf 6b27 1cbf 5f08 f9be
00000270: 9a12 64bf d92f 83bf d90a 87bf b467 87be
00000280: 1e54 45c0 d2b0 eabf 9a85 31c0 ad8d aabe
00000290: 0c7e 52c0 5c1d 40c0 dea0 56c0 7d6b 25bf
000002a0: ef35 49bf 7d3e 94bf a821 ddbe 7b8e 46bf
000002b0: 621d 12bf 727b 01bf 4616 8ebe 03c2 2fc0
000002c0: 6b58 93c0 ce5a efbf 0c61 44bf bb63 1dbf
000002d0: efbe cebe dad2 89bf 2749 0dbf c6d1 43c0
000002e0: bf30 c7be 82ce 1ac0 2827 a8be a472 17bf
000002f0: e065 4cc0 829b d2be b918 98be 8490 f5bf
00000300: 8121 18bf cdd4 ffbe cb7f a5be 6042 19bf
00000310: 6872 12bf 37c7 3cc0 6ddd cabe fa0e b2be
00000320: 0fbd 34bf 4e0b a1bf b262 2dbf 0c86 e8bf
00000330: f4e7 4ac0 df02 d4be dba6 84be 6c4c e3bf
00000340: 5e56 48bf 0615 16c0 982a 17bf 0fea 21bf
00000350: 51bf aebf 66d9 1fbf a0be fcbe 616e 85bf
00000360: 5e06 c5bf 4f3d eec0 e0b4 babe b1ec 66be
00000370: 63ec 4cbf 76e8 0dbf faa0 8ebf 7afe 26bf
00000380: ea6d 04bf e892 93be 57b2 19bf e626 2dbf
00000390: 93f5 32bf 9b6c 79be 4132 68bf 360d a8bf
000003a0: c969 b9bf 2b54 81be a6de 16bf 36ed 76bf
000003b0: 2e2a d8be 2652 0fbf fcc1 18bf 3064 29bf
000003c0: b743 6ebe a960 1abf da01 01bf 6dde a4be
000003d0: d8e1 79be 90b6 8ac0 4499 01c1 d219 9abf
000003e0: f958 13bf b86e 10bf 776f 9abe ef75 32bf
000003f0: ee80 12bf b77d 50bf cffe 68be 6efc c4bf

fc2.bias f4 [35]
-8.323753 -8.504663 -8.255743 -5.085373 -8.483862 -3.9738293 -5.1803384 -8.329681
-4.691297 -1.0851876 -8.445201 -2.667038 -8.571733 -8.4841175 -8.422673 -2.8511264
-2.4413407 -4.173873 -3.8980453 -2.9546762 -3.2245216 -8.599538 -8.616405 -4.3897767
-8.140014 -4.814879 -8.605205 -8.544204 -6.5025444 -7.273687 -8.453452 -3.9591649
-4.208631 -8.323208 -8.429664
00000000: 182e 05c1 1a13 08c1 8617 04c1 60bb a2c0
00000010: e6bd 07c1 3853 7ec0 55c5 a5c0 6046 05c1
00000020: 1b1f 96c0 6de7 8abf 8b1f 07c1 c0b0 2ac0
00000030: d225 09c1 f2be 07c1 45c3 06c1 db78 36c0
00000040: ed3e 1cc0 5e90 85c0 9379 79c0 6a19 3dc0
00000050: 905e 4ec0 b597 09c1 cbdc 09c1 0d79 8cc0
00000060: 7f3d 02c1 7d13 9ac0 ebae 09c1 0fb5 08c1
00000070: d814 d0c0 0bc2 e8c0 5741 07c1 f562 7dc0
00000080: 1bad 86c0 dc2b 05c1 e7df 06c1

fc3.weight f4 [17, 35]
-6.196056 -5.9118805 -5.55686 -4.3054104 -6.4458957 -5.8620224 -2.8198125 -6.0764804
-4.701923 -8.513702 -5.9268217 -7.220506 -5.769693 -6.5787463 -6.7472878 -7.163895
-7.4017158 -5.4080143 -6.757577 -6.92539 -7.0947523 -5.3295374 -5.8759737 -4.849526
-6.010235 -3.5585084 -5.8255744 -4.817349 -6.571807 -7.365146 -6.139783 -6.9165454
-4.950507 -5.7907414 -6.7742085 -6.080551 -5.9532533 -5.5438666 -4.192829 -6.2620134
-5.421627 -2.7229927 -5.9251614 -4.5390544 -8.278235 -5.8358173 -7.063505 -5.6280074
-6.38528 -6.9312234 -7.029838 -7.1223555 -5.1886578 -6.54996 -6.6679134 -6.618002
-5.3375545 -5.626465 -4.8569 -5.7811728 -3.3184578 -5.530275 -4.5231643 -6.593171
-7.213009 -6.084006 -6.674033 -4.609774 -5.5895658 -6.7029624 -3.5418284 -3.5927186
-3.1178384 -2.6178732 -3.3412135 -4.8307776 -1.2786609 -3.427436 -2.4374328 -4.8725357
-3.4429948 -6.5094075 -3.2192874 -3.646889 -3.8298163 -6.613425 -6.472803 -4.4518323
-2.6161475 -6.2305865 -5.701668 -2.9525595 -3.4571362 -3.8396711 -3.1504674 -1.7059339
-3.3426373 -2.740979 -3.8628125 -3.6564112 -3.6136994 -3.870864 -4.3648033 -2.9844527
-3.6522474 -5.080192 -4.9668007 -4.6122255 -3.4211423 -5.640928 -5.0344286 -2.0916045
-5.043286 -3.4762297 -6.9230266 -4.960938 -6.5573635 -4.535124 -5.23349 -5.968534
-6.0166373 -6.6121244 -4.289484 -5.265814 -5.4898424 -5.7609425 -4.280443 -4.631425
-4.059404 -4.7736654 -2.5384183 -4.6581464 -4.100842 -5.586006 -6.10326 -5.0635467
-5.804747 -4.205052 -4.75653 -5.888626 -0.80983275 -0.14872827 -0.97933567 -3.1061952
-0.471526 -1.7218829 -3.0552797 -0.8686651 -3.2798405 4.191338 -0.06677824 -2.3741343
-0.5645655 -0.2657587 -0.5661488 -2.9338777 -2.3034117 -2.1177332 -3.2379005 -2.472712
-1.8047351 -0.59183013 -0.351953 -2.8576152 -1.0924345 -3.2254484 -0.24267 -0.803768
1.3075868 -1.6683418 -0.63935494 2.9019892 -1.9504361 -0.93342984 -0.55893034 -5.630976
-5.602327 -5.0123253 -3.5887308 -5.998773 -4.9571195 -2.3061538 -5.6353335 -4.182677
-7.4992876 -5.4378448 -6.6481924 -5.012749 -5.856227 -6.3875694 -6.567807 -6.738344
-4.6715517 -5.939369 -6.2752585 -5.9186454 -4.7181416 -5.23146 -4.404306 -5.4793935
-2.7855463 -5.286066 -4.319553 -5.9737787 -6.6479497 -5.4114947 -6.0713277 -4.3620796
-4.997293 -6.24585 -5.1245995 -4.859021 -4.430455 -3.3311827 -5.261591 -4.745225
-1.931785 -5.003164 -3.4097636 -6.9641137 -4.8554754 -6.337598 -4.5828342 -5.4366474
-5.8408875 -6.03097 -6.1675715 -4.450336 -5.0179696 -5.5549664 -5.562024 -4.5004187
-4.5234656 -3.9288535 -4.6039762 -2.5620816 -4.6685514 -3.7727983 -5.4960794 -5.765125
-5.0736 -5.632295 -4.0154586 -4.820119 -5.690311 -5.1100473 -4.7722464 -4.6312747
-3.196818 -5.407912 -4.673828 -1.9910574 -4.973059 -3.7535803 -6.9037943 -5.004564
00000000: 1746 c6c0 202e bdc0 ccd1 b1c0 ecc5 89c0
00000010: c744 cec0 b095 bbc0 cf77 34c0 8772 c2c0
00000020: 2776 96c0 2038 08c1 86a8 bdc0 630e e7c0
00000030: 53a1 b8c0 1785 d2c0 c8e9 d7c0 a13e e5c0
00000040: dbda ecc0 740e adc0 123e d8c0 cb9c ddc0
00000050: 3608 e3c0 928b aac0 fa07 bcc0 512f 9bc0
00000060: d853 c0c0 9abe 63c0 1b6b bac0 b927 9ac0
00000070: 3e4c d2c0 47af ebc0 1a79 c4c0 5754 ddc0
00000080: 8e6a 9ec0 c14d b9c0 51c6 d8c0 e093 c2c0
00000090: 0d81 bec0 5b67 b1c0 a82b 86c0 6a62 c8c0
000000a0: f87d adc0 8345 2ec0 ec9a bdc0 ef3f 91c0
000000b0: a773 04c1 04bf bac0 3c08 e2c0 a318 b4c0
000000c0: 3754 ccc0 95cc ddc0 6ff4 e0c0 56ea e3c0
000000d0: 7c09 a6c0 4699 d1c0 8c5f d5c0 acc6 d3c0
000000e0: 3fcd aac0 000c b4c0 ba6b 9bc0 5eff b8c0
000000f0: 9d61 54c0 03f8 b0c0 c3bd 90c0 42fb d2c0
00000100: f8d0 e6c0 2db0 c2c0 ae91 d5c0 4583 93c0
00000110: b9dd b2c0 ab7e d6c0 51ad 62c0 1aef 65c0
00000120: aa8a 47c0 3c8b 27c0 71d6 55c0 bb95 9ac0
00000130: 29ab a3bf 1d5b 5bc0 e6fe 1bc0 d0eb 9bc0
00000140: 075a 5cc0 114d d0c0 ce08 4ec0 a166 69c0
00000150: b61b 75c0 2da1 d3c0 3421 cfc0 6975 8ec0
00000160: f66e 27c0 f760 c7c0 1074 b6c0 bcf6 3cc0
00000170: b841 5dc0 2cbd 75c0 42a1 49c0 0b5c dabf
00000180: c5ed 55c0 336c 2fc0 5238 77c0 a402 6ac0
00000190: da46 67c0 3cbc 77c0 78ac 8bc0 4601 3fc0
000001a0: 6cbe 69c0 ef90 a2c0 08f0 9ec0 5a97 93c0
000001b0: fff3 5ac0 7b82 b4c0 0a1a a1c0 d9dc 05c0
000001c0: 9962 a1c0 8c7a 5ec0 6f89 ddc0 01c0 9ec0
000001d0: ecd5 d1c0 bc1f 91c0 c078 a7c0 3bfe bec0
000001e0: 4b88 c0c0 8696 d3c0 7443 89c0 8c81 a8c0
000001f0: caac afc0 a459 b8c0 64f9 88c0 a234 94c0
00000200: a3e6 81c0 dec1 98c0 7275 22c0 890f 95c0
00000210: 193a 83c0 90c0 b2c0 e84d c3c0 9308 a2c0
00000220: 7dc0 b9c0 c98f 86c0 7e35 98c0 a06f bcc0
00000230: 3351 4fbf 394c 18be beb5 7abf e7cb 46c0
00000240: db6b f1be a966 dcbf b489 43c0 d660 5ebf
00000250: e8e8 51c0 711f 8640 08c3 88bd d1f1 17c0
00000260: 5d87 10bf 8611 88be 21ef 10bf a7c4 3bc0
00000270: 196b 13c0 f188 07c0 c339 4fc0 ea40 1ec0
00000280: 8f01 e7bf 2e82 17bf 2f33 b4be 2be3 36c0
00000290: e5d4 8bbf bf6d 4ec0 7c7e 78be bdc3 4dbf
000002a0: 015f a73f 398c d5bf c4ac 23bf 31ba 3940
000002b0: e4a7 f9bf 42f5 6ebf 0f16 0fbf f530 b4c0
000002c0: 4346 b3c0 f864 a0c0 c4ad 65c0 f3f5 bfc0
000002d0: b9a0 9ec0 0698 13c0 a754 b4c0 7dd8 85c0
000002e0: 2afa efc0 d302 aec0 febd d4c0 7168 a0c0
000002f0: 3666 bbc0 f866 ccc0 7a2b d2c0 84a0 d7c0
00000300: 5a7d 95c0 500f bec0 ebce c8c0 8b65 bdc0
00000310: 04fb 96c0 1f68 a7c0 13f0 8cc0 3157 afc0
00000320: 6446 32c0 7427 a9c0 c739 8ac0 3229 bfc0
00000330: 01bc d4c0 f72a adc0 5148 c2c0 2896 8bc0
00000340: d3e9 9fc0 01de c7c0 b8fc a3c0 1a7d 9bc0
00000350: 4ac6 8dc0 1932 55c0 f45e a8c0 e2d8 97c0
00000360: bb44 f7bf eb19 a0c0 9139 5ac0 05da dec0
00000370: 0e60 9bc0 9acd cac0 94a6 92c0 04f9 adc0
00000380: 8de8 bac0 b5fd c0c0 bf5c c5c0 2769 8ec0
00000390: 3593 a0c0 49c2 b1c0 1afc b1c0 6e03 90c0
000003a0: 3bc0 90c0 5672 7bc0 c653 93c0 25f9 23c0
000003b0: c664 95c0 8775 71c0 e2df afc0 e77b b8c0
000003c0: ee5a a2c0 c33b b4c0 a37e 80c0 6a3e 9ac0
000003d0: 0717 b6c0 8285 a3c0 3eb6 98c0 6733 94c0
000003e0: ab98 4cc0 9d0d adc0 0090 95c0 f8da febf
000003f0: 4d23 9fc0 a93a 70c0 e2eb dcc0 6325 a0c0

fc3.bias f4 [17]
-7.2221184 -7.7476053 -8.710485 -8.764523 -3.3072448 -8.411611 -8.989392 -8.992649
-8.991276 -8.881173 -8.517645 -8.76738 -8.703702 -9.705335 -8.555753 -8.904577
-8.058521
00000000: 981b e7c0 62ec f7c0 265e 0bc1 7c3b 0cc1
00000010: e6a9 53c0 f595 06c1 8dd4 0fc1 e4e1 0fc1
00000020: 44dc 0fc1 4919 0ec1 4648 08c1 3047 0cc1
00000030: 5d42 0bc1 0d49 1bc1 5de4 08c1 2679 0ec1
00000040: b4ef 00c1

output.weight f4 [1, 17]
4.407388 4.2491574 3.9099505 3.627634 2.0992937 3.8990614 3.5766685 3.632723
3.685276 3.761309 4.0515604 3.8638341 3.9119282 3.1296632 4.0196333 3.763831
4.009612
00000000: 5309 8d40 19f9 8740 a13c 7a40 282b 6840
00000010: d45a 0640 398a 7940 23e8 6440 897e 6840
00000020: 90db 6b40 49b9 7040 62a6 8140 0f49 7740
00000030: 085d 7a40 674c 4840 d6a0 8040 9be2 7040
00000040: be4e 8040
