training_nn/model/Theta_net.pth (torch, 66176 bytes, 3 tensors)

fc1.weight f4 [126, 126]
00000000: 1348 8dbd 4966 c43c 3b1a bbbd 05b1 443c
00000010: 6c88 753d 0b77 6f3d 2ea2 10bc 4b12 833d
00000020: 4132 cabc 8284 24bc 0cd8 df3a 34c4 16be
00000030: da68 273d 645b 9e3d cb0c fa3a 6ea9 143d
00000040: 723e b43d cae0 993d d19b 00bd 0518 0dbd
00000050: 5ea8 7bbd bf28 6bbd d702 0b3e a714 ecbc
00000060: 12ca 1c3d 2471 50bd af97 753d 1948 f53c
00000070: f33e 003d 14d1 8ebc e8bc 743d 9135 a4bd
00000080: 718a 0b3d 36cc 28bc dacc 783d fbd1 febc
00000090: b778 8dbd 1c44 2a3c d22b a3bd 8f0d 943d
000000a0: e614 af3d b5f4 aa3d 28fd 00bd 8d19 263d
000000b0: ed35 93bd d371 f63c ced8 6f3d 49db cb3c
000000c0: afa3 8a38 1367 9c3d 8635 aa3c 9c91 33bb
000000d0: 7e09 98bd ee61 8a3d 0a1b 9a3d 277c a3bd
000000e0: f1a5 0c3e 0325 f9bc 2b4a 96bc 0122 9e3d
000000f0: 4a99 723d 241a 0d3c c251 38bd 0016 d4bb
00000100: 6442 a3bd 25ba b33d 869a 463b 4c7d 96bd
00000110: 1627 a4bd 1b9d 843d ccf8 c0bc aaa7 2c3d
00000120: a695 933d a963 163d c2d1 ac3d f214 0f3c
00000130: 85f3 73bd c5f4 213d 721d 26bd fa32 963b
00000140: 8c8e b3bc 06c5 ccbc 7505 98bd a450 6ebd
00000150: 9af9 a63d b429 82bc 934a 8fbd 1ad5 17bd
00000160: 8cb6 603d 56d6 80bd f1b6 87bd 479a 9dbd
00000170: 76a6 51bd 602f 3abd 64bd 303d 623a ab3d
00000180: 2b29 113c 1eec 75bc 564e 3dbd 7f14 583d
00000190: 646a 873d 7840 c8bb 5e67 61bd 4b9a b2bc
000001a0: 9d49 2d3d adae 8c3d babf b3bc 5e97 82bc
000001b0: 4f75 78bd fde6 ac3d d08b 2abd c6d3 ce3c
000001c0: 2a61 aa3a 5f67 9fbd de80 dabb cace a13d
000001d0: b769 63bd dd6c febb d8df a0bd 21a3 973d
000001e0: 7408 303d 792a af3c a082 cdbc 388b dabc
000001f0: 0207 703d 87da e13b b979 3fbe 04f7 5bbe
00000200: ec22 c2bd 3a43 85bd 4965 b4bd ebfd a8bd
00000210: 8d20 443e 1153 303e 571c 20bd caf7 a5bd
00000220: 5417 133d b2e8 3cbe e06e 953d 43e6 88bd
00000230: 5616 a93d 1690 80bc 192a ac3d ce27 f7bc
00000240: 21e1 773b 7bac 483d 6da9 793d 1c8b 07be
00000250: 5480 debb f019 62bd 2568 2dbd 1f93 1cbd
00000260: 5a4a 54bd 718b 963d 381a af3d 2c36 923d
00000270: b825 27bd a267 88bd c6a6 b63c aacf 6cbd
00000280: 58de e2bc a08e 8cbd 6790 4dbe cbe5 96bd
00000290: cd3e b23d e3ef 7abd 3898 95bd 550c b6bd
000002a0: af40 aebc 8e43 443d c13f 263c 05e8 64bd
000002b0: cb09 eabc b1d6 2dbd fc91 2c3c 5aae 553d
000002c0: 98cc 813c 8cb3 c43c b928 fcbc 7c86 47bc
000002d0: 3f16 583d edb3 3d3c 78d1 6e3e 2877 3f3e
000002e0: 0246 09bd 9d50 c2bc 5346 1c3d bde4 3ebd
000002f0: 60d4 c23c 0731 86bd 4aa8 513d 5e52 88bd
00000300: 7f38 bfbc a54b 9fbd 2aff 573d 44f9 083d
00000310: 601c f9bc c800 e53b 370e 063c 0a22 b2bd
00000320: f5e1 843d e936 853d 51b3 f4bb 0e6d 62bd
00000330: 67db 233d e990 163c 07b6 96ba cdec 08bd
00000340: 2e2c 52bb 8947 0a3b 7a01 22bd 4d4d 7bbd
00000350: 46e0 babc 0b24 aabd 1ad8 863d 6d80 213d
00000360: 9d63 b43c 7b12 24be 2bc4 0cbe 007d 72bc
00000370: b0ff 0fbd bf49 ec3d 810e 8a3d 6134 7f3d
00000380: 5ae4 44bc cb5b 3c3d 2dfa 85bd 9a1c fd3c
00000390: 3c13 2f3c 8afe 043d 18ed 74bc 3597 e93c
000003a0: 26fd 68bd cd23 4e3a c356 98bd 4e24 963d
000003b0: 1dcc 973d 4963 0c3e 6166 813d 4d63 8e3c
000003c0: fde8 94bd 7e91 603d fac2 7abd de70 c9bd
000003d0: f6dc 913d 625a 5cbd b6e2 663d 8125 1bbe
000003e0: b978 413d ac92 0cbd b57a 6fbc 8450 163e
000003f0: 370d d9bd 61c6 693c e345 aebd 7aa0 2bbd
-0.06898513 0.023974555 -0.091358624 0.012005095 0.059944555 0.058463138 -0.008827729 0.063999735
-0.024682166 -0.010041358 0.0017077937 -0.14723283 0.04087148 0.07732275 0.0019077299 0.036294393
0.08800973 0.07513578 -0.031398598 -0.034446735 -0.061439864 -0.057411905 0.13575302 -0.028818442
0.038278647 -0.05088915 0.05995911 0.029941605 0.031310033 -0.01743368 0.059750468 -0.080180295
0.034067575 -0.010302594 0.060742237 -0.031105986 -0.0690779 0.010392215 -0.079673424 0.072291486
0.08548908 0.083474554 -0.03149143 0.04055171 -0.0718802 0.030083572 0.05855637 0.024884837
6.610841e-05 0.07636847 0.020777475 -0.0027400022 -0.074236855 0.0675696 0.075246885 -0.079826646
0.13735177 -0.030413156 -0.018345913 0.077213295 0.05922822 0.008612189 -0.044999845 -0.006472349
-0.079716474 0.087757386 0.0030304505 -0.07348117 -0.080152676 0.06475278 -0.023556136 0.042152084
0.072062775 0.036716137 0.08438446 0.008733021 -0.05955841 0.03954007 -0.040555425 0.0045837136
-0.021918558 -0.024996292 -0.07422916 -0.058182374 0.081530765 -0.015889026 -0.06996646 -0.037068464
0.05486159 -0.06290881 -0.0662669 -0.07695442 -0.05118414 -0.045455337 0.043149367 0.08360745
0.008859913 -0.015009908 -0.046217285 0.05275392 0.06612089 -0.006111201 -0.05503022 -0.021802088
0.04230653 0.06869254 -0.021942008 -0.015941318 -0.06065875 0.08442495 -0.04163724 0.025247466
0.0012998928 -0.07783388 -0.006668194 0.0790077 -0.05552074 -0.0077644424 -0.07855195 0.07404161
0.04297681 0.021382557 -0.0250867 -0.026677713 0.058600433 0.0068925056 -0.18698777 -0.21480948
-0.09479317 -0.06506963 -0.08808381 -0.08251556 0.19153042 0.17219187 -0.039089527 -0.08103903
0.03591092 -0.18448141 0.07296538 -0.06684544 0.08256213 -0.015693706 0.08406467 -0.030170348
0.0037823396 0.048992615 0.060952593 -0.1323666 -0.0067902002 -0.055200517 -0.042335648 -0.038226243
-0.05182872 0.07350815 0.08549923 0.07139239 -0.040807456 -0.066603914 0.02229632 -0.05781523
-0.027693912 -0.06863141 -0.20074616 -0.07368048 0.087033845 -0.06126393 -0.07304424 -0.08889071
-0.021271078 0.047915988 0.010147036 -0.055885334 -0.028569123 -0.042441074 0.010532852 0.052168228
0.015844628 0.024011396 -0.030781137 -0.01217806 0.05275559 0.011578542 0.23322093 0.18697798
-0.03351403 -0.02372008 0.038153004 -0.04660486 0.023782909 -0.0655232 0.051185884 -0.06656335
-0.02334237 -0.077781 0.052733578 0.033440843 -0.030409038 0.0069886185 0.0081821 -0.08697899
0.064884104 0.06504614 -0.0074676652 -0.055279784 0.04000416 0.009189823 -0.001149834 -0.033428956
-0.003206979 0.0021099767 -0.03955219 -0.061353017 -0.02281202 -0.08307656 0.06584187 0.039429117
0.022020156 -0.16022675 -0.13746707 -0.01480031 -0.035155952 0.115375035 0.06741048 0.06230581
-0.012017334 0.045985978 -0.06541858 0.030897427 0.010685738 0.03246931 -0.014949106 0.028514484
-0.056882046 0.0007863611 -0.074384235 0.07331143 0.074119784 0.1370975 0.06318355 0.017381335
-0.072710015 0.054826252 -0.0612211 -0.09835981 0.07122223 -0.053797133 0.056368552 -0.15151025
0.04723427 -0.034319565 -0.014616658 0.14679152 -0.10598224 0.014268489 -0.085094236 -0.04190109

fc1.bias f4 [126]
00000000: 083e b9bb 20c7 6abe 7cd2 afbc 7d38 80bd
00000010: 2a02 1f3c 1af4 30be 9fac 08bd 5d0d 0abe
00000020: 0f34 adbc 8382 dbbd 4319 17bd 9f9e aebd
00000030: 2ad3 5bbd 02e5 9fbd 7c4d 98bc 1a27 8dbe
00000040: 4087 cabd 7e12 75bd cb59 213c cf2e 403d
00000050: 26b3 94bd 3d2f 93be 1452 82be ad96 31be
00000060: 8d58 29bf cdce 69bf c513 10be 0a5e 4cbc
00000070: e04a 0bbd 5144 f6bd 70f5 e3bd d244 4ebe
00000080: d2b1 3ebe 02ef 3ebe 9f50 13bd 27b5 66bd
00000090: 785d 4abd 771d c9bc dbed 90be 1109 01bf
000000a0: 1a38 fbbd e3d5 3ebd 796a 27bc ef36 efbd
000000b0: dda9 83be 5da6 2abd 2ee3 9dbd e7a6 383c
000000c0: 4708 b0ba d651 2dbd 162d 12be 9f30 0ebe
000000d0: 4201 0bbd d603 b8bd 5b11 79bc de32 e1bd
000000e0: 83aa 29bd a95d e3bd 3832 3f3c 3699 0ebc
000000f0: 14ed 46bd 257c fdbd 0360 dbbd 411d 4f3c
00000100: 05c7 87be beba 05be b47d 7cbd e374 ebbc
00000110: 7082 8cba b7d1 a0bd 3c3f 83bd 928a afbd
00000120: 18a5 c8be f939 13be 4750 aebc 3cd1 a6bd
00000130: fcf6 93be 7566 e3bd be06 bfbb e37d 97bc
00000140: 3be1 e3ba 286d 0d3c 8575 fcbd 0961 f6bd
00000150: 65bd e2bd a6f3 89bd 9eb2 adbd 8298 d9bd
00000160: 3c7f 24bf 213e 94bd 192b d2bd aade 16be
00000170: dde2 d6bd cf62 2d3c 3919 25be d9fa 0fbe
00000180: 651a febd e662 f8bd e344 7abc 53e7 4fbe
00000190: 8169 7d3b 6a74 23bd 6903 e2be 90b0 ddbd
000001a0: 502b 01bd 8fcb aabd 333b 2bbe d735 38be
000001b0: a098 61bd 0610 0abe 31c6 f7bd 82aa 84bc
000001c0: d3cb 01bf a73b 21be 56b7 99bc db8a d3be
000001d0: 9b10 06be 315d 84bd ef0d 05be 6467 0dbe
000001e0: 4a0f 77bd 4dc4 d9bd ca3b c8bd e881 1abe
000001f0: 4932 013c cfb5 59bd
-0.0056531467 -0.22927523 -0.021462671 -0.06260774 0.009705106 -0.17280617 -0.03336775 -0.1348166
-0.021142988 -0.107182525 -0.036889326 -0.08526348 -0.05366818 -0.07807352 -0.018591635 -0.27568895
-0.09889078 -0.05983209 0.0098480685 0.04691964 -0.07260732 -0.28746977 -0.25453246 -0.17342634
-0.6615074 -0.9133118 -0.14070041 -0.012473593 -0.034006953 -0.12024749 -0.11130798 -0.2014344
-0.1862252 -0.18645862 -0.03596556 -0.056325104 -0.049405545 -0.024550183 -0.2830647 -0.5040446
-0.1226656 -0.046590697 -0.010218256 -0.116803996 -0.25715533 -0.041662563 -0.07709347 0.011270261
-0.0013430201 -0.042314373 -0.14275011 -0.13885735 -0.033936746 -0.08985107 -0.015201892 -0.1099603
-0.04142238 -0.11101849 0.011669688 -0.0087035205 -0.04856594 -0.12377194 -0.10711672 0.012641252
-0.26519027 -0.13059518 -0.061643317 -0.02874226 -0.0010720026 -0.078525 -0.064085454 -0.08571352
-0.39188457 -0.14377584 -0.021278514 -0.08145377 -0.28899372 -0.111035265 -0.005829661 -0.018492645
-0.001738585 0.008631982 -0.123271026 -0.12030227 -0.110712804 -0.067359254 -0.08481334 -0.10624792
-0.64256644 -0.07238413 -0.102621265 -0.14733377 -0.104924895 0.01058264 -0.16122903 -0.14060535
-0.12407378 -0.121282384 -0.015275213 -0.20303087 0.0038667622 -0.039905943 -0.44143227 -0.10824692
-0.031535447 -0.08339607 -0.16721801 -0.17989288 -0.055077195 -0.13482675 -0.12098349 -0.016194586
-0.50701636 -0.15745412 -0.01876418 -0.41316876 -0.13092272 -0.06463087 -0.12993596 -0.13808972
-0.060317315 -0.106331445 -0.09777029 -0.15088618 0.007885524 -0.0531519

output.weight f4 [1, 126]
00000000: 2dce 4fbd 08c6 3d3c 0922 863d f159 d9bc
00000010: b6d8 4bbd c7b5 e63c 3eae 8bbd 304c 7f3d
00000020: a64b 2a3d 3033 333d f825 4dbd 1a29 7abd
00000030: 3b49 a93d 3fc9 25bd 0fa0 90bd 40cc f6bb
00000040: 4f9b 043d 0099 a33d e24c 8e3d 51e5 b03d
00000050: 9a86 813d bfa2 76bc 9a0e 2abc 8cbe 10bd
00000060: 8c1a 233a ed5d ddb9 abbf 8bbd 1c14 103d
00000070: 5b23 043d 6da6 723d 6de1 3c3d bf21 9dbc
00000080: 55f6 f63c db18 ecbc 451c 64bd bad9 7cbd
00000090: 4a42 373d c277 8fbd 0a6b 4d3c 7214 b7bb
000000a0: e9ed 423d 4db8 58bd cd57 a6bd 5aee 923d
000000b0: a2f9 51bc 6003 4d3d bf99 a0bd 9647 51bd
000000c0: 6f21 3abd 648a 3bbd 79c8 a73c 2468 3d3d
000000d0: bdb5 11bd 14ad 893d b683 b13d 736c 0ebd
000000e0: b73c 813d 8213 ef3c cca5 3c3d 0a1b 113d
000000f0: 4230 433d 3f3b 693c e6be 77bd 2500 5d3d
00000100: 9fc0 433c d33e 9f3d 7e94 8b3d f315 44bd
00000110: bd20 ab3d 728d 2d3d 8e3e 6abd 3101 f5bc
00000120: 437b 8c3b fe47 93bc f084 613d 2aa2 9d3c
00000130: fd8c 44bc ddb3 d73c 150d 193d d0cc 78bd
00000140: 40a9 9dbd 3897 5dbd 4618 41bd 78b3 93bd
00000150: 7c20 9c3d 4f45 c3bc d8de b03c 98b4 41bd
00000160: bf09 c4ba 0c2f e5bc 024e e33c c1e7 dfbc
00000170: 0298 ab3d 9c95 5abd f08a d1bc f3f0 8bbc
00000180: 5804 a03d 69fa 9f3d 22a3 aa3d c73e f9bc
00000190: 68df 42bd 1e0f 8abd 32b1 e4bb 943b ac3c
000001a0: 721a 28bd 9f16 08bd a0df 45bc b2de e7bc
000001b0: dbbd a8bd 236b 613d 0619 69bd 4358 90bd
000001c0: cdb8 afbb b63d a93c 5987 96bd 0cd7 a33b
000001d0: c6ed 7dbd 6b06 aa3d 5c7c c6bc 5237 88bd
000001e0: efea a5bd 610f 93bd 173b ad3c f18d 313d
000001f0: 67a0 4b3d 82b7 9bbd
-0.050733734 0.011582859 0.065494604 -0.026532145 -0.04976722 0.02816285 -0.068203434 0.062328517
0.04157605 0.043749988 -0.050085038 -0.061074354 0.08265921 -0.040475126 -0.07061779 -0.0075316727
0.032374676 0.07988167 0.06948258 0.08637489 0.06324501 -0.01505345 -0.010379458 -0.03533797
0.00062219123 -0.00042222385 -0.06823667 0.035175428 0.03226028 0.059240747 0.04611342 -0.01918113
0.030146757 -0.028820446 -0.055691022 -0.061731078 0.044740953 -0.07005264 0.012537727 -0.005587154
0.04759017 -0.052910138 -0.081222154 0.07174368 -0.012815865 0.050052047 -0.07841825 -0.05109366
-0.04544204 -0.045786276 0.020481335 0.046241894 -0.03557371 0.06722465 0.086677 -0.034771394
0.063104086 0.029184107 0.046056554 0.035426177 0.047653444 0.014235317 -0.06048479 0.053955216
0.01194778 0.07775655 0.06815432 -0.047872495 0.08355854 0.04237122 -0.057188563 -0.029907795
0.004287155 -0.017978664 0.05505842 0.019242365 -0.011996505 0.026330883 0.03736599 -0.0607422
-0.076982975 -0.05409929 -0.04714229 -0.07211965 0.076233834 -0.02383676 0.021590635 -0.04729137
-0.0014956518 -0.027976535 0.027747158 -0.027332189 0.083786026 -0.053365335 -0.025578946 -0.017082667
0.078133285 0.07811434 0.08331896 -0.030425442 -0.047576338 -0.067411646 -0.006979131 0.021024503
-0.041040845 -0.0332247 -0.012077242 -0.028304432 -0.08239337 0.055033814 -0.05690863 -0.070480846
-0.005362606 0.020659309 -0.07350034 0.005000001 -0.061994337 0.083020054 -0.024229221 -0.066511765
-0.08101451 -0.07180668 0.02114634 0.043348256 0.04971352 -0.07603361
