training_nn/model/order2_trained/Theta_net.pth (torch, 7063 bytes, 7 tensors)

fc1.weight f4 [30, 15]
-0.3081043 10.91198 21.985855 -7.881222 -24.041008 25.2973 -52.503548 39.54548
-35.641502 -13.48537 0.20513397 3.027227 0.6140366 24.862694 -3.2058418 -4.9887376
0.8843567 0.18373068 0.0025201936 -0.06787439 0.1424836 -11.053904 0.29578927 0.20870869
-0.2783039 0.49938437 0.1862706 -0.1875472 1.01226 -1.1027607 -1.5262592 4.335774
15.348523 -2.6870854 -16.356869 20.8077 -51.466045 34.389423 -30.988348 -7.484455
-0.03455862 1.8980919 -1.7955266 20.239866 1.3620099 -1.570845 -12.596022 12.82718
10.684237 -11.225407 12.783572 -54.956562 22.005466 -21.545404 -2.2323995 -1.939234
1.8139787 -4.359604 19.890425 9.327586 -1.9834425 -12.25033 6.9222856 10.199601
-6.9473257 9.873598 -52.577198 22.03467 -18.703022 -3.5048065 0.35958204 0.85052955
-3.7802885 14.578093 1.8043026 -1.3934793 3.8948123 15.101144 -1.4847786 -16.055498
20.19077 -51.72326 34.17837 -31.00741 -7.527487 0.17442986 1.0638138 -2.4638271
19.529617 -0.023245681 -2.0678422 -5.963609 8.422132 5.817365 -9.237381 13.263352
-51.412308 27.080866 -23.238169 -4.512743 0.9028213 0.6733787 -3.172634 14.327703
-4.764931 -2.400983 -6.1284823 8.038156 5.173522 -8.377856 12.018774 -51.07472
26.574228 -22.19503 -4.653779 0.57050085 1.251764 -3.0787776 15.9741955 -0.51061
-2.0333753 -9.54264 5.601541 9.286023 -5.942647 8.0328865 -49.178146 19.031145
-14.642159 -3.119577 1.1068347 -0.5787777 -3.2546175 10.291054 -15.047032 -1.4929097
-28.309168 -2.1625876 25.234005 7.971841 -19.875717 49.712227 -34.42191 30.480247
13.710953 1.0174172 -9.763923 -7.70854 -19.89734 3.0797906 -2.8625433 -7.1975083
3.0035086 7.2149653 -3.4728105 4.932705 -44.236683 14.176488 -10.369154 -2.5837345
0.9481435 -0.11027184 -1.8652935 9.7967825 -15.004555 -2.4282234 -0.6940692 6.5059433
1.7851272 -7.5558023 11.851692 -47.63613 25.923428 -21.953438 -5.2455993 0.69218594
1.2272655 -1.9332608 15.894831 -2.4897869 -1.9864408 -12.641073 7.582041 10.542142
-7.5509014 10.056455 -52.835995 23.202553 -19.414713 -3.591335 0.3172843 1.0934509
-4.33684 15.077417 1.8327551 -2.5460794 -11.363145 3.534816 10.454604 -3.5542815
5.4710393 -47.101357 14.584298 -11.269282 -2.3896284 1.1935518 0.029628612 -2.1946504
9.883546 -12.3623295 -1.7686552 -11.2556305 13.603359 9.146578 -12.178905 15.104876
-54.641113 25.515625 -24.584127 -3.1631782 -1.71137 2.3897636 -4.419094 20.450602
8.761748 -1.6513764 -19.312733 8.626885 15.587037 -7.8448687 9.497751 -55.28087
19.414936 -17.05753 -2.1290393 0.09208655 0.76212317 -5.8343215 13.59787 3.080318
-1.2137134 -30.785639 -1.7037383 27.89245 7.7714176 -21.885172 50.297806 -33.241283
29.865881 16.415812 0.0089798225 -11.568199 -10.080361 -21.795786 2.5311334 -1.5326874
00000000: d9bf 9dbe 7897 2e41 08e3 af41 f832 fcc0
00000010: fc53 c0c1 df60 ca41 a203 52c2 922e 1e42
00000020: e690 0ec2 13c4 57c1 a40e 523e 16be 4140
00000030: 8131 1d3f cce6 c641 832c 4dc0 bda3 9fc0
00000040: 3365 623f e523 3c3e d529 253b ba01 8bbd
00000050: 39e7 113e cadc 30c1 b171 973e bbb7 553e
00000060: d97d 8ebe 4faf ff3e b8bd 3e3e 600c 40be
00000070: bc91 813f 4327 8dbf 765c c3bf a9be 8a40
00000080: 8d93 7541 35f9 2bc0 deda 82c1 2b76 a641
00000090: 3bdd 4dc2 c58e 0942 23e8 f7c1 a880 efc0
000000a0: 578d 0dbd adf4 f23f d1d3 e5bf 3feb a141
000000b0: 5756 ae3f 7311 c9bf 4e89 49c1 213c 4d41
000000c0: a2f2 2a41 449b 33c1 8389 4c41 85d3 5bc2
000000d0: 320b b041 fd5c acc1 a2df 0ec0 d238 f8bf
000000e0: 7430 e83f e081 8bc0 971f 9f41 cb3d 1541
000000f0: 72e1 fdbf 5a01 44c1 5d83 dd40 9131 2341
00000100: 7e50 dec0 42fa 1d41 0d4f 52c2 0147 b041
00000110: ca9f 95c1 c04e 60c0 231b b83e 4ebc 593f
00000120: 3ff0 71c0 de3f 6941 63f3 e63f 885d b2bf
00000130: 9b44 7940 499e 7141 3a0d bebf a971 80c1
00000140: b286 a141 9ee4 4ec2 a7b6 0842 2d0f f8c1
00000150: 2ce1 f0c0 be9d 323e 0d2b 883f 58af 1dc0
00000160: a83c 9c41 ba6d bebc 8757 04c0 e3d5 bec0
00000170: 0dc1 0641 db27 ba40 50cc 13c1 b136 5441
00000180: 34a6 4dc2 9da5 d841 c5e7 b9c1 6468 90c0
00000190: 4c1f 673f 8c62 2c3f 6f0c 4bc0 463e 6541
000001a0: 517a 98c0 b5a9 19c0 871c c4c0 499c 0041
000001b0: 7e8d a540 b30b 06c1 e64c 4041 834c 4cc2
000001c0: 0598 d441 6c8f b1c1 c2eb 94c0 580c 123f
000001d0: ce39 a03f b10a 45c0 4e96 7f41 56b7 02bf
000001e0: d222 02c0 a7ae 18c1 d33f b340 8d93 1441
000001f0: 2a2a bec0 b486 0041 6cb6 44c2 c93f 9841
00000200: 4946 6ac1 26a7 47c0 c2ac 8d3f c62a 14bf
00000210: a74b 50c0 28a8 2441 a5c0 70c1 aa17 bfbf
00000220: 2d79 e2c1 d667 0ac0 3edf c941 5219 ff40
00000230: 7801 9fc1 52d9 4642 09b0 09c2 8cd7 f341
00000240: 1060 5b41 ba3a 823f 0739 1cc1 5cac f6c0
00000250: c12d 9fc1 4a1b 4540 e933 37c0 fd51 e6c0
00000260: 7c39 4040 ffe0 e640 8742 5ec0 b8d8 9d40
00000270: 5df2 30c2 e5d2 6241 0ee8 25c1 e85b 25c0
00000280: 88b9 723f 34d6 e1bd f0c1 eebf 9fbf 1c41
00000290: a812 70c1 0368 1bc0 85ae 31bf b030 d040
000002a0: 0c7f e43f 22c9 f1c0 88a0 3d41 668b 3ec2
000002b0: 2e63 cf41 a4a0 afc1 f3db a7c0 1933 313f
000002c0: 0917 9d3f 1775 f7bf 3a51 7e41 ab58 1fc0
000002d0: b143 febf d641 4ac1 14a0 f240 9dac 2841
000002e0: fca0 f1c0 3de7 2041 0f58 53c2 d49e b941
000002f0: 5551 9bc1 6fd8 65c0 1673 a23e 33f6 8b3f
00000300: 65c7 8ac0 1a3d 7141 b897 ea3f f7f2 22c0
00000310: 71cf 35c1 6d3a 6240 0f46 2741 5979 63c0
00000320: c112 af40 ca67 3cc2 4959 6941 fb4e 34c1
00000330: acef 18c0 4ec6 983f b4b7 f23c 2775 0cc0
00000340: 0123 1e41 1acc 45c1 4b63 e2bf 1017 34c1
00000350: 5ca7 5941 6258 1241 cbdc 42c1 92ad 7141
00000360: 8090 5ac2 0020 cc41 4bac c4c1 8371 4ac0
00000370: 2c0e dbbf e3f1 1840 3869 8dc0 d59a a341
00000380: 1f30 0c41 4d60 d3bf 7a80 9ac1 b907 0a41
00000390: 8164 7941 2a09 fbc0 caf6 1741 9c1f 5dc2
000003a0: ca51 9b41 d275 88c1 2e42 08c0 e097 bc3d
000003b0: 811a 433f c3b2 bac0 e090 5941 ee23 4540
000003c0: f65a 9bbf fd48 f6c1 1914 dabf bd23 df41
000003d0: 74af f840 d514 afc1 f430 4942 13f7 04c2
000003e0: 53ed ee41 9553 8341 1b20 133c 5817 39c1
000003f0: 2949 21c1 c55d aec1 17fe 2140 1a2f c4bf

fc1.bias f4 [30]
-0.24079297 -4.7327185 -1.168878 -1.6398641 -2.1965678 -1.3872316 -2.0353217 -1.9798942
-2.203186 -1.2383602 -2.6758542 -2.5587034 -2.0537076 -2.5617661 -1.4141564 -1.6205938
-1.1840116 -1.4340943 -2.2385812 -2.8645053 -3.4365711 -4.452851 -2.9974408 -2.6358538
-2.8702662 -2.4347827 -1.3228033 -1.1929628 -2.6368697 -1.6878434
00000000: 6f92 76be 6e72 97c0 cb9d 95bf 11e7 d1bf
00000010: 9194 0cc0 ce90 b1bf b642 02c0 2c6d fdbf
00000020: 0001 0dc0 9682 9ebf 3241 2bc0 ccc1 23c0
00000030: f26f 03c0 faf3 23c0 1403 b5bf 9e6f cfbf
00000040: b18d 97bf 6790 b7bf ea44 0fc0 0e54 37c0
00000050: c8f0 5bc0 c17d 8ec0 12d6 3fc0 d4b1 28c0
00000060: 71b2 37c0 7bd3 1bc0 9e51 a9bf 01b3 98bf
00000070: 79c2 28c0 410b d8bf

fc2.weight f4 [15, 30]
1.6032673 0.5337 4.2225885 6.858837 5.497985 4.326687 5.1958785 5.3260603
4.3230586 6.034399 3.1150784 4.252863 5.8212996 3.9623182 6.586914 6.2835307
5.7291026 6.7587023 5.1497087 3.8693428 2.634885 1.0265877 3.0313196 3.746112
3.11402 4.778037 6.060543 3.7361078 4.6619744 6.245595 1.8551649 0.28410962
4.1257396 6.7741947 5.468076 4.366036 5.274661 5.4071293 4.290062 5.806778
3.522461 4.5425777 5.6629353 4.053959 6.652252 6.228044 5.4399533 6.803703
5.1934743 3.975869 2.9734333 1.2751445 2.9731033 4.112286 3.1812434 5.235119
5.910319 3.2480965 4.823167 5.926938 -2.6492128 -0.5367499 -2.0142121 -2.650635
-1.7971013 -1.8307722 -1.663965 -1.4768941 -1.8719705 1.0890567 -1.4905684 -1.134236
-1.8765514 -1.5061961 -2.7210152 -2.6219282 1.3920676 -2.723538 -1.9058418 -1.6900764
-1.1370392 -0.6688805 -1.4650742 -1.5112425 -1.678003 -1.6610965 -2.9534702 -3.4607723
-1.3193138 -2.1588142 -6.2189727 -0.38560423 -5.25844 -3.914105 -4.0988016 -5.296476
-4.8292346 -4.4987917 -4.891339 7.5036836 -4.393217 -4.4532304 -3.9847786 -4.2428703
-4.048012 -3.8121285 7.966846 -4.276834 -4.2224054 -2.5466902 -2.9793513 -1.4186381
-3.3040965 -3.8521078 -2.0686233 -3.8297873 -4.411426 -4.9878893 -3.639318 -4.544893
-2.1824129 -0.2714631 -1.5640461 -2.490053 -1.595728 -1.3886797 -1.3101687 -1.2776035
-1.3290778 0.7294632 -0.8135012 -0.7888917 -1.8064638 -1.3891469 -2.4801548 -2.221851
0.3960646 -2.4690695 -1.8492652 -1.6448005 -0.8297654 -0.5721041 -1.1440586 -1.0434505
-1.3632419 -1.196509 -2.7649755 -3.4361246 -1.2697947 -2.0817873 -1.5353383 -0.36849988
-1.2175258 -2.8719254 -1.6137923 -1.3933165 -1.0420638 -0.9649656 -1.4067545 0.89307237
-0.9088723 -0.77866584 -1.6060761 -1.2885199 -2.6632683 -2.4613574 0.8633276 -2.4160175
-1.738219 -1.6930208 -0.45380023 -0.5133369 -1.176966 -1.3171687 -1.5556071 -1.3942096
-2.7544856 -3.3942735 -1.2158123 -1.8674976 -1.873804 0.06253139 -1.9090939 -1.9709126
-0.95934254 -1.6923122 -0.9219706 -1.1195567 -0.4479987 -4.944868 -0.8216918 -1.2806717
-0.9505383 -0.7910768 -1.7822044 -1.0597993 -6.8222737 -1.1225597 -0.74515027 -1.5186709
-1.0995296 -0.7482836 -1.1458502 -1.0366486 -1.5208763 -1.0560204 -0.8746891 -0.76532376
-1.2988249 -1.6895564 -5.4190326 -0.2211555 -3.7036371 -2.0796165 -2.0130906 -3.5360823
-2.7442415 -2.6319797 -2.8020244 -0.4322079 -2.1549983 -2.8408563 -2.170328 -1.9811232
-2.439412 -1.8094172 -0.29245353 -2.3724062 -2.2200835 -1.5859715 -1.8387265 -1.1359197
-1.6670538 -1.6896007 -1.4511268 -2.1024258 -2.4484828 -3.2548547 -1.9476447 -2.7673893
-4.747997 -0.15264371 -3.2884128 -2.1281915 -2.0671952 -3.111754 -2.4829357 -2.2976322
-2.4957194 -0.85280985 -2.0927134 -2.4500299 -2.1469126 -1.8354741 -2.33407 -1.621033
00000000: dd37 cd3f 90a0 083f 721f 8740 987b db40
00000010: 7eef af40 3874 8a40 a344 a640 166f aa40
00000020: 7f56 8a40 cc19 c140 725d 4740 7417 8840
00000030: 1648 ba40 9f96 7d40 00c8 d240 af12 c940
00000040: cf54 b740 4a47 d840 6aca a440 50a3 7740
00000050: f5a1 2840 3a67 833f 2401 4240 4dc0 6f40
00000060: 1b4c 4740 aee5 9840 f8ef c140 641c 6f40
00000070: e52e 9540 eadb c740 0b76 ed3f d176 913e
00000080: 0f06 8440 34c6 d840 7bfa ae40 91b6 8b40
00000090: 06ca a840 3407 ad40 3048 8940 20d1 b940
000000a0: 0070 6140 cc5c 9140 c436 b540 08ba 8140
000000b0: 40df d440 234c c740 1914 ae40 efb7 d940
000000c0: f130 a640 a374 7e40 bb4c 3e40 ef37 a33f
000000d0: 5347 3e40 d997 8340 7e99 4b40 1886 a740
000000e0: 5521 bd40 d0e0 4f40 6257 9a40 7aa9 bd40
000000f0: b48c 29c0 7168 09bf dae8 00c0 01a4 29c0
00000100: 6a07 e6bf be56 eabf cefc d4bf de0a bdbf
00000110: bb9c efbf 3666 8b3f f2ca bebf a52e 91bf
00000120: d632 f0bf 09cb c0bf 1d25 2ec0 accd 27c0
00000130: 452f b23f 724e 2ec0 a0f2 f3bf 6c54 d8bf
00000140: 808a 91bf c13b 2bbf 8d87 bbbf 6570 c1bf
00000150: cdc8 d6bf cf9e d4bf a805 3dc0 4b7d 5dc0
00000160: 46df a8bf 032a 0ac0 d301 c7c0 eb6d c5be
00000170: 2445 a8c0 b280 7ac0 6229 83c0 bb7c a9c0
00000180: 1789 9ac0 1af6 8fc0 d985 9cc0 2d1e f040
00000190: 3c95 8cc0 dd80 8ec0 9d06 7fc0 98c5 87c0
000001a0: 5089 81c0 eaf9 73c0 67f0 fe40 d3db 88c0
000001b0: f21d 87c0 f9fc 22c0 b1ad 3ec0 ef95 b5bf
000001c0: 5176 53c0 ef88 76c0 5364 04c0 3c1b 75c0
000001d0: 672a 8dc0 ca9c 9fc0 96ea 68c0 c36f 91c0
000001e0: a7ac 0bc0 36fd 8abe aa32 c8bf 075d 1fc0
000001f0: d140 ccbf 42c0 b1bf 9cb3 a7bf 8388 a3bf
00000200: 391f aabf 1abe 3a3f 9d41 50bf cef4 49bf
00000210: 353a e7bf 91cf b1bf dbba 1ec0 cf32 0ec0
00000220: fbc8 ca3e 3c05 1ec0 b9b4 ecbf d388 d2bf
00000230: 816b 54bf 6a75 12bf 8370 92bf c98f 85bf
00000240: b67e aebf 3527 99bf 5cf5 30c0 77e9 5bc0
00000250: a288 a2bf 013c 05c0 f785 c4bf 04ac bcbe
00000260: e3d7 9bbf a0cd 37c0 bf90 cebf 3258 b2bf
00000270: 5962 85bf fc07 77bf 8810 b4bf 64a0 643f
00000280: dbab 68bf a556 47bf e793 cdbf 38ee a4bf
00000290: fd72 2ac0 e186 1dc0 0a03 5d3f 08a0 1ac0
000002a0: f67d debf e8b4 d8bf 8158 e8be 0c6a 03bf
000002b0: d2a6 96bf fc98 a8bf 221e c7bf 7675 b2bf
000002c0: 7e49 30c0 c73b 59c0 bd9f 9bbf 290a efbf
000002d0: cfd8 efbf 7510 803d 305d f4bf dd46 fcbf
000002e0: 7997 75bf b09d d8bf 4406 6cbf a24d 8fbf
000002f0: 1660 e5be 5c3c 9ec0 655a 52bf 0ded a3bf
00000300: 7a56 73bf 0284 4abf 461f e4bf 81a7 87bf
00000310: 1150 dac0 09b0 8fbf 2bc2 3ebf cf63 c2bf
00000320: 63bd 8cbf 848f 3fbf 38ab 92bf e7b0 84bf
00000330: 13ac c2bf ad2b 87bf a0eb 5fbf 42ec 43bf
00000340: e53f a6bf 6243 d8bf b768 adc0 9676 62be
00000350: 6408 6dc0 7018 05c0 7ad6 00c0 2c4f 62c0
00000360: a7a1 2fc0 5b72 28c0 5e54 33c0 5b4a ddbe
00000370: 7eeb 09c0 97d0 35c0 a7e6 0ac0 7295 fdbf
00000380: 541f 1cc0 fc9a e7bf 78bc 95be 81d5 17c0
00000390: d915 0ec0 1d01 cbbf 645b ebbf d165 91bf
000003a0: 0562 d5bf d644 d8bf 86be b9bf 258e 06c0
000003b0: f1b3 1cc0 8a4f 50c0 6c4c f9bf e81c 31c0
000003c0: 97ef 97c0 a24e 1cbe 5b75 52c0 4a34 08c0
000003d0: ed4c 04c0 fa26 47c0 6be8 1ec0 680c 13c0
000003e0: deb9 1fc0 bf51 5abf 04ef 05c0 4acd 1cc0
000003f0: 0467 09c0 d1f0 eabf 6761 15c0 027e cfbf

fc2.bias f4 [15]
1.4044536 1.3231193 -0.61936045 -1.2255473 -0.54324186 0.046763465 -1.292588 -5.1386333
-5.288398 -5.6032 0.0024163483 -3.1880176 -1.22036 -3.4962106 -3.686134
00000000: 23c5 b33f f95b a93f 688e 1ebf bcde 9cbf
00000010: e611 0bbf 0c8b 3f3d 8673 a5bf af6f a4c0
00000020: 8e3a a9c0 6a4d b3c0 995b 1e3b 7b08 4cc0
00000030: c234 9cbf eac1 5fc0 9fe9 6bc0

fc3.weight f4 [7, 15]
-2.9374895 -2.8228896 -3.294943 -4.979856 -2.3742368 -2.4426265 2.0729146 -0.94388473
-0.9741352 -0.55589634 -2.4629493 -1.8245504 -4.4311433 -2.3763332 -1.0550148 -2.6642432
-2.824133 -3.492845 -3.7890491 -2.9924295 -3.0417843 0.93950915 -0.8485571 -0.8883645
-0.61215395 -2.8404431 -1.5726434 -3.7935808 -2.0576038 -0.8166472 -1.9426212 -2.4745176
-1.961194 -7.3604417 -1.2585489 -1.2109779 4.7468534 -0.91036695 -0.78199977 -0.74852365
-1.7128778 -3.7127132 -7.0206885 -3.3220832 -2.8877428 -2.3346658 -2.8238232 -4.346923
-3.247013 -4.451352 -4.619498 -4.3058414 -1.0982391 -1.1920712 -1.0195763 -2.2828753
-1.5523412 -2.7747653 -2.2985954 -1.4991449 -1.9756912 -2.1683307 2.6629188 1.3507746
2.4422352 2.9645898 -2.3532512 0.37196663 0.51336616 0.67889273 -2.3051894 -0.122853786
1.5063379 -0.08642755 -0.043350548 -1.0177851 -0.79266876 -2.2716334 -5.8421454 -2.552862
-2.7312562 -1.2930188 -1.48973 -1.4182959 -1.2345178 -0.920264 -3.7625077 -6.039932
-2.4947746 -3.7838986 -2.4763558 -2.7897348 -3.583996 -3.5182822 -3.2912261 -3.2721474
-0.5195815 -0.7511017 -0.6784652 -0.89404005 -2.8083405 -1.4561721 -3.3889866 -2.227843
-1.4140645
00000000: d4ff 3bc0 39aa 34c0 59e0 52c0 fb5a 9fc0
00000010: 7ff3 17c0 fe53 1cc0 a2aa 0440 6ea2 71bf
00000020: ed60 79bf 394f 0ebf f6a0 1dc0 de8a e9bf
00000030: edcb 8dc0 d815 18c0 ba0a 87bf f682 2ac0
00000040: 98be 34c0 c68a 5fc0 c87f 72c0 f783 3fc0
00000050: 98ac 42c0 ac83 703f 0a3b 59bf db6b 63bf
00000060: 1fb6 1cbf d2c9 35c0 614c c9bf 07ca 72c0
00000070: c8af 03c0 ca0f 51bf d0a7 f8bf 7f5e 1ec0
00000080: 6808 fbbf bd88 ebc0 2118 a1bf 5301 9bbf
00000090: 39e6 9740 cf0d 69bf 2331 48bf 3f9f 3fbf
000000a0: 943f dbbf 189d 6dc0 7ba9 e0c0 039d 54c0
000000b0: c7d0 38c0 2a6b 15c0 85b9 34c0 fe19 8bc0
000000c0: 10cf 4fc0 7a71 8ec0 edd2 93c0 74c9 89c0
000000d0: 1993 8cbf ca95 98bf 7a81 82bf a11a 12c0
000000e0: 1eb3 c6bf c195 31c0 301c 13c0 fbe3 bfbf
000000f0: 73e3 fcbf eec5 0ac0 436d 2a40 2fe6 ac3f
00000100: 954d 1c40 d7bb 3d40 ab9b 16c0 6972 be3e
00000110: f76b 033f eacb 2d3f 3988 13c0 c49a fbbd
00000120: aecf c03f ed00 b1bd 5890 31bd c846 82bf
00000130: 57ec 4abf 7162 11c0 dbf2 bac0 1762 23c0
00000140: e7cc 2ec0 a481 a5bf 79af bebf b88a b5bf
00000150: ae04 9ebf 6c96 6bbf edcc 70c0 1f47 c1c0
00000160: 63aa 1fc0 652b 72c0 9d7c 1ec0 048b 32c0
00000170: 3160 65c0 892b 61c0 73a3 52c0 dd6a 51c0
00000180: 4b03 05bf 3348 40bf e5af 2dbf cfdf 64bf
00000190: dabb 33c0 d963 babf 28e5 58c0 fb94 0ec0
000001a0: 1100 b5bf

fc3.bias f4 [7]
-1.5772381 -1.8329152 -1.2425908 -2.3718386 -1.955498 -0.82165086 -2.216035
00000000: f0e2 c9bf f79c eabf 370d 9fbf 34cc 17c0
00000010: c24d fabf b657 52bf 84d3 0dc0

output.weight f4 [1, 7]
2.8141186 2.688041 3.3921359 2.670377 -2.5506208 2.4718027 2.6093361
00000000: 851a 3440 dd08 2c40 c118 5940 75e7 2a40
00000010: 5f3d 23c0 0432 1e40 5dff 2640
